checkpoint_critic_0.pth (torch_old, 164274 bytes, 9 tensors)

fc1.weight f4 [256, 24]
00000000: 779c 8cbc 825c 6e3e 9236 7ebd 8f75 ca3e
00000010: a80c 14be 5943 9a3c 2250 9fbd bba9 c83e
00000020: 89c0 cdbd f9a3 db3e 9685 903d 2b8a 5d3e
00000030: e350 67be 47b0 b9be 3897 b03d af00 4a3e
00000040: 3656 87be eca2 c03e a9e2 9ebd 369b 4bbe
00000050: 7f43 923d 13b7 6dbf 1dc1 27bc 785f 34be
00000060: 4be6 ca3d da0f 053f 1a47 aa3c df69 823d
00000070: faad 1c3e 49a9 3d3e 8c35 02bc 6869 1e3e
00000080: 8882 aa3b 35c4 413f 9ba2 2f3c 53c8 913d
00000090: c464 4a3c 4510 28bf a2c4 093d 0170 093e
000000a0: 14f1 24be 8762 3a3f 3a4e 823c 0f56 fcbd
000000b0: ddd3 2b3e 3f9f b5bf bdc8 9f38 cb38 68be
000000c0: 8ed0 443f aeb5 febb b273 b33c 7345 b73d
000000d0: 3a17 ad3d bb78 493e dbc2 27bc 9b37 3f3d
000000e0: 36eb 903e 69ec 5dbe 1660 58be 9c5e 1bbe
000000f0: 2858 7a3e 87eb d43e e829 50be 6eae 1ebe
00000100: cde9 123e 91c4 a4be 0c1a 38bc 251b 303e
00000110: a752 963e ec17 263f 8db2 923b 8e3c 933d
00000120: fbb4 2bbd 1cce 3a3d e846 fb3b 5f8b 59bd
00000130: 3705 013c 9397 e5be a80b 67bc 018f f9bb
00000140: dcc1 65be dacf 7a3d b65e a0bc 1803 04bc
00000150: a7be 413e 2cb3 aebe 772c 743c bbab 453d
00000160: c32e 16bf e83d 41be a417 5f3a 51cb 55bd
00000170: e787 b73e 911d 43bf 1d91 253d ad04 583a
00000180: e1ee 173d 3b89 3d3e 61b8 283d d24e 8f3e
00000190: e27c b93c 5925 04be 0dfb 0f3d 9b49 8a3e
000001a0: e527 7d3d d5d1 e03d 8d3e 99bd 566f 1f3e
000001b0: 27cd d23e 8697 a2bd 8323 033d 2197 133e
000001c0: af36 9d3e 49cc c13d 831a 23bd b6ad 47ba
000001d0: 789d 553f 4a12 bebe ce3f 2ebd f356 123b
000001e0: 0e37 2dbe 9009 ddbe a4e2 1e3c df36 063d
000001f0: a982 cebd c10b 24bf c9c6 98bb 4c9a 59bc
00000200: 1af6 743a 001a 0d3e 11d6 32bc 311a 903e
00000210: 0f32 f93d d214 bebe 8ede e33b 6c29 9f3e
00000220: 1c77 2c3e a1ef e13e 7a15 dbbc 737b b4be
00000230: bf9d 953d 0293 8b3f fde5 df3c 18f2 a5be
00000240: 069e 87be 2c80 6b3d b7a7 0fbc 1774 303d
00000250: 7b27 293e 6afb c63e 5b7b 5c3b 3c37 a23c
00000260: e865 70be 5100 033e 0d6d d3bc b311 2f3e
00000270: e97b 313d bb01 393f 1db5 203c 29be df3d
00000280: 4cf2 a1be 78a9 a0bc ec7b 26bd dbcf 553d
00000290: 429c 3bbe 3965 8f3f 3326 f2bc 26df 9e3c
000002a0: 54ba 8bbe 1892 f7bd 49c8 833e fa0f 823e
000002b0: 2143 d93e 6689 7dbe 6e15 793e 1dc4 843e
000002c0: 19ac 7fbc c0f0 3cbc ca9f f73c 4855 783e
000002d0: 950f 8a3e 34cf ddbe 173c ad3d 918f a13e
000002e0: 982f 34be 904a 063c 111b 8cbd b337 9a3e
000002f0: 962b 3ebe abcd 47be 8ead 0dbd 803b ca3e
00000300: bcdd 533d 0b20 a2be 2e4b 293e c901 813d
00000310: 804d dabe 034d 08bf 4406 033e 47eb a63d
00000320: 6fd7 1bbc 760e 74be 33da b6bd b8b9 753e
00000330: 1806 fabe dc80 e1be 0006 18be 092a 4f3e
00000340: df25 9f3b 3e55 e1bd 40a2 583d 18ee b6bd
00000350: 37f6 b1bd 5794 87be 3723 77bd c2a6 cdbd
00000360: b80c 37be 8ce3 adbe aba9 f23c 4495 7fbd
00000370: cabf 92be d04e 4e3e d5b6 1cbd f419 7bbc
00000380: 5fcc 42bd 6352 86be 4855 d23d e468 15be
00000390: 9bd4 31be 7874 a13e a7fe 143e e98e 1ebe
000003a0: fa57 a7bd 008e a0be 75b8 463e 18ea 363e
000003b0: c249 e0bc 48b3 5d3f 3462 693e 6d25 873e
000003c0: cde4 893e a027 243e fc89 ddbd 8791 2d3d
000003d0: b988 77be b0a8 383e 70cd 24be be70 6c3d
000003e0: e0dc 483d ad69 38bc 204c f0bd 2b21 143e
000003f0: 89f7 5cbe 5376 703e f728 32be 12f0 0f3e
-0.017164452 0.23277476 -0.06206376 0.39542815 -0.14457953 0.018830942 -0.07778956 0.39191994
-0.10046489 0.4289854 0.070567295 0.21634738 -0.2258945 -0.362673 0.08622593 0.19726823
-0.2643296 0.376243 -0.07758076 -0.19883427 0.0714178 -0.92857474 -0.010238913 -0.17614543
0.09907206 0.5197731 0.020785857 0.063678496 0.15300742 0.18521608 -0.007947337 0.15469897
0.005203549 0.75690013 0.0107199205 0.07118287 0.012353126 -0.65649825 0.03363479 0.13421632
-0.16107589 0.7280659 0.015906442 -0.12321102 0.16780038 -1.4189223 7.619101e-05 -0.22677915
0.7688073 -0.0077731228 0.021905754 0.08948793 0.08451696 0.19674961 -0.010239328 0.04668389
0.28304452 -0.21672215 -0.21130404 -0.1517281 0.24447691 0.41585943 -0.20328486 -0.15496227
0.14347 -0.32181218 -0.011236679 0.17197855 0.29359934 0.6488025 0.0044768513 0.07189284
-0.041920643 0.045606717 0.007668365 -0.05311143 0.0078747785 -0.44842204 -0.0141019 -0.0076159243
-0.22437233 0.06123338 -0.019576412 -0.008057378 0.18920384 -0.34121072 0.014903179 0.048259478
-0.586651 -0.18871272 0.00085102976 -0.05219585 0.35845873 -0.7621699 0.040421594 0.0008240443
0.037093047 0.1850938 0.041191462 0.27989823 0.022642557 -0.12904872 0.03515153 0.27009282
0.061805625 0.10977522 -0.07482634 0.15569815 0.41172144 -0.07939057 0.03201629 0.1441312
0.30705783 0.094627924 -0.039820205 -0.00076171325 0.83443403 -0.37123328 -0.042541318 0.0022329658
-0.16915533 -0.43171358 0.00969759 0.032767173 -0.10083515 -0.64080435 -0.004662369 -0.013281416
0.00093445333 0.1377945 -0.010915295 0.28144982 0.12167751 -0.3712526 0.006954021 0.3108629
0.16842312 0.44128135 -0.02674364 -0.35250434 0.07305478 1.0904238 0.027331347 -0.32411265
-0.2648775 0.05749528 -0.008768014 0.043079462 0.16518967 0.3886369 0.0033642862 0.019801728
-0.23476374 0.1279309 -0.025808835 0.17096595 0.04333106 0.72268265 0.009808806 0.10924942
-0.3163017 -0.019612059 -0.040645525 0.05220018 -0.18321326 1.1202766 -0.02955923 0.019393515
-0.27290595 -0.12088412 0.25738743 0.25402814 0.42434028 -0.24759445 0.24324581 0.25930873
-0.015604996 -0.011532009 0.03022756 0.24251282 0.26965013 -0.43322146 0.08458727 0.31554845
-0.1759628 0.008196488 -0.068411 0.3012062 -0.18571314 -0.1951205 -0.034589343 0.3949852
0.051725134 -0.31665072 0.16532585 0.062991686 -0.42637253 -0.5324251 0.12795359 0.08150344
-0.009511813 -0.23833641 -0.08928337 0.23996627 -0.48832774 -0.44043624 -0.14846039 0.20230879
0.0048568095 -0.11002587 0.05288911 -0.089321315 -0.0868954 -0.26480362 -0.060336318 -0.10041572
-0.17875946 -0.33962667 0.02962192 -0.06239821 -0.28661948 0.20147252 -0.0382603 -0.015326012
-0.047558185 -0.2623473 0.10270172 -0.14590794 -0.17366259 0.3153417 0.14550267 -0.15484203
-0.08171077 -0.31358337 0.19406302 0.17862737 -0.02737892 0.86601686 0.22791368 0.2639574
0.26932374 0.1603074 -0.10817334 0.042375114 -0.2417325 0.18033099 -0.16093993 0.057724707
0.049038768 -0.011255664 -0.1173327 0.14465778 -0.21578802 0.23482637 -0.1739844 0.14056423

fc1.bias f4 [256]
00000000: 5d5b fe3d f640 3c3e 007c 82bd 43ea 0d3e
00000010: 60a6 31be e40c d63d af4f b73d 4825 f73d
00000020: 40e7 063e 8abf 153e 4860 143e 388d 2ebe
00000030: 8605 2f3d ec05 38be 342c 873d 67a5 a9bd
00000040: fa3d c4bd f24a ffba fd64 e33c aa75 02be
00000050: 5e2e 3fbe dcc6 343e a22c 533d 54d7 493e
00000060: f9e2 673d 549d 033e dfb2 38be 7571 223a
00000070: 4158 453e ec6d 63bb 8bb4 a8bd fdf8 153d
00000080: 3374 15be ba79 06be 2498 e8bd 3bc3 333d
00000090: 558c 2fbe 2271 db3d 1932 ccbd 3bc0 32be
000000a0: f881 0bbe 459d 643c 2025 d43d 0451 05bd
000000b0: 30f8 48be 74b9 65ba d19c 413e 021c e4bd
000000c0: 9626 f63c deca 653d 1bc5 f7bd 0e55 1dbe
000000d0: af82 c93d ceba d6bd 6c66 863c ee63 343e
000000e0: 2309 ad3d 2caf ea3d d397 193e f115 c8bd
000000f0: 18f9 823d 8a81 223e 8cfd 17be 32fb 713d
00000100: 6b83 97bd 5449 31be af9e 29be b51a ef3c
00000110: 34d4 10be a298 e23d 6875 bcbc 5eb9 3abd
00000120: 4abb 21be 5233 b83d 6229 efbd 6c50 163e
00000130: 2511 e0bb 7f9b 16be 8853 1f3e 80b6 1f3e
00000140: d7cb 35be 155d f1bd cee9 b6bd 2415 11be
00000150: a28f ad3c 34bf 18be 3bad db3d d80c 2cbe
00000160: 8e1b 3bbe a1ab af3b c0d0 71bb 56ac 333d
00000170: 9c2e 2cbe 61bb 393e 4742 29be dcb2 1e3e
00000180: dd53 3e3e e7b8 593d fc90 3d3d c95e e4bd
00000190: 6442 813d fac9 2c3e 1200 33be 3dde 323e
000001a0: 1331 c0bd 36e4 413d c9d6 cc3d f6f2 223c
000001b0: 7601 f8bd 7b10 f8bd 1653 273c b2fd e5bd
000001c0: c21f 1fbe 7c9b 44be 12db 4d3e fa8e 3ebe
000001d0: 6235 11be 8f43 ab3d dae2 063e 45bd 483e
000001e0: 9387 a73d cb42 3a3e 68dc e9bd 95ee 913d
000001f0: 0b00 f43c 6c84 3dbe 2739 393e 1902 8c3d
00000200: d87f d03d 9187 e53d da3c 853d 0f6a d9bd
00000210: 42e0 fe3d 4bc1 7a3c 7b86 cebd ebf1 ed3d
00000220: dffc edbb 2306 153d 631e 0a3e 8ab8 1f3e
00000230: af68 81bc 296c d93b ea25 5e3c 6361 c93d
00000240: 5900 9e3d 0ac9 033e 2164 7cbd f254 c3bd
00000250: c46b 42bd 1752 f33d aa79 293e 4234 b2bd
00000260: 584a d63d 2bd8 493e e935 143e 9e60 8f3c
00000270: 169b 1cbd 8085 4c3e 6d00 8d3d 5b71 9cbd
00000280: f9f7 383d 96a8 e9bd 7f11 e1bd d850 313e
00000290: 8c20 df3d 31ab 11be 46f9 10bd 68b4 aabc
000002a0: 0f8d cfbd 34aa e6bd 5352 f83d 1e08 083e
000002b0: 0ca2 93bd 9a4a 49be 4dbd 1a3e 0b5e 01be
000002c0: c02e 76bc 257d d5bd a87f a5bd b2e8 083e
000002d0: 001f 2a3e e51a cabd 8456 1c3e 7493 fabd
000002e0: 221e 2cbe f769 5f3d 3463 5abc e298 d73d
000002f0: 105a 163e 6f42 9bbd a7d6 273d 9b90 943d
00000300: abf1 fe3b baca 00bd 0094 663d 63b0 2fbe
00000310: c859 79bc 0c0d 01be 6150 45be 9612 2e3e
00000320: 2362 09be 9326 acbd e3bf 2f3e 9438 febd
00000330: 42a9 f2bc c8f5 2d3e ec27 b83d 3fdf dc3d
00000340: 5c45 863d b27b a7bc b14e 213e 3c0e 313e
00000350: 7a04 a6bc 08d8 8bbd 9c9d b2bd aff7 b33c
00000360: d640 21be 7701 37be a83c 4dbe 9102 be3d
00000370: d3a2 1e3d 7fba b53d b4b3 2cbc cdd9 f8bd
00000380: a2aa cb3c 8984 c4bc 79ce 79bd 999e 023e
00000390: 820f a3bd f475 c03c da36 cdbd ffd1 babb
000003a0: 2c31 213c afd4 f8bd 63ba bb3d afc1 1bbd
000003b0: ce98 13be 94cd 0a3e 2199 c2bd 7c33 403e
000003c0: dd94 2fbd aa3f 3b3e af80 10be 46ea 83bd
000003d0: 2025 463e c098 f8bc 4bcd b3bd ac72 983d
000003e0: 5a94 11be b095 ff3d 5450 90bd c973 323e
000003f0: 1331 113e f811 323e 6a9b 17bd 70a1 09bd
0.1241977 0.18384156 -0.063713074 0.13858895 -0.17348623 0.104516774 0.08950745 0.12067658
0.13174152 0.14623848 0.14489853 -0.17046058 0.042729877 -0.17971009 0.06600228 -0.08283501
-0.095821336 -0.0019477291 0.027758116 -0.12740198 -0.18670031 0.17653984 0.051556237 0.19711047
0.056612942 0.12852985 -0.18036984 0.0006196716 0.19271947 -0.003470297 -0.08237561 0.036614407
-0.14595108 -0.13132372 -0.113571435 0.04388736 -0.17143376 0.10714938 -0.09970493 -0.17456143
-0.13623798 0.013953512 0.103586435 -0.032547966 -0.19625926 -0.00087632914 0.18907477 -0.111381546
0.030047696 0.056101672 -0.12098142 -0.15364477 0.09839379 -0.10484849 0.01640626 0.17616245
0.08449008 0.11459193 0.14999323 -0.0976981 0.06395167 0.15869728 -0.14842814 0.05907745
-0.07398113 -0.17313129 -0.16564439 0.02918754 -0.14143449 0.11064269 -0.023005202 -0.045586936
-0.15794101 0.089941636 -0.11677815 0.14679116 -0.0068379813 -0.14707755 0.15559208 0.15596962
-0.1775354 -0.11785332 -0.089313135 -0.14168221 0.021186654 -0.14916688 0.107264005 -0.16801775
-0.1827223 0.005361036 -0.0036898106 0.043865524 -0.16814655 0.18137886 -0.16529189 0.15497917
0.18586679 0.053154852 0.046280846 -0.11150891 0.06311491 0.16873923 -0.17480496 0.1746759
-0.0938436 0.04733678 0.100019045 0.009945622 -0.12109654 -0.121125184 0.01021268 -0.11230029
-0.15539458 -0.19199938 0.201031 -0.18609229 -0.1418052 0.08362495 0.13172475 0.1960345
0.081801556 0.18189542 -0.11418992 0.07125584 0.029785177 -0.18507546 0.18088208 0.068363376
0.10180634 0.11207498 0.06505747 -0.10615932 0.124451175 0.015304874 -0.10084244 0.11618408
-0.0072628106 0.036382806 0.13488154 0.1559774 -0.015796987 0.006635208 0.013558844 0.09833028
0.0771491 0.12869659 -0.061618928 -0.095376864 -0.047466055 0.11880892 0.16550317 -0.08701374
0.10463399 0.19711368 0.1447369 0.017502125 -0.03823384 0.19972801 0.06884847 -0.07638808
0.04515836 -0.11409108 -0.10989665 0.17315996 0.1089488 -0.1422546 -0.035393976 -0.020837978
-0.10134327 -0.112629324 0.12125077 0.13284346 -0.07208642 -0.19657364 0.15111275 -0.12633531
-0.0150257945 -0.1042426 -0.08080989 0.13370016 0.16613388 -0.09868411 0.15267378 -0.12235156
-0.1680837 0.054544415 -0.013329316 0.10527207 0.14682794 -0.075810306 0.040976193 0.07254144
0.007780274 -0.031443335 0.056293488 -0.1715713 -0.015219159 -0.12602633 -0.19268943 0.16999277
-0.13416342 -0.08405795 0.17163043 -0.12413135 -0.029621724 0.1698829 0.089919895 0.10784768
0.06556198 -0.020444725 0.15752675 0.17290586 -0.020265806 -0.06828314 -0.08721468 0.02196869
-0.15747389 -0.17871653 -0.2004267 0.09277833 0.0387295 0.08873462 -0.010540891 -0.12150917
0.024861638 -0.023988979 -0.060987923 0.12755813 -0.07961942 0.023493744 -0.10020228 -0.005701303
0.009838384 -0.12149941 0.0916641 -0.038026508 -0.14413759 0.13554984 -0.09501863 0.1876964
-0.042866576 0.18286005 -0.14111589 -0.064411685 0.193501 -0.030346274 -0.08779391 0.07443747
-0.14216748 0.124797225 -0.070465714 0.17426981 0.14178877 0.17389667 -0.03701345 -0.033601224

bn1.weight f4 [256]
00000000: f982 973e 3fa2 343f 8f77 7c3e 1d86 2a3f
00000010: 38df f83e f3e1 0f3f 7ddc 493f 23ed c43e
00000020: 9a8c 3c3e 81b5 613e de78 963e 16a3 d23e
00000030: 1f53 9a3e 1254 203f 1cb0 853e ef22 773e
00000040: f51f 7b3b b95f bc3e 248f e23e 1cdc 9c3f
00000050: 1cfe 023f ec4d ff3e b660 543e 921c 8b3e
00000060: 3440 cc3e 0ce5 853a ade5 b23e 0d5b b23e
00000070: f139 943e 731d 833e dae4 093f 0568 5c3e
00000080: 66a3 593f 113e 163f 3581 913e 7899 ea3e
00000090: 1f72 f33b e2b0 363f 876b 653e f1f3 d53e
000000a0: 671a a43e 3189 ea3e 9d1a ff3e 51b2 013c
000000b0: efc4 363f 038d 003f 45f3 c53e 6a32 533f
000000c0: fa3a c03e 38e9 e33e 842c e43e fd8e 503e
000000d0: 3fe1 bd3e eede 213f 4208 d73e 7eac 273f
000000e0: 7d6b 9a3e 7d82 bd3c 9b89 d63e 46d9 b93e
000000f0: cd11 bb3e 7239 ae3e 5756 033f b4f4 9b3d
00000100: 801c 983e c978 9c3e 197a 003f 1532 d73e
00000110: fa08 a13e 5e0a f43e d0e1 dc3e 09ac c43e
00000120: 1948 8f3f e92a 8b3e 1ded 6f3e 0f17 4f3e
00000130: aa19 1a3f 78ba cb3e e760 9a3e 04f6 bb3e
00000140: d9d6 833e 571d a83e 7b2f 923e 79e7 963f
00000150: 90e5 b23e b5bc 093e d527 263f 9e90 a23e
00000160: e0c5 123e 8a93 ba3e 702b 263f 3e3f c73e
00000170: 0559 853e d1f4 c43e f61f aa3e df8a e03d
00000180: d18b f63e 7291 a23e 5aea 3f3f 1751 993e
00000190: 13f7 8b3b 399e 273f a484 f93e 5b15 603e
000001a0: e961 643e 978a 043f 49e8 123f 6a84 a03e
000001b0: 2637 4e3e e5cd a33e 7385 203f fef1 373e
000001c0: f3e0 de3e ad68 c13e 96ff fe3e 1e05 073e
000001d0: 723a 593f ef39 b53e 3b94 c63c 3524 bd3e
000001e0: 4db2 0a3f 05c6 c43e 9499 223f 160b 233e
000001f0: ab07 af3e 0176 1b3f 187f 3a3e 9370 b53e
00000200: 9c8a b63e 3b69 ff3e 5766 433e 5a86 d53e
00000210: 55fa d63e a666 bd3e 147d ce3f ddea cf3e
00000220: 4272 1e3f 1b88 7c3e 36fb 9d3e b452 2c3f
00000230: 2e14 bf3e 0832 6d3e d65c dd3e cb15 173f
00000240: be38 d43e c015 0c3f 749c c23e fc79 943e
00000250: 0cf2 0e3f 9fa9 c63e 9d8e 143f 81b9 603f
00000260: cba6 dd3e ba35 c33e 7fa6 d63e 3c83 893e
00000270: 543d 573e 6d4d 493f 310c 073f d78c 9f3e
00000280: bb9b 6f3f a631 cf3e 9534 d33e b00c 2b3e
00000290: 1421 9b3b b4ce d93e 91fb 5c3e 343b e63d
000002a0: 859a 1d3f d411 143f 236c bf3f def9 ad3e
000002b0: b013 533e 761a 923e c15a ed3e c857 7d3e
000002c0: e5e4 5b3f 364d 893e 018a f53e 0051 e93e
000002d0: 5aef 093f 3c1b 373f e854 283f 6d89 0f3e
000002e0: 4aef 343f ee24 703e 8240 973e 5f0b 203f
000002f0: dc56 d93e 9289 593f 0f9c a33e 240b bf3f
00000300: ef02 053f 3c3f 183d ad23 003f c022 e13e
00000310: 3dc2 7d3e 7c5a 473f a26d 043f d3cb ba3e
00000320: 7430 853e 59d0 763f 2e1f e03e 881c eb3e
00000330: 9613 b83e 983a c03e fe2c 833e fdee 903e
00000340: 556a 743c 2af0 153f f6db 963e 10be 173f
00000350: 8886 b33e d90e 9d3e 5f55 9a3c 9358 643e
00000360: 2026 fb3e aa54 053e e69a 213e 6a83 7e3e
00000370: fbfc ed3e a9a3 203e 7498 8f3e 1d58 be3e
00000380: 3887 ac3e ae04 aa3e 531a da3e d326 2b3e
00000390: b5e7 113f dbeb fc3e 670a 503e 4c5b b03e
000003a0: 1bfe 8d3e 64b0 3c3e 9a0d ab3e 2816 793f
000003b0: be40 7c3e 106e 333f 08a6 123f d915 ad3e
000003c0: 814f 953e b6b2 523e 857d 963e 345b 8a3e
000003d0: 5f9f 693e a66e 033f 8359 6d3f 1885 103b
000003e0: b622 3c3f 5350 563f f916 b43e f9cf 0f3f
000003f0: b04a 523f 0d1c fe3e 49df 6a3e 8518 8c3e
0.29592112 0.7056007 0.24654983 0.6661089 0.48607802 0.56204146 0.78852063 0.3846217
0.1841301 0.22041894 0.2938909 0.4114005 0.3014154 0.6262828 0.26110923 0.2413442
0.0038318608 0.3679178 0.44249833 1.2254672 0.5116899 0.49864137 0.20740017 0.27170235
0.39892733 0.0010215356 0.34940854 0.3483509 0.28950456 0.25608405 0.53864825 0.21524055
0.8501495 0.58688456 0.2841889 0.45820212 0.007429376 0.7136365 0.224043 0.41787675
0.32051393 0.45807794 0.49824992 0.007916049 0.71394247 0.50215167 0.38662162 0.824988
0.37544996 0.4451387 0.44565213 0.20367046 0.37085912 0.6323079 0.41998488 0.6549758
0.30160132 0.02313351 0.4190186 0.3629858 0.36537018 0.34028202 0.5130362 0.07615033
0.29709244 0.30560902 0.50186306 0.42030397 0.3145216 0.4766416 0.4314103 0.38412502
1.1193877 0.27181175 0.23430295 0.2022364 0.6019541 0.39790702 0.30152056 0.36711133
0.25749853 0.32834885 0.2855185 1.178939 0.34940767 0.13450892 0.6490453 0.3175096
0.14333296 0.36440688 0.6491003 0.38915437 0.2604448 0.3846803 0.3322751 0.109639876
0.48153546 0.3175159 0.7496697 0.2994468 0.004271397 0.65475804 0.4873401 0.21883146
0.22302975 0.5177397 0.5738569 0.31351024 0.20138225 0.31993023 0.6270363 0.17963406
0.43530998 0.37775174 0.49804372 0.13185546 0.84854805 0.35395762 0.024240604 0.36941686
0.54178315 0.38432327 0.6351559 0.15922198 0.34185538 0.60726935 0.18212545 0.3543745
0.35652626 0.49884972 0.19082008 0.41704065 0.41987863 0.36992377 1.6131921 0.40608874
0.61893094 0.24661295 0.3085572 0.67313695 0.37320083 0.23163617 0.4323489 0.5901763
0.4144954 0.5472069 0.3800999 0.28999317 0.55838084 0.38801286 0.5803011 0.87783056
0.43291315 0.38126928 0.419239 0.26857936 0.21019489 0.7863377 0.5275298 0.3116214
0.93597 0.40467566 0.41251054 0.16704059 0.004734168 0.42540514 0.2158034 0.11241761
0.61563903 0.57839704 1.4954876 0.33979696 0.20612979 0.28535813 0.46358302 0.24740517
0.8589614 0.2681672 0.4795685 0.4556961 0.53880847 0.7152593 0.65754557 0.14017268
0.70677626 0.23451588 0.29541403 0.6251735 0.4244908 0.8497554 0.31955 1.4925275
0.519576 0.03716968 0.50054437 0.43971825 0.24781127 0.77872443 0.51729786 0.3648363
0.2601353 0.96411663 0.43773788 0.45920205 0.35952443 0.37544703 0.25620264 0.28307334
0.01491793 0.58569586 0.29464692 0.5927439 0.35063577 0.3067539 0.018839536 0.22299413
0.49052525 0.13020578 0.15781745 0.24854818 0.4648207 0.15687431 0.28046 0.371766
0.33696914 0.33206695 0.4259821 0.16714029 0.5699418 0.49398693 0.20316468 0.34444654
0.2773293 0.18426663 0.33408815 0.9729943 0.24634072 0.7008982 0.57284594 0.3380573
0.2916222 0.20575985 0.2939264 0.27022707 0.22814701 0.5134071 0.9271471 0.0022051986
0.73490465 0.83716315 0.35173777 0.56176716 0.82145214 0.49630776 0.22936739 0.27362457

bn1.bias f4 [256]
00000000: 9bd2 94be 03ec 9ebe 563e 1fbe 574b c2be
00000010: 6ec7 d6be d7ff 913d 15a3 bcbe 8ed3 e0be
00000020: a57d 87bd f577 62be c8af b4bd 8a02 88be
00000030: 8d43 bcbc 3744 9fbe 6fa3 b6be 4c3c b5be
00000040: 8fd3 d0bd dcf3 9fbe 3149 99bd 53fd 73be
00000050: 3f9f 88bc 50a5 9bbe ea56 56be 4423 c0bd
00000060: b5fc c0be 4e61 57bb ed2c 93be 2754 f3be
00000070: 1ec2 aebe 7a62 59be d4fc 8cbe 6ba2 9cbd
00000080: 844b 013d 819b e0bd ce31 af3d c66f 83be
00000090: 9509 22bd b896 9abd ef1a eabc 8561 33be
000000a0: b57f 55bc 273b b6be ad77 bebd 5cf2 5fbd
000000b0: 0f64 9eb9 961e 9fbe 9922 1cbd 8abe 3dbe
000000c0: b348 cebe 4d31 c0bd 7d67 debe 772a c8be
000000d0: ebe8 80be 91bd 5f3c ecac b9bd 5000 dbbd
000000e0: 7dfb a4be 46d9 9ebd 0a60 a5be f379 bcbe
000000f0: a6d1 e2be d398 c5be e69d 9dbd ac20 5abd
00000100: b119 58be 8eff c8be 962a c7bd 7534 00be
00000110: df67 8bbe c71a ccbe 49c0 9cbe 6d3e 16be
00000120: 7d7c 79be 47a2 60be 27a3 b8bd 9316 8bbd
00000130: 4418 a6bd 533a 98bd 12d8 efbd eb9a ab3d
00000140: 1089 89be 00ad fdbd e829 94be e426 ae3c
00000150: 64a4 5bbe c5aa b63c c4d1 c4be 8636 4cbe
00000160: 6c7f 4d3d 1975 8ebc 36cb bebe c9f7 77be
00000170: fa67 5cbe e5e8 b4be b360 bdbe bb56 19be
00000180: 79f0 e6be ef2e 24be 6b47 25be 208e 43be
00000190: 9745 bcbc fbab 38bb efc7 82be d345 cebd
000001a0: 8c27 23be fd4d c4bd 1e37 6ebe 0f98 b9be
000001b0: 86ff 88be ddea 9abe c754 10be c56d 9dbd
000001c0: e13a bebe 4618 c5bd 7d31 9cbd 1f09 c83d
000001d0: 9419 2bbe f731 1dbe c4b1 9dbd 54be 4ebe
000001e0: 157d 6d3d 4ecf 60be 2ecf 043d 6d79 013e
000001f0: 19b2 12be 69cc a5be aa41 48be ffc4 bcbe
00000200: b5f5 06be 6438 563e a850 36bd 82af 28be
00000210: 97e9 45be 034e a3be e0ee af3d ee4d a7be
00000220: 5c9d 7abe 645e 0bbe 4635 e1be 28e0 dabe
00000230: 4859 9abe 197d 91be 7a6e c4be 09c1 44be
00000240: cfbc 2ebe 5b3c 3bbe 794b 96be f392 67be
00000250: 9f3b 8dbe 1172 c1be eae5 fbbd eedb fabd
00000260: 5af2 ddbe 79ed 8ebe de44 b5be c415 75be
00000270: 1078 f3bd f902 80bd a512 d5be d18f a6be
00000280: 7d9f e13c f796 26be e00f a2be ec49 b83c
00000290: 64a2 9dbc a915 cebe 7bb4 59be 95af 6fbb
000002a0: 894a febd 5f21 e8bd 8e77 a2bc 5a84 5bbe
000002b0: 9df4 32be b685 e3be 3590 cebd 3ae7 99be
000002c0: f60d 38bd 8f1d 29be 0bf8 e2be a3bb a0be
000002d0: a1da 95be ed4c f3bd 73b4 b9bd 0c1f 8dbe
000002e0: 846c 08be bd96 15be 232d 8abe d97e 04be
000002f0: 4206 5ebe 3dc6 103e 614a c8be 8552 563d
00000300: a5ab fe38 63e1 663a 9525 e9be 8b9c 40be
00000310: 5a95 a1be b16a 36be e084 bdbe 7f02 a8be
00000320: c2c1 a0bd 370c 16be 085c b6be 5859 6cbe
00000330: da27 7fbe 47c6 7abe b817 6abe 9f7a 8cbe
00000340: 3cbb 2bbd 03cd d7be 676a 333b abe0 8dbe
00000350: e5c6 cdbe 5ee4 29be 83d5 aebd 3a75 a1be
00000360: 8415 723d 4878 fc3b 6b21 79be 56d8 bcbe
00000370: 40cf 36be 2b19 62be e3e6 e4bd ad29 48be
00000380: 2390 3cbe b0e3 82be 2dc4 a4be 8dd2 49be
00000390: 5e7f d6be db95 12bf 71f7 61be 6ebe 29be
000003a0: f788 6dbe 4855 67be a848 d7bd 0f07 5bbf
000003b0: bc50 60bd 7108 31be c6a8 b2be 6d13 70be
000003c0: 5a26 9d3d 88f0 5bbe aafa 7cbe d15f 81be
000003d0: fdfb 19be 344a bbbe e294 5cbe c9f1 55bc
000003e0: 0c2e 6abe cafe 33be b311 f3be 5b97 69be
000003f0: 9982 98be 1106 3cbe cc1f 02be cc3e a1be
-0.2906693 -0.31039438 -0.15551123 -0.37948105 -0.41949028 0.07128876 -0.36843172 -0.43911403
-0.06615762 -0.22116072 -0.0882259 -0.26564437 -0.02298143 -0.3110673 -0.35671565 -0.35397565
-0.101966016 -0.31240737 -0.07484663 -0.23827104 -0.016677497 -0.3039956 -0.20931593 -0.093817264
-0.376928 -0.0032864395 -0.28745213 -0.4752514 -0.34132475 -0.21228972 -0.27536643 -0.07648166
0.031566158 -0.1096716 0.08554421 -0.25671214 -0.03955992 -0.075482786 -0.028577296 -0.1751767
-0.013030936 -0.35592005 -0.0930017 -0.05467449 -0.00030210658 -0.31078023 -0.038118932 -0.18529716
-0.4028984 -0.093844034 -0.4343833 -0.39094898 -0.25177702 0.013656036 -0.09066185 -0.10693419
-0.3222312 -0.07756285 -0.32299834 -0.3681179 -0.44300574 -0.38593158 -0.07696132 -0.053253815
-0.2110355 -0.39257473 -0.097249195 -0.12520011 -0.27227685 -0.3986418 -0.30615452 -0.14672251
-0.24363895 -0.21936904 -0.09015494 -0.06791415 -0.08110097 -0.074329995 -0.11711134 0.08379158
-0.26862383 -0.12386513 -0.28938222 0.021258779 -0.21449429 0.022298226 -0.38441288 -0.19942674
0.050170347 -0.01738982 -0.37264413 -0.24215616 -0.21524039 -0.35333934 -0.36987838 -0.14974491
-0.4510534 -0.16033529 -0.16140525 -0.19097185 -0.022982402 -0.002817868 -0.25543162 -0.10071912
-0.15933055 -0.095851876 -0.23263213 -0.36248824 -0.2675745 -0.3025731 -0.1409484 -0.076869525
-0.37154296 -0.096237704 -0.07626627 0.09767365 -0.16708976 -0.15351091 -0.07699922 -0.20189792
0.057980616 -0.2195408 0.032424144 0.12643977 -0.14325751 -0.32382515 -0.19556299 -0.36869046
-0.13179667 0.20919949 -0.044510514 -0.16473201 -0.19327389 -0.31895456 0.08590484 -0.32676643
-0.2447409 -0.13610226 -0.43985957 -0.42749143 -0.3014624 -0.28415754 -0.38365537 -0.19214262
-0.17064212 -0.18284743 -0.29354456 -0.2261465 -0.2758455 -0.37782338 -0.12299712 -0.122489795
-0.43348962 -0.27915552 -0.35404104 -0.23934084 -0.118881345 -0.06250567 -0.41615787 -0.32531598
0.02754187 -0.16268526 -0.31652737 0.022496186 -0.019242473 -0.402509 -0.21260254 -0.003657316
-0.1241656 -0.1133449 -0.019832399 -0.21437207 -0.17476125 -0.4443795 -0.10086099 -0.30059224
-0.04493519 -0.16515182 -0.44329867 -0.31393155 -0.29268363 -0.11879907 -0.09067621 -0.2756275
-0.13322645 -0.14608283 -0.26987562 -0.12939014 -0.21682075 0.14138122 -0.39119247 0.05232479
0.00012143635 0.0008807389 -0.45536485 -0.18809716 -0.3155926 -0.17814137 -0.37015438 -0.32814404
-0.07849456 -0.14653097 -0.3561709 -0.23080957 -0.24917546 -0.244897 -0.2286061 -0.27437302
-0.041926607 -0.421486 0.0027376653 -0.2771047 -0.40190807 -0.16591021 -0.08536818 -0.3153475
0.05910255 0.0077047683 -0.24329154 -0.368838 -0.17852497 -0.22079913 -0.11176851 -0.19547148
-0.18414359 -0.25564337 -0.3218092 -0.19709225 -0.41894048 -0.5725991 -0.22067048 -0.1657655
-0.23196779 -0.22591126 -0.10511905 -0.85557646 -0.054764494 -0.17288376 -0.3489439 -0.2344491
0.076733306 -0.21478474 -0.24704996 -0.25268415 -0.15037532 -0.3658005 -0.2154117 -0.013058134
-0.22869128 -0.17577663 -0.4747444 -0.22811644 -0.29787138 -0.18361689 -0.12707442 -0.31493223

bn1.running_mean f4 [256]
00000000: 3602 2cc0 ca95 c1c0 0a6f a1c0 9f8c 2abe
00000010: 8e2e 95c0 b4e4 913e 9e89 3a41 a277 6340
00000020: bd43 7cc0 f173 4241 2b92 b6c0 474d 06c1
00000030: 3a56 ea40 ef96 32c0 933c bf40 f972 15c1
00000040: 04f8 e8bf be98 d740 11f4 99c0 8afc bd3e
00000050: 5d78 3dc0 42d6 8ac0 e275 c5bf ff73 a640
00000060: b368 5ac0 1ffb 2d3f ac62 1341 fb85 b8be
00000070: e82b 1c3f 3d51 f5bf 67f3 103f ead9 b5c0
00000080: 4dff 1ebf d89b 9240 f7f3 923f 702a c440
00000090: ed58 c33f 196e 2540 59e1 a1c0 fbc0 c5c0
000000a0: 9777 39c1 63f6 afc0 ee0b b1bf 8ebe 0dbf
000000b0: ebe6 1cbf fdd8 9440 5ac9 5f3f 0a42 a740
000000c0: e353 1bc0 c22b b4bf 509f fbc0 2bb1 dcc0
000000d0: 5c3b 98bf 46da 4241 10eb 3bc1 0722 8b40
000000e0: e573 bc40 442d 0440 f09a bac0 e576 78c0
000000f0: e69e 51c0 4bf9 483d 7a9b b23f 1c0e 37c0
00000100: cb60 f5c0 06f6 ca3f b1ad e2bd d2db f13f
00000110: f8ff e7bf 7ab8 83c0 c7c8 d03f 62e8 c0bf
00000120: 5ada c6be 7845 cbc0 5a18 e9be b8c0 7240
00000130: b119 e3bf 5987 1d40 b06a 0541 8832 2b40
00000140: 84b4 3cc1 aa60 5a40 3693 f13f 65dd c4bd
00000150: 35a2 ae40 6070 1341 c7cf 8640 b151 5640
00000160: d39b 40c1 90a9 8ec0 1eb3 38c0 1d37 a1c0
00000170: 5b00 8a40 e99a fb3f dd55 8dc0 0e4c 1e40
00000180: 054e dd3f 86fd a3c0 d0cc 843f 57a7 5841
00000190: c7ec d53f 42a7 36bf 947a 2ebe b3d9 f23e
000001a0: 980a 0741 ae90 9140 b036 24c1 be9b 8240
000001b0: e2a8 223f 3cc6 f6c0 d5de 36be 71d4 0941
000001c0: 1940 36c0 9c57 dbc0 e381 63bf e721 c0c0
000001d0: e5bc 96c0 450f ab40 7fcb f33f 64c7 f540
000001e0: 546a 1540 0d3e 1e40 6f13 bc3f 11c5 39c1
000001f0: e09a dd40 b0e1 b5bf 08d3 9d3e 3601 f5be
00000200: b914 0040 924e d03f 9b15 15c1 70cb 52bf
00000210: 6f23 99bf ecb3 34bf 486a 4dbf 4fac 683f
00000220: d67a 6e40 78c4 e83f 315f 05c1 73e5 04bf
00000230: c224 f83e 83fc bd40 4408 a1c0 a6f0 f43f
00000240: d343 0ac0 75c3 8cbf 1277 1b41 a2bb 7640
00000250: 5621 fb3e 460c 1a40 e16c 5340 3b65 2940
00000260: 1a03 3ebe e57e 1440 8bc0 78c0 9327 1ac1
00000270: 44d5 9140 f427 3f3f d53f 11c1 2ace ee40
00000280: 0b0f a53f ae8d dc3f ad6a d83f 202f c040
00000290: ddab fc3e 1f47 143f 6877 b8c0 89e4 0941
000002a0: 1eb3 783f 0269 0cc0 b926 2abf 0798 f6bf
000002b0: 697e e43f 8736 edc0 cc61 cc40 5e3a 543f
000002c0: 888a 8c3d 4eeb 4f3f 570b d9c0 35b6 6640
000002d0: 76bb 3340 85a4 cd3d f000 93bf d02e ca40
000002e0: b9dd 04c1 8730 02bf f3b6 29c0 8a90 3e40
000002f0: 18dc 2641 6770 efbd 10b6 a740 ac4f 5bbf
00000300: b23f a43f a367 3ec0 3e3f 1441 1a69 9a40
00000310: 563d e3c0 8659 5c40 3f83 9e40 35ef 0dc0
00000320: 9473 d6c0 935b 40bf 2091 d840 2e28 80c0
00000330: 426a 8640 047d a03f c302 52c0 4c12 0cc0
00000340: 7e4a 1340 143d e6bf ab55 0ac1 0dac bebf
00000350: 86f0 04c1 fbf5 b8c0 55fe 123e 1358 8340
00000360: e72e abbf 6923 26c1 0ad1 0f40 40ce 96c0
00000370: 1829 49bf ae81 14c1 ced5 94c0 9e32 48c0
00000380: d0fa 32c1 50c9 ae40 01e8 463e a3a9 e740
00000390: 5a36 3dc0 cfde 05c1 cfa7 3e3f ce08 4841
000003a0: 38ba 5fc0 5223 8740 174c 57c0 6682 a43e
000003b0: ac27 d0c0 1047 49c0 dd70 b7bf 560c dfbe
000003c0: a881 9640 428d e3bf 0b9d 56c1 e729 7340
000003d0: d763 7f40 5216 09c1 8197 b53f 8f93 d9bd
000003e0: 910a 7840 0091 1c41 396a a340 7c13 fcc0
000003f0: 30c4 1141 eafd df40 e418 7440 040d 1cc1
-2.687635 -6.049535 -5.0448046 -0.16655205 -4.661933 0.284948 11.658598 3.5541768
-3.9416344 12.153306 -5.705343 -8.393867 7.3230257 -2.7904623 5.9761443 -9.3405695
-1.8200688 6.7373953 -4.8110433 0.37106735 -2.9604714 -4.3386545 -1.54266 5.2016597
-3.4126403 0.67961305 9.21159 -0.3603972 0.61004496 -1.9165417 0.566214 -5.682851
-0.6210831 4.581524 1.1480702 6.1301804 1.5261513 2.5848448 -5.0587583 -6.179807
-11.591697 -5.4988265 -1.3831766 -0.5536889 -0.6128985 4.651488 0.87416613 5.2268114
-2.426995 -1.4075854 -7.8631973 -6.896627 -1.1893115 12.178289 -11.744888 4.3479037
5.8891473 2.0652628 -5.8314133 -3.8822567 -3.2753234 0.04906587 1.3953698 -2.8602362
-7.6680655 1.585633 -0.11068285 1.8895209 -1.812499 -4.116269 1.6311272 -1.5070918
-0.38838464 -6.35223 -0.4552639 3.7930126 -1.7742215 2.461386 8.338547 2.6749592
-11.794071 3.41215 1.887305 -0.0961254 5.4573007 9.214935 4.2128634 3.348736
-12.038043 -4.4581985 -2.8859324 -5.0379777 4.3125434 1.965665 -4.4167314 2.473392
1.7289435 -5.1246977 1.0375004 13.540854 1.6712884 -0.71348965 -0.17038947 0.47431716
8.440086 4.548911 -10.263351 4.0815115 0.63538945 -7.7116985 -0.17858441 8.614366
-2.8476622 -6.8544445 -0.88870066 -6.0041385 -4.7105584 5.345614 1.9046477 7.6805897
2.3346148 2.4725373 1.4693431 -11.610612 6.9251556 -1.4209499 0.30825067 -0.47852486
2.0012648 1.6273978 -9.317775 -0.8234167 -1.1963938 -0.7058704 -0.802403 0.9088792
3.7262473 1.8184958 -8.33574 -0.5191261 0.48465544 5.937074 -5.032259 1.913594
-2.1603897 -1.0997149 9.71657 3.8552022 0.4904887 2.406999 3.3035204 2.6468036
-0.1855587 2.320245 -3.886752 -9.634662 4.5572834 0.7467034 -9.078084 7.4626665
1.2895216 1.7230737 1.6907555 6.0057526 0.4934987 0.5792102 -5.764576 8.618295
0.9714831 -2.1939092 -0.66465336 -1.9265145 1.7851077 -7.412906 6.386938 0.8290156
0.0686236 0.8121842 -6.7826343 3.604871 2.8083167 0.10041145 -1.1484661 6.3182144
-8.3041315 -0.50855297 -2.6517913 2.977572 10.428734 -0.11691361 5.2409744 -0.85668445
1.2831938 -2.9750755 9.26544 4.82533 -7.1012373 3.442964 4.9535213 -2.217725
-6.7016087 -0.7513973 6.7677155 -4.0049047 4.200471 1.2538152 -3.2814186 -2.1886168
2.3014216 -1.798739 -8.645915 -1.4896256 -8.308722 -5.780027 0.14354832 4.1045012
-1.3373688 -10.383645 2.2471337 -4.712677 -0.7857833 -9.28166 -4.651099 -3.1280894
-11.1862335 5.4620743 0.1942444 7.2394576 -2.9564424 -8.366897 0.74474806 12.50215
-3.495741 4.2230616 -3.3640192 0.32130736 -6.5048428 -3.1449623 -1.4331318 -0.435641
4.703327 -1.7777483 -13.413341 3.7994325 3.9904687 -8.567949 1.418686 -0.10623848
3.875645 9.7854 5.1067166 -7.8773785 9.110397 6.9997454 3.8140192 -9.753178

bn1.running_var f4 [256]
00000000: 2ee6 1c42 3f53 d041 4a2a b042 12ac c441
00000010: 9cc8 9342 c00e ae40 82ba 2f42 8626 d242
00000020: 2b0f 9442 8b48 ca42 951a 4643 abbb 5b42
00000030: 977f ad42 9289 8c42 9080 9041 252a b242
00000040: 6091 dc40 19f7 4e43 54c2 0243 4cd4 a541
00000050: 723e c543 2ed6 7642 2892 4642 a104 9b42
00000060: 9b29 b041 779e 4240 5f67 9f42 cc27 fb41
00000070: a3be 1742 b876 8c42 ccb6 1f42 9211 5a42
00000080: e146 be41 56c5 6842 7978 0942 0b63 e441
00000090: a6d7 0f41 0247 9040 41b0 d242 7250 3f42
000000a0: 5505 9c42 6b64 9542 d6ed c242 623d 9940
000000b0: 11e1 0544 431f 0e42 5d54 8e42 5716 1542
000000c0: b42f 1e42 e30f 7e41 2b41 9f42 05e8 d741
000000d0: e58e 1b43 ac14 1243 160d 0743 2d89 c942
000000e0: a551 5942 36bd 9340 756a 9742 09bc 4442
000000f0: 6fc1 e542 38a9 3242 0d52 4b42 c9f6 8a42
00000100: 77fe 7742 adb9 2b42 df59 a141 482a 3b41
00000110: efd9 8e42 289e e841 72a4 e741 a426 7b43
00000120: ed8d 2942 7300 b642 bea6 a342 2a82 7542
00000130: d497 8342 573b 0a41 9bf1 0142 6667 9841
00000140: 53d9 1d42 2872 bb41 c998 9742 8d2c 4344
00000150: 48a0 6041 bf22 bc42 6a15 f541 80fd 3942
00000160: 1ed0 d843 b289 4343 6004 aa41 d715 5542
00000170: e612 ed42 fe1d b141 24cf b341 3cd5 3f42
00000180: c52a 8141 ce19 2442 eac0 ef40 858c 2d42
00000190: 586d a040 e665 cc43 e65c 3b42 b3b4 a442
000001a0: 6d41 0a43 6837 2443 1a70 0d42 98aa 1b42
000001b0: 486a c342 5494 9e43 a0a5 0f42 3d25 4c41
000001c0: e3f3 0642 269e 1d43 53d8 0e42 a20f ff42
000001d0: 4508 ec42 4b4f 6d43 d0b1 1641 18fa e441
000001e0: 7897 0341 e1af 5142 7187 9342 c241 e242
000001f0: 7087 1d43 362d 2242 0c8c 5042 9fd6 5342
00000200: 02ee 6042 ec60 0542 8134 5a43 4427 6142
00000210: b941 5b43 d9d4 cf41 dfeb 3444 57c8 9342
00000220: 8742 d241 d857 5d42 7fc4 bb41 2cdd b141
00000230: af02 0442 729d 8842 08e0 cc42 7896 1442
00000240: f678 e041 bc25 a241 3ce1 3642 f047 e842
00000250: 2831 d740 898c 5a42 90b9 0d41 d174 ea40
00000260: 1b20 8342 a239 9342 9ce2 8942 529c 3242
00000270: cff8 c142 4704 4140 bae4 0942 89eb b042
00000280: 6357 ab40 b9b4 5d42 7925 cf42 07ff 8442
00000290: 3ad3 e641 b734 9d42 67ef 3642 b9d8 2a42
000002a0: 0e6f aa42 f54a 9940 f5d1 5844 082f a742
000002b0: 7f64 b842 6f50 a942 4667 e141 1547 8743
000002c0: 6071 2342 fb5e e541 5964 a142 10f6 a941
000002d0: 7f30 dd42 0ff2 9c42 4756 b643 c1cb 7642
000002e0: 9188 9e42 ff11 0e42 1e53 d541 ef44 cd42
000002f0: b396 3242 40b3 2040 e88a 9642 8917 3644
00000300: 19ef fd41 40fe 4343 33f5 3742 b218 b241
00000310: 51a4 8242 be5d f241 1a16 9742 f683 6f41
00000320: c15c 5342 dbdf 9040 8ec9 a443 5fbe d442
00000330: 2ed4 5241 a125 8142 2a21 c442 3b0d a642
00000340: b913 ba41 d3b4 3042 61e5 a142 7899 cd42
00000350: f1c6 1743 c490 c742 fcd3 2741 6d5a 8542
00000360: 7c1e 8142 7a4a 8143 ba93 4242 fb14 6041
00000370: 1fa0 7142 a8cf a242 e39e 1d43 981e e141
00000380: 4054 ef41 de63 e441 e2eb 9742 8794 9542
00000390: 8074 aa42 d2e1 1a42 6430 5f42 91f0 2d43
000003a0: a1d1 6942 b3e5 7042 2980 7a42 3b19 ea40
000003b0: c1a9 4c42 5dcf 3541 bc0d 3142 cacf 7442
000003c0: 61be 1a43 64ef 8142 1f5f 0842 77ff 9b42
000003d0: 8b2a 9242 b98c f841 f215 8d43 262c bb3f
000003e0: 5d27 3e42 ddb8 9442 1e1c 1842 3993 eb42
000003f0: 4e4b f341 5d53 0143 7c9f 8641 93da d442
39.224785 26.040648 88.082596 24.584019 73.891815 5.4393005 43.932137 105.07524
74.029625 101.141685 198.10384 54.93327 86.7492 70.26869 18.062775 89.08231
6.892746 206.96523 130.7591 20.72866 394.48785 61.70916 49.64273 77.50904
22.020315 3.040922 79.7019 31.394432 37.93617 70.23187 39.928513 54.51716
23.784609 58.19271 34.36765 28.54836 8.990149 4.508668 105.344246 47.82856
78.010414 74.69613 97.46452 4.788743 535.51666 35.53053 71.16477 37.271816
39.546585 15.878879 79.62728 26.98829 155.55818 146.08075 135.05112 100.76792
54.32973 4.616847 75.707924 49.183628 114.8778 44.665253 50.830128 69.482
61.9985 42.931324 20.168882 11.697823 71.42565 29.077225 28.955296 251.15094
42.3886 91.00088 81.82567 61.377113 65.79654 8.639487 32.485943 19.050488
39.46223 23.43074 75.79841 780.6961 14.039131 94.06786 30.635456 46.49756
433.62592 195.53787 21.252136 53.271328 118.53691 22.139645 22.476143 47.958237
16.145884 41.0252 7.492299 43.387226 5.0133476 408.79608 46.84072 82.35293
138.25557 164.21643 35.359474 38.916595 97.70758 317.1588 35.911743 12.759091
33.73817 157.61777 35.711254 127.53053 118.01615 237.30974 9.418411 28.622116
8.22448 52.421757 73.764534 113.12843 157.52905 40.54415 52.136765 52.95959
56.23243 33.34465 218.2051 56.288345 219.25673 25.97893 723.6855 73.89129
26.282484 55.335785 23.470945 22.232994 33.00262 68.30751 102.43756 37.146942
28.059063 20.268425 45.719955 116.1405 6.7247505 54.63724 8.857803 7.32676
65.562706 73.612564 68.9426 44.652657 96.985954 3.015886 34.473366 88.46003
5.3544173 55.426487 103.57319 66.4981 28.853138 78.60296 45.73379 42.711643
85.2169 4.7904 867.2806 83.59186 92.19628 84.6571 28.175426 270.55533
40.860718 28.671377 80.69599 21.245148 110.59472 78.47277 364.67404 61.69898
79.26673 35.517574 26.665585 102.634636 44.647167 2.5109406 75.2713 728.36774
31.741747 195.99316 45.989452 22.262058 65.32093 30.295773 75.54317 14.969717
52.84058 4.527326 329.57465 106.37182 13.176802 64.573494 98.06477 83.02584
23.25963 44.176586 80.948006 102.79974 151.77711 99.782745 10.489254 66.67661
64.55954 258.58185 48.644264 14.005122 60.40637 81.40558 157.62065 28.139938
29.916138 28.548763 75.96071 74.79009 85.22754 38.720528 55.797256 173.93971
58.454716 60.224316 62.625156 7.31558 51.165775 11.363126 44.263412 61.20292
154.74367 64.96756 34.09289 77.998955 73.08309 31.068712 282.17145 1.4622848
47.53844 74.36106 38.02746 117.787544 30.41177 129.32564 16.827873 106.4269

fc2.weight f4 [128, 258]
00000000: 5eae cabc e933 2b3d 4bce 713c 2ede 0cbd
00000010: 5670 b0bd c643 933d 262e 3cbd a2c5 8cbd
00000020: 3197 8e3d fa99 88bd e026 47bd 8af9 b6bd
00000030: f37e 37bd 1c0e cbbd edcf 6b3c aa28 e1bd
00000040: 053c ebbc 4d14 35bd 6c49 38be 60e0 4ebe
00000050: d1d1 32bc 6234 b8bd f04c 373d b8aa 2b3d
00000060: 2272 bc3c fd2e 843d 2256 4b3d 7fcc eebd
00000070: add3 ffbd 14ed 8ebd 6cce 1fbd 4fcc 683b
00000080: 57c8 a3bd 4237 48bd 5083 513d e3ee 41bc
00000090: b2e6 8d3d 7ea7 e4bd 6405 b03c 4b04 22bd
000000a0: 3f08 a4bd 981d e3bd c6f3 a4bb 5337 17bd
000000b0: e6ea 37be cd97 fd3c 547b b4bd b6d2 4d3d
000000c0: 0942 ae3d bdac ae3d c729 90bc 7a6a 233c
000000d0: 7d9b 18bb ccef bcbd 966d 923c 497c 0ebe
000000e0: bc48 213d de45 95bd bd40 10be aa02 e2bd
000000f0: 1811 efbd f7bd 5cbd 6331 ddbd 96ba 4a3d
00000100: 2469 24bd 89ac 833c 168b a1bd 3da5 3cbd
00000110: 5dc4 e23a ade4 fdbc 4566 9ebd 8b2a fabb
00000120: 0674 02be 9c09 acbd 11f3 32bd d81b 9b3b
00000130: 93cd 02be ee25 213c 8ef7 e1bc ac64 b5bd
00000140: ed11 9dbd 258a 5fbd cffa d0bd 0828 d0bb
00000150: 0aab 00be 5de5 b2ba 1f72 43bc 8fd4 cabd
00000160: f07d dc3b 512d adbd 0eb4 d0bc 5a06 11be
00000170: b03a 21bd 51a3 e9bd 1edc 9ebd 6c4b 233d
00000180: e9ef 23bd 5009 bbbd de17 e3bd ea00 c8bd
00000190: f599 88bb 8416 c4bd afb1 07be 0025 df3c
000001a0: f7f9 ca3b 75c2 43bd 9c9c 73bd c55e 97bd
000001b0: e3e2 c0bc dc3c c2bc bd37 03bc 26ec 7dbc
000001c0: b7c2 49bd cd43 58bd 9107 233c 2490 fe3c
000001d0: f8ca 1fbe 303a f8bd d612 9bbb 1841 a9bd
000001e0: cb68 c4bd fb16 173b 5f69 1cbc 2fdd 30bd
000001f0: 662c 123d fe1e 32be 30bf 3fbe 67fa 08bd
00000200: f03f 79bd 1408 d9bd e54e e13c 10de 64bd
00000210: 765b 7bbd 04e3 dcbd d24c 16be bcdf b0bc
00000220: 64e8 5dbd 507f d23c 28e6 d2bc 223f 163d
00000230: b411 46bc 972c a23d 7de2 dfbb a693 94bd
00000240: 3c1d d53b 6e54 3abc 6808 943c fdda 93bc
00000250: 0abd b73c 38a6 8ebd 0a88 16bd 72f6 f9bc
00000260: 8d1f 54bd 98f6 813b b6b0 4b3d 0699 5cbd
00000270: 7661 38bd 1dfc 1cbe 3ec7 25be 9459 8cbd
00000280: 32d7 033d f519 e6bc 4f08 d53c f361 8bbd
00000290: 8277 e43b d43f eebd b8cc a1bd 7bb5 dd3c
000002a0: d1d0 253d f2ae f6bc a8a1 9fbd aec0 21ba
000002b0: ff93 e3bd 8449 c8bb f6d8 40bd 7fd8 1d3d
000002c0: 504a a5bd 83cf 1c3c 51d7 88bb 99ef 803c
000002d0: 8040 3b3d 25a7 83bb 7d8c 7fbd b505 533c
000002e0: bccf cebd 66d6 cabd b2be a1bd 35c1 b5bd
000002f0: c605 893b 0fbe 96bb bcb4 99bc 3fc6 08bc
00000300: bec9 3ebc 72dd 3fbc cd40 5a3d beb3 97bd
00000310: 4e1e 0bbd 9cdc b9bc ce6a 90bd df71 41bd
00000320: c3c0 93bd a0fd 3dbd 6941 45bd 6bfc 16bd
00000330: 13a4 b2bd aaae b2bd d71e 073d 90ea 90bd
00000340: 30df 553b 918f 0e3d 65b0 1fbd c5f8 7cbd
00000350: 5c64 dbbd 3b3e 07be 5d4a 0e3c 9b93 b8bd
00000360: b96f 43be 0904 2e3d ce07 e03b e765 3abd
00000370: c3fd 58bd 1339 943d a06a 9a3a e788 c3bd
00000380: d6ff 86bd 8bf2 c03d a09e c6bd e011 0dbc
00000390: a477 583c 3c83 cfbd c952 a7bd cea3 a7bd
000003a0: f0ef 873c ff25 78bc c22f fb3c 2821 ad3b
000003b0: f5ff a2bc e888 b6bd 6dce dfbd f5d1 beba
000003c0: e756 59bd 8eae 713d 380c 63bd 149c 2dbd
000003d0: 73e9 b8bd d534 31bc ff96 2cbe a028 543c
000003e0: b112 8dbd 307b 403d 1cc6 9a3d d0a3 9abd
000003f0: 8a13 0abc 9f9f 773d a91b 9abd c24f a4bb
-0.024741348 0.041797552 0.014758657 -0.034391575 -0.086151764 0.07190661 -0.045942448 -0.06873633
0.06962431 -0.06669994 -0.04862106 -0.089343145 -0.044798803 -0.099148005 0.014392835 -0.10994084
-0.028715143 -0.044208813 -0.17996758 -0.2020278 -0.010914282 -0.08994366 0.044751108 0.041910857
0.023003642 0.06454275 0.04964269 -0.11660098 -0.12491546 -0.06978813 -0.03901522 0.0035522168
-0.07997196 -0.048880823 0.05115062 -0.01183674 0.06928767 -0.11164759 0.021486945 -0.039554875
-0.08009385 -0.11089629 -0.005033943 -0.036917996 -0.179607 0.030956173 -0.088125855 0.050249778
0.08508689 0.08529041 -0.017598046 0.009974116 -0.0023286038 -0.09225425 0.01787452 -0.13914599
0.039376006 -0.07288717 -0.14087196 -0.110356644 -0.11673182 -0.053892102 -0.108004354 0.04949435
-0.040139332 0.016073482 -0.07887857 -0.04605602 0.0017300952 -0.03099283 -0.0773435 -0.007634466
-0.12739572 -0.0840027 -0.043688837 0.004733544 -0.12773733 0.009835703 -0.027583864 -0.08857092
-0.07669435 -0.054575104 -0.10204088 -0.0063524283 -0.12565246 -0.0013648678 -0.011929064 -0.099038236
0.00672888 -0.08455909 -0.025476482 -0.14162579 -0.03936261 -0.11408103 -0.07756828 0.03986685
-0.040023718 -0.091326356 -0.11088537 -0.09765799 -0.0041687437 -0.09574607 -0.13251375 0.027239323
0.006194349 -0.04779287 -0.059475526 -0.07391123 -0.023545688 -0.02371066 -0.0080088945 -0.015498197
-0.04925796 -0.052799035 0.009950534 0.031074591 -0.1560477 -0.121204734 -0.00473247 -0.08264369
-0.095903 0.002305447 -0.009546607 -0.043179687 0.035686873 -0.17394635 -0.18725276 -0.033441927
-0.06085199 -0.10597244 0.02750344 -0.055875838 -0.06136652 -0.10785487 -0.14677742 -0.02159106
-0.054176703 0.025695473 -0.025744513 0.036681302 -0.012089182 0.07918661 -0.0068324194 -0.07254724
0.006503729 -0.011372669 0.018070415 -0.018048758 0.022429008 -0.069652975 -0.03675083 -0.030513022
-0.0517879 0.003966164 0.04972907 -0.053856872 -0.04501482 -0.15330549 -0.16189286 -0.06853023
0.032187648 -0.02808855 0.026004938 -0.06805792 0.0069722543 -0.11633268 -0.07900375 0.027064076
0.040482346 -0.030112717 -0.07794505 -0.0006170374 -0.111122124 -0.0061122794 -0.04708191 0.038536545
-0.080708146 0.009570959 -0.0041760583 0.015739249 0.04571581 -0.004017728 -0.06238984 0.012879779
-0.10098216 -0.099041745 -0.078977 -0.08874742 0.0041815965 -0.0046002935 -0.018762939 -0.008348047
-0.011644779 -0.0117105115 0.053284455 -0.0740733 -0.033964448 -0.022688203 -0.070516214 -0.047227737
-0.07214501 -0.046384454 -0.048158083 -0.03686182 -0.08722701 -0.08724721 0.032988396 -0.07075989
0.003263425 0.034804884 -0.038986582 -0.061760683 -0.107125014 -0.13207333 0.008684722 -0.090125285
-0.19085588 0.042484317 0.006836868 -0.045507338 -0.05297638 0.072374485 0.0011781044 -0.095475964
-0.065917656 0.094212614 -0.09698224 -0.008610219 0.013212118 -0.10132453 -0.08170087 -0.0818554
0.016593903 -0.015145778 0.030662421 0.0052834935 -0.01989744 -0.089128315 -0.109280445 -0.0014558422
-0.053061392 0.05900436 -0.055431575 -0.042385176 -0.09028902 -0.010815819 -0.16854475 0.012949139
-0.06888331 0.04699248 0.075573176 -0.07550776 -0.00842751 0.06045496 -0.07524807 -0.0050143907

fc2.bias f4 [128]
00000000: f64f d3bc 2329 6fbc 0e2f ccbd cd90 71bd
00000010: 1d55 4c3e 4c6c 69bd 0fe1 cfbd 6e86 833e
00000020: d08b 933b 1692 01be 1cab 06bd 8523 73bd
00000030: 733a 03bd f31f 893e cca0 a1bd d16c 8ebd
00000040: cd13 b4bd 1697 e0bc 4939 91bd 1a7d cbbd
00000050: 7439 81bd e17e 59bd 1048 b9be 846b 9dbd
00000060: 66e0 6f3d 2dad bcbc 15a6 62bd 4b01 d7bd
00000070: 742e a6bb d0ca 3abd bd74 91bd 964f ce3d
00000080: d314 ad3c 3f49 68bd 29b5 1dbc 9b63 203d
00000090: 0ea8 efbd a469 a9bc 8b2b 90bd b2d9 09bd
000000a0: 57d0 02be 4e4f 30bd 5068 503e 8718 74bd
000000b0: ae1e dabd b1fe c5bc 7dac 30bd 0c62 9fbc
000000c0: c43a 513e 9a77 82bd c490 3abd 681d b1bd
000000d0: cf08 01bd 8db7 bb3d 6693 c4bc b785 053c
000000e0: 2c8c 0c3c da15 a8bd 7b08 a6bd 9a44 683d
000000f0: b495 e0bb 0e14 fbbd 3b7e e2bc 17b6 d53c
00000100: f356 39be 0f70 1fbe 8b00 64bd 7d67 003c
00000110: c752 a43c 90a4 003d 3464 b8bd f079 adbd
00000120: 277d 9ebd 88a0 0dbd 42a5 cbbd 670e edbd
00000130: 0f15 97bd 53ea a3bd f84f 50bd 54b9 05bd
00000140: 0def 8e3c f442 363c 7b5b abbd 386b 8a3d
00000150: fa81 b43d 2373 8ebd 3ba7 a33c 2ae3 7f3e
00000160: 99fe 5abd e1e2 51bd 5bca 7dbd 49d5 a53e
00000170: e96c 68bd 0a2c e6bd f209 423a 376c 1abd
00000180: 2d3c 60bd f2a5 e5bd 5279 7ebd 9e43 46be
00000190: 209d e8bd 2f50 e33c 287d cbbd 276f 06bc
000001a0: 04db 83bd 49dc c2bd 57ca 1c3d 1aad a2bd
000001b0: 38e2 c4bc ce85 a6bd 6292 35bd 888c 95bd
000001c0: 3d20 1cbd e242 b4bd b19d 2dbd 5be8 75bd
000001d0: 5ca0 07be 7495 7bbd 4c56 6d3d b24c 89bd
000001e0: 10f5 c3bd 517b c4bd c28f bfbd 2328 1bbd
000001f0: 00bd aabd 09cf 933d d2da eabc d91f 7fbc
-0.025794964 -0.01459721 -0.099699125 -0.058975983 0.19954343 -0.056988046 -0.101503484 0.256885
0.004502751 -0.12653384 -0.032878026 -0.059360046 -0.032038163 0.26782188 -0.07891998 -0.06954349
-0.08792839 -0.027415793 -0.070910044 -0.099359706 -0.063097864 -0.053099517 -0.36187792 -0.076865226
0.058563612 -0.023031795 -0.05533417 -0.104982935 -0.0050714556 -0.045603573 -0.07102344 0.100737736
0.021128094 -0.056710478 -0.0096257115 0.03915749 -0.11701976 -0.020680256 -0.07039555 -0.033654876
-0.12774788 -0.04304438 0.20352292 -0.059593704 -0.10650383 -0.024169298 -0.043133248 -0.019455932
0.20432574 -0.063704684 -0.045548216 -0.08648187 -0.03150254 0.09165869 -0.023996066 0.008149556
0.008578341 -0.08207293 -0.08107086 0.05670605 -0.0068537835 -0.122596845 -0.027648082 0.026087804
-0.18099575 -0.1557009 -0.05566458 0.0078371735 0.020059003 0.03140694 -0.09003487 -0.08470523
-0.07738715 -0.034576923 -0.0994363 -0.11575013 -0.073770635 -0.08003678 -0.050857514 -0.032647446
0.017447973 0.011124361 -0.08367058 0.067587316 0.088138536 -0.06955554 0.019977203 0.24989
-0.05346546 -0.05124176 -0.06196056 0.32389286 -0.05674449 -0.112388685 0.00074019947 -0.037700858
-0.054744888 -0.11213292 -0.06212742 -0.19361731 -0.11358094 0.027748195 -0.09935981 -0.008205212
-0.06438258 -0.09514672 0.038278904 -0.07943173 -0.02403365 -0.0813099 -0.044329055 -0.07302195
-0.038116682 -0.088018194 -0.042386714 -0.060036045 -0.13244766 -0.061421826 0.057943627 -0.067040816
-0.09568226 -0.09593833 -0.093535915 -0.037880074 -0.0833683 0.07217223 -0.028668795 -0.015571558

fc3.weight f4 [1, 128]
00000000: 0943 023c edbc 213e 83d5 43bc b97d f3bb
00000010: a894 fd3c 2bef 1638 91c0 9bbc 6efa 48bd
00000020: d5c4 dc3d 3da9 c13c b231 d63c 4db5 32bc
00000030: 1716 c13a 723e 42bd bd52 2bbc 32c9 7fbc
00000040: 65d1 b9bb b74d 583a 0d28 c93a ab26 13bc
00000050: 7284 53bc 02e3 f6bb 249f d23d c15e ae3c
00000060: 8e6b 5a3d c7e1 413b 1d8a a33c 999f 8c3c
00000070: 39bf bebc cc2f 5d39 bd9f a838 a168 db3d
00000080: 30a7 ec3d 9756 e43c 7644 203b 755c e5bd
00000090: 6a2a a93c 6263 b6bb 886d ef3b c852 11bc
000000a0: bc12 053d 709f 053c 4da0 013d 0489 4f3c
000000b0: 6e31 7a3a 7634 4a3c fa2d cb3c 701e 933a
000000c0: a478 fb3c ca91 e83c 0420 ebbd 2206 bb3c
000000d0: 4a65 b9bc 9caa 88bd 6f05 aaba 5cfc e53d
000000e0: 6d77 67bd fee5 e73a f9a4 1dbb c896 b33d
000000f0: ada5 66bb e14c bf3c d8aa bbbc c5f9 a6bc
00000100: c2c5 c93c 3a2f 303c bac5 1ebd 2e46 f23b
00000110: a263 6e3d 06f9 263e 42bf 80bc e5b8 75bc
00000120: c1c9 3bbb b12f 09bc 275e 643c 77c1 2e3c
00000130: 6c8d 95bb 4350 3bbc 736b 9639 2300 9c3c
00000140: d478 b43d 1382 0d3d 1079 883b 5bb1 2ebd
00000150: 6824 3abd baa7 efba 7c45 a43c f967 233d
00000160: 77ed 3fbc 5fa4 8c3c 2a45 ca3c 52b3 493d
00000170: 27b2 93bc edb2 b23c 8567 193d 88a3 793c
00000180: 46ba bcbc b7e7 133c 17bb 8a3c 8101 163d
00000190: cdd9 993c 5fa1 30bc e631 fc37 d48f ec3c
000001a0: eb25 aabb d59d ddbd 89a9 7f3d dc4c cabd
000001b0: 1875 34bc 06f0 87bc f46f 17bd 9701 923c
000001c0: d72e 4fbc e701 c9bb 8838 0a3c b156 413c
000001d0: 4935 2b3a 59a5 00be d60a 823d fd36 c2bb
000001e0: 2292 903b a4f1 89bc fa45 e3bc a31f 783c
000001f0: 1d43 abbc 507a 553d 21ff 303c 26a6 fe3b
0.007950553 0.15794726 -0.011952761 -0.007430759 0.030954674 3.598553e-05 -0.019012721 -0.049066953
0.1077973 0.02364027 0.026146743 -0.010907483 0.0014731315 -0.047422834 -0.010456738 -0.015611934
-0.0056707137 0.00082513265 0.0015347019 -0.008981387 -0.012909995 -0.0075343857 0.1028426 0.021285417
0.05332523 0.0029584037 0.019963318 0.017165946 -0.023284541 0.00021094008 8.040618e-05 0.10713316
0.11555326 0.02787332 0.0024454868 -0.111992754 0.020650107 -0.0055660466 0.0073067583 -0.008869834
0.03248857 0.008155689 0.031647015 0.012666944 0.0009544109 0.012341609 0.024802197 0.0011224281
0.030697174 0.02838983 -0.11480716 0.022830073 -0.022631306 -0.06673166 -0.001297159 0.11229774
-0.056510378 0.0017692444 -0.002405463 0.087689936 -0.0035193965 0.023352088 -0.022908613 -0.020382771
0.024630431 0.010753447 -0.038762785 0.00739362 0.058200486 0.16305932 -0.015716199 -0.014997696
-0.002865419 -0.008373187 0.013938463 0.010666243 -0.004563978 -0.01143271 0.00028690285 0.019043034
0.08812109 0.034547877 0.0041648224 -0.042649608 -0.045444876 -0.0018284239 0.020052664 0.039894078
-0.011714331 0.017168222 0.024691183 0.04924328 -0.018029286 0.021813834 0.03745224 0.015236743
-0.02303804 0.009027413 0.016934915 0.036622528 0.018780613 -0.010780661 3.0063977e-05 0.028877176
-0.0051925085 -0.1082112 0.06241754 -0.09877941 -0.011014245 -0.016593944 -0.036972 0.017823024
-0.012645445 -0.00613426 0.00843633 0.011800454 0.00065310724 -0.12563075 0.06349723 -0.0059269653
0.0044119516 -0.016838856 -0.027743328 0.0151442615 -0.020906026 0.0521186 0.010803015 0.0077712713
