checkpoint_critic_1.pth (torch_old, 164274 bytes, 9 tensors)

fc1.weight f4 [256, 24]
00000000: 6269 3fbe 2cbe 423e 53e8 943d 4821 363c
00000010: e49e 9dbd 0722 10bd 6767 693d e44e f93b
00000020: 2102 73be 005d 663e 9b6a 99bd 1b0b d1bc
00000030: e735 8bbe 87a0 56be aeb1 72bd 60ab 36bd
00000040: 5470 94bd e257 493e 7934 8e3e d36d 2ebe
00000050: c84f debe 9802 a3be 3eaf b03e 0d32 17be
00000060: fe7d 66bd f2a8 c1ba ab94 673c 5438 3dbd
00000070: 8c53 60be 2aac 603f 1230 6fbc 6799 373d
00000080: d93b 9cba 814c 3d3d 7a9a 80bc 475a d3bc
00000090: 49a4 21bd b396 923e ff75 ec3b 6682 183d
000000a0: 7b8b 293d e28a 833c 070e 9a3b b716 3c3e
000000b0: c6ba 833e cdb7 acbf 7054 36bc df11 a43d
000000c0: d5ec f93c 01d5 47ba 3fef ad3d c4ae 14bd
000000d0: f903 363d 1835 553d 9a33 583d 3f01 a2bd
000000e0: 64b3 43bd 811d ef3c 8b96 65bd cebe 76bb
000000f0: 1585 7dbd bdce 3e3d cdbd 44bd 8a5b e5bb
00000100: f67e 093c ada8 4d3d dc57 653c eee8 c13d
00000110: 6820 ccbd f8d7 333d 8365 f33c 9014 b1bb
00000120: 8ab9 28be c4bc 85be 34d3 9e3c 246f c4bc
00000130: 0586 27bf 7fd0 ff3d 0d1f 1cbb 3743 b03c
00000140: 0761 9e3d 8993 0d3e 058e 9bbc c31f 14bd
00000150: 4c13 48be 94c4 c7bc 29cf 7d3c 5618 a53c
00000160: b2d8 183e 40f5 9e3e 90df 9dbc 81da 07bd
00000170: 4109 1b3f acee 733e 3049 a63c 72a3 a23c
00000180: adf6 b13d 33a8 8fbe 60ae b9bc 01ae 0d3f
00000190: 0583 173e 514c 323e 7229 ebbc 5c2b 0b3f
000001a0: e764 0abd c9c0 9abe 149f 19be 0220 303e
000001b0: 8203 b13e c523 ab3e 54dc 30bd dc47 243e
000001c0: 58e2 0a3e 3b70 85be 1529 dabc 9fc2 433e
000001d0: 8ddf 0a3e 0ccb 193f ef73 f0bc acd3 463e
000001e0: 3955 36bd 7feb 27bd 9127 e63a 2e2c 1b3e
000001f0: 5f31 323e 478c a9be 2781 4ebc ea09 d83d
00000200: ce42 673c 5fc1 4f3e 1880 8abc 70d5 1d3e
00000210: 1e13 983c 6720 7fbd 2756 7c3a dff3 3b3e
00000220: 7533 65bb dbc6 933e 081e f5bc 7efd 11bf
00000230: b091 39be 7530 8f3f 68dd c53c d6b8 0abf
00000240: 5ac3 963e 5008 613f cbc5 763c cfdb 173e
00000250: 7c7a 703e 1b51 1d3f 67c6 de3c f505 003e
00000260: 1c6b 813e 61ce 893f 15fe c0bd a133 c0bd
00000270: b129 523b d253 ad3e 3218 70bd 874c 1fbe
00000280: 488c 973e d4d8 343f 770b fa3c 49ef b3be
00000290: 8f80 b33d c03c 763c d76e 2a3d 48bb c4be
000002a0: ed2f 093e b783 3d3f 1e22 aabb 983b 5cbd
000002b0: 143b 06bf b13e dc3e 6760 9ebc a69a 46bd
000002c0: f210 aebd df22 ab3e 9ba3 ddbb 67bb 713c
000002d0: 7b04 823f a6a2 10be 63f4 423d feca b33d
000002e0: 070b 01be 97ac 3e3d ebec e0bb 423f 79bd
000002f0: 1882 4a3f 45ce f3bb 49d5 dc3c a0de 063d
00000300: 7a85 85be 4511 ae3e f69f a13c 754d c23d
00000310: e5c4 5cbd eab2 80be c589 90bc 1937 e83d
00000320: d5ec 3bbe 579b d33e 1d5d ffbd 65a5 1cbe
00000330: b0c4 7c3c fe20 d3be ca47 3cbe f234 43be
00000340: 3bda 63be ccd9 be3e 99da 173d e7e7 93bc
00000350: 0653 8c3e c22e 4bbf a0f4 9bbd 0dca eebc
00000360: 7a8a 77bd 50af 57bf b1be 57bd e738 7ebe
00000370: 705b f63d f30b ac3e 91e4 f6bd 7405 4ebe
00000380: 4b78 6f3d fbc8 09bf 3ee2 06bd 1653 cb3d
00000390: d0a0 293e ac20 c53e a4b9 213c e406 b93d
000003a0: 9c35 9c3d 9a94 cebe 9cdc da3d 9b55 d93c
000003b0: 9d73 e83e eb41 323f c617 103e 5e16 e53d
000003c0: cddd 8dbe 4583 1e3e 9741 e13b 54ee 253e
000003d0: 3403 93be 7900 803f 0af9 3bbd 29a6 353e
000003e0: 623d b8bd f98c 0a3f 8fbe 7fbc b611 983e
000003f0: eb41 cbbc a7b7 073f 7afd 93bd 3cf9 953e
-0.18692544 0.19017857 0.07270875 0.011116333 -0.076963216 -0.0351887 0.056983378 0.0076082814
-0.23731281 0.22496414 -0.074910365 -0.02551799 -0.27189562 -0.20959674 -0.05925148 -0.04459703
-0.072479874 0.19662431 0.27774408 -0.17034082 -0.43420243 -0.31837916 0.345087 -0.14765187
-0.0562725 -0.0014775081 0.014134566 -0.046196297 -0.2190687 0.877627 -0.014598863 0.04482403
-0.0011919691 0.046215538 -0.01569866 -0.025799884 -0.039463315 0.286306 0.0072162147 0.037233733
0.041392785 0.016057435 0.004701379 0.1836804 0.25728434 -1.3493592 -0.01112853 0.08011221
0.030508438 -0.00076229876 0.08492898 -0.036299482 0.044437382 0.052052587 0.052783586 -0.07910394
-0.047778502 0.029188873 -0.056051772 -0.003765035 -0.061894495 0.04658388 -0.04803257 -0.0069994377
0.008392086 0.05020969 0.013997998 0.09468256 -0.099671185 0.043907136 0.02971149 -0.0054040626
-0.16477028 -0.2612058 0.019387819 -0.023978777 -0.6543887 0.12490939 -0.0023822219 0.021516426
0.0773335 0.13825811 -0.018988619 -0.036163103 -0.19538611 -0.024385728 0.015491285 0.020153206
0.14926413 0.31046486 -0.019271642 -0.033167366 0.60560995 0.23821515 0.02029857 0.019853327
0.08689628 -0.28058013 -0.022666156 0.55343634 0.14796074 0.17411925 -0.028706286 0.54363036
-0.033787634 -0.30225208 -0.1500209 0.1719971 0.3457299 0.33425727 -0.04317887 0.16043037
0.13562906 -0.26062188 -0.026630918 0.19117211 0.1356184 0.6007545 -0.029352156 0.19416684
-0.04451487 -0.04099607 0.0017559399 0.15153572 0.17401646 -0.33114836 -0.0126040345 0.10548766
0.014115049 0.20288609 -0.016906783 0.15413451 0.018563803 -0.06228676 0.0009625875 0.18354748
-0.0034973298 0.28862652 -0.029921547 -0.57027423 -0.18121982 1.1186663 0.024153426 -0.5418829
0.29445916 0.8790331 0.015061806 0.14829944 0.23484224 0.6145188 0.027194215 0.12502272
0.2527703 1.0766107 -0.09423462 -0.093848474 0.0032068307 0.33853012 -0.058616824 -0.15556537
0.29599214 0.70643353 0.030523045 -0.35143498 0.08764755 0.015029132 0.04160961 -0.38424134
0.13397188 0.74029106 -0.0051920554 -0.05376777 -0.52433896 0.4301658 -0.019333078 -0.048487328
-0.08499326 0.33425042 -0.006763888 0.014754153 1.0157617 -0.14124545 0.047596347 0.08778952
-0.12601863 0.046551313 -0.0068641803 -0.060851343 0.7910476 -0.0074403607 0.026957171 0.032927155
-0.26078397 0.3399755 0.019729596 0.0948743 -0.05389871 -0.251365 -0.017643819 0.11338634
-0.18352063 0.41329452 -0.12468932 -0.15297468 0.015427753 -0.4123611 -0.1838676 -0.19063166
-0.22251217 0.3727554 0.037073705 -0.018054916 0.27407092 -0.7936822 -0.07615018 -0.02914908
-0.060434796 -0.8425188 -0.052672092 -0.24826394 0.12029159 0.33602867 -0.12055314 -0.20119268
0.05846433 -0.53822297 -0.032930605 0.09927957 0.16565251 0.3850149 0.00987092 0.090345174
0.07627413 -0.4034775 0.10686609 0.026530078 0.45400706 0.6963183 0.14071569 0.11185907
-0.27708283 0.15479763 0.006874274 0.16204196 -0.2871338 1.0000144 -0.0458918 0.17739166
-0.08996083 0.5412136 -0.015609398 0.29701012 -0.024811706 0.53014606 -0.07226081 0.29291713

fc1.bias f4 [256]
00000000: 295b fe3d 974e 3c3e c47b 82bd 36ec 0d3e
00000010: 6da6 31be ec11 d63d 504a b73d a025 f73d
00000020: ffe5 063e 8abf 153e ae62 143e ad8c 2ebe
00000030: dc03 2f3d 7b05 38be e32a 873d 8fa8 a9bd
00000040: fa3d c4bd 722f ffba 3671 e33c 8479 02be
00000050: 642e 3fbe 93c6 343e 9733 533d 70ca 493e
00000060: cad3 673d 549d 033e fbb2 38be 4355 243a
00000070: 3158 453e a7b0 63bb 55b2 a8bd 1ff9 153d
00000080: 606f 15be cc7b 06be 4e9a e8bd c0cf 333d
00000090: 558c 2fbe d08c db3d 3633 ccbd a2c0 32be
000000a0: d581 0bbe 05ba 643c 2e24 d43d 0451 05bd
000000b0: 50f7 48be 517e 61ba d69c 413e e622 e4bd
000000c0: ae22 f63c d6ca 653d 52c4 f7bd 8a56 1dbe
000000d0: 5982 c93d cab8 d6bd ba60 863c f562 343e
000000e0: 5004 ad3d caaa ea3d b695 193e a315 c8bd
000000f0: 42f5 823d 3b81 223e 6ffb 17be adfb 713d
00000100: 167e 97bd 1a49 31be 8f9e 29be 3518 ef3c
00000110: f4d4 10be 969d e23d 1372 bcbc b4b9 3abd
00000120: c2b1 21be 4333 b83d 2227 efbd b34f 163e
00000130: 3a20 e0bb 939b 16be ec4c 1f3e 7cb4 1f3e
00000140: c9ca 35be 3d5c f1bd 1bea b6bd 7a12 11be
00000150: be6f ad3c dbbe 18be caad db3d 2c0d 2cbe
00000160: bc1b 3bbe 43ad af3b 244a 70bb 60ad 333d
00000170: e52e 2cbe 9ab9 393e 303d 29be 35b4 1e3e
00000180: 2a55 3e3e 32bb 593d bd8a 3d3d 5a62 e4bd
00000190: 6442 813d b0c9 2c3e aafe 32be 59de 323e
000001a0: 6930 c0bd c1e9 413d f3e3 cc3d 1bfd 223c
000001b0: 6401 f8bd b110 f8bd f156 273c 68f5 e5bd
000001c0: ad1f 1fbe 1a9c 44be 17da 4d3e d98e 3ebe
000001d0: 2e35 11be 5144 ab3d 8fe3 063e 6db8 483e
000001e0: 7c85 a73d ba42 3a3e 1fdd e9bd 91ec 913d
000001f0: 5207 f43c 7185 3dbe 6a39 393e a101 8c3d
00000200: 627f d03d 217f e53d db3b 853d bc68 d9bd
00000210: dee0 fe3d 56c3 7a3c 8387 cebd 1af2 ed3d
00000220: 51d0 edbb 7d06 153d 8a22 0a3e 40b8 1f3e
00000230: d867 81bc 80be d93b 881e 5e3c ff5d c93d
00000240: 45f8 9d3d 2fca 033e e464 7cbd a053 c3bd
00000250: 2965 42bd 354c f33d 9777 293e 904b b2bd
00000260: 914c d63d 82d8 493e de35 143e 0175 8f3c
00000270: a69a 1cbd 3279 4c3e 5a00 8d3d a471 9cbd
00000280: 9b08 393d f5a8 e9bd c413 e1bd f550 313e
00000290: 8c20 df3d 3bab 11be d5f9 10bd 11b6 aabc
000002a0: b68d cfbd afac e6bd 5d4c f83d 3d08 083e
000002b0: a8a1 93bd ae4b 49be 87c2 1a3e ef59 01be
000002c0: 844b 76bc 557d d5bd 367e a5bd cce8 083e
000002d0: 2020 2a3e ee1a cabd 8856 1c3e 3a95 fabd
000002e0: 0a1f 2cbe cd5f 5f3d c0e5 59bc 9d9c d73d
000002f0: 5659 163e 5b32 9bbd c2d7 273d b68e 943d
00000300: 53de fe3b 4ecb 00bd ac90 663d 05b7 2fbe
00000310: 1a78 79bc 510d 01be a250 45be 5213 2e3e
00000320: c661 09be 1c24 acbd ffbf 2f3e 5b37 febd
00000330: 18e4 f2bc 46f5 2d3e 4b29 b83d f3de dc3d
00000340: 5c45 863d 7986 a7bc c54e 213e 170e 313e
00000350: 2e2c a6bc 33d8 8bbd 9c9d b2bd aaf0 b33c
00000360: ba40 21be 5a01 37be 163c 4dbe 9b08 be3d
00000370: 16a5 1e3d 0db8 b53d 9298 2cbc 9cd8 f8bd
00000380: b391 cb3c ac86 c4bc 23d0 79bd 3e9b 023e
00000390: 0113 a3bd 2c90 c03c 8c37 cdbd 4357 babb
000003a0: 382f 213c 88d4 f8bd 63ba bb3d 14c5 1bbd
000003b0: d898 13be d8cc 0a3e 8f99 c2bd 7c33 403e
000003c0: cb96 2fbd ad3f 3b3e 5e7f 10be 24eb 83bd
000003d0: 9c25 463e 72c2 f8bc a3cd b3bd ac72 983d
000003e0: fd90 11be aa8e ff3d 144f 90bd 0a74 323e
000003f0: 9d34 113e 3113 323e 799a 17bd 3c9b 09bd
0.12419731 0.18389355 -0.06371263 0.13859639 -0.17348643 0.10452637 0.08949721 0.12067723
0.13173674 0.14623848 0.14490768 -0.17045851 0.04272829 -0.1797084 0.06599977 -0.08284103
-0.095821336 -0.0019469096 0.027763944 -0.12741667 -0.1867004 0.17653875 0.05156287 0.1970613
0.056598462 0.12852985 -0.18037026 0.00062688085 0.19271924 -0.0034742744 -0.08237139 0.036614534
-0.14593267 -0.13133162 -0.11357556 0.043899298 -0.17143376 0.10720217 -0.09970705 -0.17456296
-0.13623746 0.013960366 0.10358463 -0.032547966 -0.19625592 -0.00086018915 0.18907484 -0.11139469
0.030045833 0.056101643 -0.12097992 -0.15365043 0.09839315 -0.104844645 0.016403545 0.17615874
0.08448088 0.11458357 0.14998516 -0.09769752 0.063944355 0.1586961 -0.14842008 0.059077907
-0.07397096 -0.17313042 -0.16564392 0.029186347 -0.14143735 0.110652134 -0.023003614 -0.045587257
-0.15790465 0.089941524 -0.11677386 0.1467884 -0.006839779 -0.14707784 0.15556687 0.15596193
-0.17753138 -0.11785171 -0.08931371 -0.14167204 0.021171447 -0.14916556 0.10726507 -0.168019
-0.18272299 0.0053612306 -0.0036665285 0.043866515 -0.16814764 0.18137208 -0.16527247 0.15498431
0.18587175 0.05315704 0.04627489 -0.111515716 0.06311491 0.16873813 -0.17479959 0.17467631
-0.093842335 0.047342066 0.10004415 0.00994804 -0.1210964 -0.12112559 0.0102136 -0.11228448
-0.15539427 -0.19200173 0.20102726 -0.1860918 -0.14180443 0.0836264 0.13172744 0.19601603
0.08179757 0.18189517 -0.114191286 0.071251996 0.029788647 -0.18507935 0.18088308 0.06836248
0.10180546 0.112058885 0.06505557 -0.106156796 0.12445234 0.015305361 -0.100844406 0.11618443
-0.0072574993 0.03638314 0.13489738 0.1559763 -0.015796587 0.006645024 0.013557084 0.098323815
0.07713369 0.12870096 -0.061619654 -0.095374346 -0.047459755 0.1187977 0.16549526 -0.08705819
0.10463823 0.19711497 0.14473674 0.017511846 -0.03823342 0.19968107 0.06884833 -0.07638863
0.045174222 -0.11409179 -0.10990098 0.17316039 0.1089488 -0.14225475 -0.03539451 -0.02083877
-0.10134451 -0.112634055 0.1212394 0.13284393 -0.07208568 -0.19657776 0.15113269 -0.12631963
-0.015032653 -0.10424296 -0.080807135 0.13370055 0.16613817 -0.09868418 0.15267384 -0.12235494
-0.16808715 0.054534722 -0.013299406 0.105279185 0.14682516 -0.07577964 0.040977247 0.072537825
0.007777968 -0.031443886 0.056290314 -0.1715966 -0.015226388 -0.12602736 -0.1926904 0.16999558
-0.13416204 -0.08405325 0.17163084 -0.12412902 -0.02964978 0.16988096 0.08992251 0.10784712
0.06556198 -0.020449864 0.15752704 0.17290531 -0.020284738 -0.06828346 -0.08721468 0.021965344
-0.15747347 -0.1787161 -0.20042452 0.09278985 0.038731657 0.088729955 -0.0105344225 -0.1215069
0.024849748 -0.023989998 -0.06098951 0.12754533 -0.07962609 0.023506247 -0.1002036 -0.005686672
0.009837918 -0.12149912 0.0916641 -0.038029745 -0.14413774 0.13554704 -0.09501945 0.1876964
-0.042868417 0.18286009 -0.14111087 -0.06441334 0.19350284 -0.030366156 -0.087794565 0.07443747
-0.14215465 0.12478383 -0.07046333 0.17427078 0.14180227 0.17390133 -0.03701255 -0.03359531

bn1.weight f4 [256]
00000000: cde3 3d3e 1a36 763f da94 e2bb 1340 193f
00000010: d90e cd3e 2718 133f ca95 f93e 60f9 353f
00000020: cfd5 bc3e 2a6d b53e 34ee 193f 4ce6 053f
00000030: 7b80 bd3e 4788 163f e33a 583e 2427 b13e
00000040: 435c 1b3c c32a 053f 8c5b ba3f d9f2 a93f
00000050: 7b96 ed3a 38c3 db3e fcf8 a13e 85d5 a03e
00000060: 6ea5 833e 86e3 643a f4a0 aa3e 98e0 ab3e
00000070: 91a6 9c3e 3bb1 863e 6244 bf3e 4d82 a33e
00000080: 1ef7 683e 66ef 0c3f 8123 5d3e 6064 0f3f
00000090: 482c d73b 8c80 8f3e d199 653e 6d3f 8e3e
000000a0: da96 ca3e 756b c23e 2896 233e 972c 913b
000000b0: ebf0 463f 464e 393f 6333 723e 2137 f63e
000000c0: 8d29 9c3c a47e 6f3e d3f4 ff3e 312e 863e
000000d0: 457a a33e ed6c d63e 9ff8 f63e 6494 033f
000000e0: ef9e 553f 6d83 823e 7a3e 083f d963 8a3e
000000f0: 6f3d d73e 29bd cb3e b67d 103f e872 d4b8
00000100: 2c78 e33e 07bb 7f3e 86dd 753e 7ac7 c23e
00000110: 3a55 153e c1de 8f3e 014a 9e3e efce 363e
00000120: 29f0 873f a39a 053f 3b2d 053f 728c c43e
00000130: e92c d33e af89 8f3f 1704 3d3f 56bd cf3e
00000140: dfa8 7d3e 313e b43e 7a29 313e b0ef 983f
00000150: a497 993e 414f 273e fee1 163f 805c 1e3e
00000160: c5cb 243e 9331 ae3e caf1 5b3e b331 1e3f
00000170: e6d0 6f3e feaa 7c3e fa0c 0d3f dba1 6c3e
00000180: fde3 2e3e d47b 623e aaaa 1b3f 5c39 8e3e
00000190: 3bba 673b f84e 973e d1df d53e 047e 6c3f
000001a0: 2fae 913e 69d3 193f 3bc0 853e 7792 153e
000001b0: 8a9b 5a3e 8c92 043f 7953 283f 66c7 873b
000001c0: 7132 e63e c98a cc3e 4afb 2f3f d756 393d
000001d0: f8c3 543f a1ba a13e 110e 4b3e ee57 863d
000001e0: b78d a43e 81b3 db3d 4d67 8b3e b91b 193e
000001f0: abe9 953e f7bc 9c3e d8d8 913e 49dd 683e
00000200: 032c 113f db14 ad3e 0411 a43e 7eb5 103f
00000210: 63b7 263e 4cea 5b3e 3c86 ad3f d02c 713f
00000220: a0ed e63e ddff 7f3e ee55 903d 2f39 963e
00000230: 4add 9a3e fc98 983e 4f1f 983e f5a6 133f
00000240: 5fba c73e ec10 8b3e d44d e73e 1199 083f
00000250: aec6 9b3e b6c0 d23e 2089 cb3d a234 cd3e
00000260: d5d2 fd3e 4942 083f 52cb ae3e 6b3b c23e
00000270: d90e 243e e892 9c3e 1838 053f 236f 003f
00000280: b404 1d3f ee3d a83e b009 033f 2f65 e43e
00000290: 8d53 e33d 788c b63e e54b 663e e86d e63d
000002a0: e3dd 173f 6afc 563e bc57 c33e 6850 f43e
000002b0: 07df 3a3e 3149 f43e 086f 153f b087 153f
000002c0: ca88 6e3f 7a13 ba3e bf94 923e d935 883e
000002d0: e5ae c83e dbf0 e73e e9c4 e63e 33d4 743e
000002e0: 9b97 183f ec8d 803e 4cb9 4c3f 26ae b03f
000002f0: 8e97 0b3f d140 f73e 22fe 823e 7046 c43f
00000300: 9af1 a53e f6be b13b 72d0 073f 45db fb3e
00000310: 9c64 483e 4292 383f 0523 213f 5a29 903e
00000320: 73ad 2c3e a1b0 593e 7699 dd3e f6f0 ab3e
00000330: d7a5 e939 6c5b d93e fc58 943e ebd7 723e
00000340: e0f4 2e3c b722 943f c07f e33e b53c 073f
00000350: b903 4a3f 35fc 5b3e b7a2 a63d 85d2 5c3e
00000360: e198 d63e 12d4 9f3e 8ebb 8d3e 040a 9a3e
00000370: a9ab f03e 0611 453e 6c97 123f edcf c53d
00000380: a5e7 b63e 1547 9f3e f41b ca3e 54e3 863e
00000390: 2cb0 ed3e d8e1 5f3e c5cc 1ebb ee94 173f
000003a0: 67f2 c23e fb23 a03e eae9 683e b710 0b3f
000003b0: 0982 053f f709 193f b8d8 2f3f 98c6 833e
000003c0: d889 b03e 79f0 303e 3397 eb3d d0d4 833e
000003d0: dd56 863e 3ee6 223f c23a 6b3f 6c33 423e
000003e0: f11e 7a3f 9000 2b3f cf5e 133f f38f 003f
000003f0: d02e 1e3f 843d 523e 1dd5 603e 07a2 2b3c
0.1854393 0.961763 -0.006914717 0.59863394 0.4005039 0.5745873 0.48747092 0.7108364
0.36881873 0.35434848 0.60129094 0.5230453 0.37012085 0.5880169 0.21116214 0.34600174
0.009482446 0.52018374 1.4559188 1.3277236 0.0018126512 0.42922378 0.31635273 0.31412902
0.2571215 0.00087314134 0.33325922 0.3356979 0.3059583 0.2630709 0.3735686 0.3193535
0.22750518 0.55052793 0.21595575 0.56012535 0.006566558 0.2802776 0.22421958 0.27782765
0.39568216 0.37972608 0.15975249 0.0044303644 0.7771136 0.7238506 0.23652415 0.48088935
0.019062782 0.23388153 0.49991474 0.26207116 0.31929222 0.4187998 0.48236558 0.513983
0.8344564 0.25490895 0.5322033 0.27029303 0.42039058 0.39792755 0.5644182 -0.00010130351
0.4442762 0.24973689 0.24010286 0.38042814 0.14583293 0.28099635 0.30915835 0.17852376
1.0620166 0.5218908 0.5202214 0.383884 0.412452 1.1213893 0.73834366 0.4057414
0.2477145 0.35203698 0.17300978 1.1948147 0.29998505 0.16338827 0.58938587 0.15464973
0.16093357 0.34022197 0.21478954 0.61794585 0.23419532 0.24674603 0.55097926 0.23108618
0.17079158 0.22117549 0.6080729 0.27778137 0.0035358805 0.29552436 0.4177232 0.92379785
0.28453204 0.6008821 0.26123223 0.14606653 0.21348396 0.5178611 0.6575237 0.004143643
0.4496036 0.39949635 0.6874281 0.045248833 0.83111525 0.315877 0.19829585 0.0655974
0.3213937 0.10727597 0.2722725 0.14951982 0.29279837 0.3061292 0.2848575 0.22740664
0.5670778 0.33804974 0.32044232 0.56526935 0.16280894 0.21476096 1.355659 0.94209003
0.45103168 0.24999948 0.0704764 0.29340503 0.30246955 0.29804218 0.29711387 0.5767663
0.39009377 0.27161348 0.45176566 0.5335856 0.30425018 0.41162652 0.09938264 0.40079218
0.49574915 0.53226143 0.34139496 0.37935957 0.16021289 0.3058083 0.5203872 0.5016958
0.613353 0.3285975 0.51186657 0.44608447 0.110999204 0.35654044 0.22489889 0.11251432
0.5932295 0.20994726 0.38152874 0.47717595 0.1824914 0.4771209 0.58372545 0.5841017
0.93177474 0.36342984 0.2862911 0.26603583 0.39195934 0.45300946 0.45072106 0.23909073
0.5960633 0.25108278 0.7997024 1.3803146 0.5452813 0.48291638 0.25584513 1.5333996
0.3241089 0.0054243756 0.5305244 0.49190727 0.1956963 0.7209817 0.6294406 0.2815655
0.1686304 0.21258785 0.43281144 0.33582276 0.00044564783 0.42452562 0.2897414 0.23715179
0.0106785 1.1573094 0.44433403 0.52827007 0.7891193 0.21482928 0.08136504 0.21564682
0.41913512 0.31216484 0.27682155 0.30085766 0.47005966 0.19244775 0.572623 0.09658799
0.35723606 0.3110892 0.39474452 0.26345313 0.4642347 0.21863496 -0.002423094 0.59211624
0.38075563 0.3127745 0.22745481 0.5432238 0.5215154 0.5978083 0.6869006 0.25737453
0.34480166 0.17279233 0.11503448 0.257483 0.26238146 0.6363257 0.9188653 0.18964928
0.9770346 0.66797733 0.5756654 0.5021965 0.6179018 0.20531279 0.21956296 0.010475642

bn1.bias f4 [256]
00000000: 7693 7abe 21af 12be d9af 35bd 3439 edbd
00000010: ed84 20be a837 b3bd 9c9b 17be 3f0b 26be
00000020: 5ada 65bc 5537 58be f06a 5bbe ddb1 58be
00000030: 4c24 66be 269f bcbe c667 f7bd 5086 60be
00000040: 1c70 0cbd 5165 aebe cb41 9fbd 373b b0be
00000050: e68b 05bc 0ce1 06be 0eac 6a3c d8c0 afbe
00000060: 81b4 f0be 15fa 9bbb 5047 25be 3879 4ebe
00000070: afd5 c9be 7e51 3ebe 52f3 5dbe 038f 83be
00000080: dfbe 5ebe ee11 8cbe cf9d 68be 7110 44be
00000090: fcae c8bc d098 9dbd 07bf adbd 3de1 5ebe
000000a0: 320a e8bd 6e30 a4be 1f2c 9ebd 8e58 4ebd
000000b0: c93e 763c 16b2 10bf 1cfe f5bd 15cf dfbe
000000c0: fd14 95bd 9dc2 44be 876f 46be 9cda 40be
000000d0: edbe c0be 92b7 7dbe 6733 4bbe 2eb8 98be
000000e0: fa20 9abe 87d0 bebd 4d37 87be d725 ccbe
000000f0: a5d1 91be 52e2 f6be 0027 24be fe2e 2fbc
00000100: d29e bcbe 3513 3dbe d684 92bd 5bef 9abe
00000110: bbb0 bbbc 955c b9be e204 72be aff5 22be
00000120: ee3b a3be 4bc7 97be c7a4 aabc ccf6 aabe
00000130: 0eef 47be 65e0 f43e 7c0d 02be 8306 e8bd
00000140: 053d 44be 2f13 68be 87ed 13be 63b7 ac3c
00000150: 36d3 98be 4c95 263e 650d 0dbf 8831 81bd
00000160: afef 9ebd 5aaf 7fbe d1a7 37be 675b 47be
00000170: ecbb 03be ca56 6bbe a0dc 09be 70b8 85be
00000180: edf9 02be f11e b2be 78df d3be 9fd7 e1be
00000190: 67de 41bc e15c 4ebe 4758 95be aba4 153e
000001a0: ce91 96be d361 55be 0ec1 7fbe 348f 5fbc
000001b0: 3b7f 7ebe 266a c6be 701d c0be efd5 9fbd
000001c0: 7f3a 43be 46a3 60be 5a89 9fbe b9ea fc3c
000001d0: 8896 9cbd 8f04 9cbe d2ac 93be 4107 dabc
000001e0: 25d7 87be 4917 4dbc 628e 04be 4391 4e3d
000001f0: 7247 63be 6371 a9be d805 413d aa0c bebe
00000200: c293 a6be a553 433e 9d6a 45be 3bc4 9d3d
00000210: 7a2d c8bd c9d9 3ebe b80f 80bc 1ae9 673c
00000220: 0857 c9be 8726 84be 2dd8 3dbe 8a57 d1bd
00000230: fa54 47be edeb bfbe 597d 8bbe 6cbd 87be
00000240: f14a a7be a055 e8bd 8704 b9be fd37 1dbe
00000250: 8246 c2be 42bf 8cbe 835a 66be 3425 b9be
00000260: 5c7b f5be aa64 c1be 7a54 bbbe 091f 09be
00000270: 0109 6bbd 3dd3 9dbe d8b0 c3be 390a 39be
00000280: 18d0 13be 364e bcbe 9b16 ecbe a80b 92be
00000290: e429 ddbd 80bb c7be bb3c 92be 489f 34bd
000002a0: bdc8 41be 8952 8cbe e711 89be 3c8d 10be
000002b0: d04b 18be 6855 d1be 5387 63be 9dd9 a4be
000002c0: 8490 e23d 2897 91be 9a50 a6be 690d 9cbe
000002d0: 401b b3be cb16 4ebe 5b42 97be 1275 59be
000002e0: eaea 85be 0f47 9dbe f107 dcbe 7fa5 8a3a
000002f0: dd22 bcbe 5bde 3bbe 8c2d 17be a3ff 2abd
00000300: 17ee 8dbe 8f35 88bc b7c5 03be 60cf 1bbe
00000310: b989 52be 53c5 ddbe 9ebb ebbe 977d 9c3d
00000320: a03b 3fbe 6c91 47bd 8017 cabe c312 8dbe
00000330: d30f 9dba 314b 85be 5940 ccbe 26a7 d33c
00000340: 02b7 c3bd 7f73 e5be 4a8f c9be 46b0 ecbe
00000350: 05ef 4cbe 4a4a 32be 49f9 51be d3c8 40be
00000360: e91d 29be b4a9 f4bd c037 87be e0fb 78be
00000370: 4645 e8be 7585 d83d e603 08bc 4db4 43be
00000380: d7fd 80bd 9e5d 43be 018f 59be 2c52 1dbe
00000390: f569 febe a979 8cbe c6c1 26bc ad52 5ebe
000003a0: 8c65 3ebe b0ae 8cbe 69bb 55be f523 babe
000003b0: b07f d0bc 22ff e8bd 0111 8abe a77d 3abe
000003c0: 0183 a5bd 2755 57be de68 80be 874f 7bbe
000003d0: 1b35 4cbd 22cd c7bd 3917 36be a929 1ebe
000003e0: 6454 b1bd 8cb1 3ebe c4e1 f4be 21e6 71be
000003f0: 683f a1be 0c80 16be d6f5 04be fa1c 9bbd
-0.24470314 -0.14324619 -0.044357155 -0.11583176 -0.15675707 -0.0875085 -0.14805454 -0.16215228
-0.01402911 -0.21114857 -0.21427512 -0.211616 -0.22474784 -0.3684017 -0.1208034 -0.21926236
-0.034286603 -0.34061673 -0.07776221 -0.34420177 -0.00815103 -0.13171786 0.014323248 -0.34326816
-0.47012714 -0.0047600367 -0.16140485 -0.20163429 -0.3942084 -0.18585774 -0.2167485 -0.25695047
-0.21752499 -0.2735743 -0.22716449 -0.19146897 -0.024497502 -0.07695162 -0.08483701 -0.21765609
-0.113300696 -0.320682 -0.07723259 -0.05037742 0.015029618 -0.5652174 -0.12011358 -0.4371268
-0.07279394 -0.19214864 -0.19378482 -0.18833393 -0.37645665 -0.24777058 -0.19843827 -0.29828018
-0.30103284 -0.09317117 -0.2640938 -0.3987262 -0.2848026 -0.48219544 -0.16030502 -0.010692356
-0.3683992 -0.18464358 -0.07154243 -0.3026074 -0.02291142 -0.36203447 -0.23634675 -0.15914033
-0.3188166 -0.29644236 -0.020830525 -0.33391416 -0.19524786 0.4782745 -0.12700456 -0.11329367
-0.19163902 -0.22663568 -0.14446078 0.02108354 -0.2984864 0.1626789 -0.55098563 -0.063082755
-0.0776056 -0.24969235 -0.1793511 -0.19468461 -0.12864655 -0.22982326 -0.13463068 -0.26117277
-0.12790652 -0.3478923 -0.4138143 -0.44109818 -0.01183281 -0.20152618 -0.29168913 0.14613597
-0.29408115 -0.20838098 -0.24975988 -0.013644982 -0.24853222 -0.3875286 -0.3752246 -0.078044765
-0.19065283 -0.21937284 -0.31159478 0.030873643 -0.07645899 -0.30472228 -0.2884279 -0.026614787
-0.2653133 -0.012517759 -0.1294494 0.0504315 -0.22195223 -0.3309432 0.047124714 -0.37119037
-0.32534605 0.19074877 -0.19278951 0.077034436 -0.09774299 -0.18637766 -0.015632495 0.014154697
-0.39324212 -0.25810644 -0.18539496 -0.10221775 -0.1946601 -0.37484685 -0.2724407 -0.26511705
-0.32674363 -0.11344457 -0.36136267 -0.15353389 -0.37944418 -0.27489668 -0.22495465 -0.36161196
-0.47945678 -0.37772113 -0.36587888 -0.13390745 -0.057381634 -0.30825225 -0.3822086 -0.18070306
-0.1443485 -0.3677842 -0.46110997 -0.28524518 -0.10799006 -0.3901024 -0.2856196 -0.044097215
-0.18924232 -0.2740672 -0.2677147 -0.14116377 -0.1487267 -0.40885472 -0.22219591 -0.32197276
0.110627204 -0.28435636 -0.3248337 -0.3047898 -0.34981728 -0.20125882 -0.29542813 -0.21236065
-0.26155788 -0.30718276 -0.4297481 0.0010577886 -0.3674535 -0.1834654 -0.14763469 -0.0417477
-0.2772071 -0.016627101 -0.12868391 -0.15215826 -0.2056035 -0.4331461 -0.46041578 0.07641142
-0.18675089 -0.04872267 -0.39471054 -0.27553377 -0.0011982865 -0.2603393 -0.39892843 0.025836539
-0.0955639 -0.4481468 -0.39367133 -0.46228236 -0.20013054 -0.17411152 -0.20505251 -0.18826608
-0.16515316 -0.11946431 -0.2640972 -0.24314833 -0.4536535 0.1057233 -0.008301711 -0.19111748
-0.06298416 -0.19078681 -0.21245958 -0.15363377 -0.49690214 -0.2743657 -0.010178035 -0.21711226
-0.18593425 -0.27477026 -0.20872273 -0.36355558 -0.025451511 -0.11376788 -0.26966098 -0.18211995
-0.08081628 -0.21028577 -0.25080007 -0.24542056 -0.049855333 -0.09755923 -0.17782296 -0.1544558
-0.08658674 -0.18622416 -0.47828496 -0.23622943 -0.31493688 -0.14697284 -0.12984404 -0.07573886

bn1.running_mean f4 [256]
00000000: 99b9 b040 56ec cebe 4185 833f 5719 7c3f
00000010: 3ffe 8c3f 07c9 1340 588e 11c0 adb4 ca3f
00000020: aaa0 89c0 c0b3 bb40 9cff d340 c073 bd3f
00000030: 3b29 0ac0 5279 2540 7cde 17c1 1b31 2d40
00000040: fb22 2b3e 2e79 07c1 859c f6bc 4317 b4be
00000050: c16c b6be d8fd 8d40 4c60 6b40 aaca 1341
00000060: 15b6 0ac1 47a5 393f 5a03 b9c0 bbf8 b8bf
00000070: 5032 9d40 4b19 6141 d122 5440 2e50 5040
00000080: bd9b d240 6908 0dc0 e789 d5bf d991 a03d
00000090: cfa2 fe3f c969 dcc0 faba 11c1 6168 6240
000000a0: 2a7b 15c1 93af dcc0 7fb1 df40 91a5 02bd
000000b0: 894c 70be 102a d4c0 a2e4 2e3f ff03 243f
000000c0: 64a1 f8c0 3e56 e340 4323 cebf 2343 75bf
000000d0: a666 30c0 b66b 0b40 5a93 dd40 1974 0e40
000000e0: ddf6 a93f 3954 9740 bcf8 34c0 7373 04c0
000000f0: 1458 b83f 5cfc e7be 7f82 6540 cec2 93c0
00000100: 82b9 00c1 8d83 1141 faa1 d9c0 93e8 9f3b
00000110: 2d74 c9c0 e8a8 8e40 de4c 0b41 af50 81c0
00000120: 23a3 2440 6437 3cbf 1dc9 59be be99 053f
00000130: 2240 cfc0 d0ff d8be d7c7 b33f 2adc 0040
00000140: 04e5 8f40 8445 fa3f d34a 50c1 9904 22c0
00000150: d893 383f 6d47 94bf f19c 4abf a5d6 86bf
00000160: e4e3 c0c0 4e34 0ac1 52b1 e1c0 00ea 9b40
00000170: 91bd 2841 f31d 26c1 f04d 1241 fe31 cf40
00000180: c9e9 7cbe d84d 2b41 ee29 2e40 74c3 2ac1
00000190: 3ac7 c13f e482 92c0 9929 53c0 9571 633e
000001a0: c1bc b140 7fc5 00c1 0e83 04c0 174c 98c0
000001b0: 77fa e1c0 bf51 a0c0 eb3c 19c1 54cf c6bf
000001c0: 46fa e53f 5565 36c1 38d9 0541 e1cb 14c1
000001d0: 4ebb 1fc0 3da5 13c1 cfdd 3ac1 6215 3a40
000001e0: f44d 033e 0a97 d840 d0e8 fdc0 4a14 53c1
000001f0: 1e73 34be bd30 1ac0 1b9c 97bf 052e dfc0
00000200: 94dd 77bf 45f0 8440 6750 c040 b799 5440
00000210: eb7d 46c0 63a6 b8bf 3eed 673f 5741 b53e
00000220: 0434 0141 4c0a 8ec0 8aae e23f 31d0 c4c0
00000230: 7b6c 8f40 8743 38c1 766a f93e c682 4fc0
00000240: 1ed0 3ec1 3f20 08bf 4949 b040 ca79 6e40
00000250: 3750 1840 2651 a140 3bc3 e23f c6e7 d93f
00000260: 75c4 ac40 b5d7 9740 8854 b3be 0a0b 2240
00000270: 13c2 c53f a903 123f 6b00 16be 5a23 bb40
00000280: 2487 4840 eab6 8140 0908 1ec1 d4e7 08c1
00000290: 5141 393f 9eb1 66c0 3e69 bb40 1d1e 4dc1
000002a0: a8b3 5140 075d 20c1 64b2 27c0 775e d9bf
000002b0: 58fd aac0 1602 ef3e a537 8d3e 340f 18c0
000002c0: 62e6 d6be cd25 97c0 0da5 bbbf cb16 2941
000002d0: 7e55 0641 4a7e 7040 fd5e 1641 5c7a 3341
000002e0: a8f9 10c0 3b84 b4c0 8281 e13f f335 b4bb
000002f0: 96e5 03c1 f7df 1941 7ebe bfc0 5af9 cdbe
00000300: 9c00 cac0 da5f 973f 82c8 5441 0fb9 2ac0
00000310: c465 0a3f da07 2641 a8ea b9c0 371a 97c0
00000320: 7950 45be 7398 34bc 44c3 ed40 cf47 8340
00000330: b333 bd3f 9c56 2a41 0f4e 3240 0958 8c40
00000340: 9cde 1340 72be a0bf 6c66 7940 4c1e e9c0
00000350: c573 513f bad2 83bf 917e 8840 7c41 8ec0
00000360: 021b 963f 8ee1 86c0 9749 f2c0 7204 1441
00000370: 63b5 b340 d670 0041 ca03 2641 d1af 5140
00000380: 66bf 06c1 247a 3ac0 c18c 6141 7856 1941
00000390: b043 ee40 0326 b1c0 d050 a03f ea87 f83e
000003a0: 419f b0c0 4e37 8d3d 7586 f940 ddb2 5640
000003b0: 88df 2cc0 2602 50c0 0495 e640 3cd6 cdc0
000003c0: 83ea c240 5e33 d640 a4f4 b6be 7a90 c0c0
000003d0: e8da 3341 eedd 37c0 d652 0ac0 2f70 aa3f
000003e0: 1562 2340 d1dd 9940 e373 ee40 2342 013f
000003f0: c45b c740 684d a33f fd91 21c1 f388 72bf
5.522656 -0.40414685 1.0275041 0.98476166 1.101509 2.3091447 -2.274313 1.5836388
-4.3008623 5.865692 6.6249523 1.4800949 -2.1587665 2.5855298 -9.491817 2.7061222
0.16712563 -8.467085 -0.030103931 -0.35173997 -0.35629848 4.437237 3.6777525 9.236979
-8.669454 0.7251782 -5.781659 -1.4450907 4.9123917 14.068675 3.314625 3.2548938
6.581511 -2.2036383 -1.668271 0.07840318 1.9893435 -6.887913 -9.108149 3.5376208
-9.342569 -6.8964324 6.990417 -0.031896178 -0.23466696 -6.6301346 0.68317616 0.640686
-7.769701 7.1042776 -1.6104511 -0.9580557 -2.7562652 2.1784492 6.9242373 2.225836
1.3278462 4.729031 -2.8276815 -2.0695465 1.4401879 -0.45309722 3.5860898 -4.61753
-8.04529 9.094617 -6.8010225 0.00488002 -6.2954316 4.4581184 8.706266 -4.041099
2.572457 -0.7352202 -0.21268125 0.52187717 -6.4765787 -0.4238267 1.4045361 2.0134377
4.496706 1.9552464 -13.018268 -2.5315306 0.7210059 -1.1584297 -0.79145724 -1.0534254
-6.0278187 -8.63777 -7.0528955 4.8723145 10.546281 -10.382312 9.144028 6.4748526
-0.24698557 10.706505 2.7213092 -10.672718 1.5138924 -4.578478 -3.299414 0.22211297
5.5542912 -8.048217 -2.070499 -4.7592883 -7.0618243 -5.009979 -9.577373 -1.5532022
1.7967002 -11.399739 8.365532 -9.299775 -2.4958072 -9.227841 -11.6791525 2.907555
0.12822706 6.7684374 -7.9346695 -13.192453 -0.17622039 -2.4092247 -1.1844515 -6.9743676
-0.96822476 4.15433 6.0098147 3.321882 -3.1014354 -1.4425777 0.9059638 0.35401413
8.075199 -4.438757 1.7709515 -6.150414 4.4819922 -11.516486 0.48714036 -3.2423568
-11.92581 -0.53174204 5.508946 3.7261834 2.379896 5.041156 1.771583 1.7023857
5.3989816 4.7450814 -0.3502543 2.5319238 1.5449852 0.57036835 -0.14648597 5.8480654
3.1332483 4.0535784 -9.876962 -8.556599 0.7236529 -3.604591 5.856597 -12.819852
3.2765903 -10.022712 -2.620263 -1.6981953 -5.3434258 0.4668128 0.27581516 -2.375928
-0.41972643 -4.7233644 -1.4659745 10.568065 8.395872 3.757708 9.3981905 11.217373
-2.2652378 -5.6411414 1.7617648 -0.0054995953 -8.243551 9.617179 -5.9920034 -0.40229303
-6.3125744 1.1826127 13.298952 -2.667545 0.5406153 10.376917 -5.8098946 -4.72195
-0.19268979 -0.011022675 7.430086 4.1025157 1.4781402 10.646145 2.7860143 4.3857465
2.310462 -1.2558119 3.8968763 -7.2849483 0.81817275 -1.0298684 4.26545 -4.4454937
1.1726992 -4.2150335 -7.571483 9.251085 5.615892 8.027548 10.375925 3.276356
-8.421728 -2.9137049 14.096864 9.583611 7.4457626 -5.53589 1.2524662 0.48541194
-5.51944 0.06895314 7.797663 3.354667 -2.7011433 -3.2501311 7.2056904 -6.4324017
6.091127 6.6937704 -0.3573352 -6.0176363 11.240944 -2.8729205 -2.161306 1.3315486
2.5528615 4.808327 7.4516463 0.5049154 6.229952 1.2757998 -10.098142 -0.9474022

bn1.running_var f4 [256]
00000000: 8eba 2243 4b8d 9d40 74bc 0741 b394 8f40
00000010: f1e3 9142 3128 5b41 0328 2c42 850d 8242
00000020: 556b 7042 da4a 5242 7a31 4642 5f64 7642
00000030: 8003 9042 dac9 8041 fdde ea42 833c 5942
00000040: cd0a d13f 90cd 4d42 13c7 3144 b559 1142
00000050: 64c3 4740 1fa3 2243 2ac7 db41 9630 0342
00000060: 5101 da41 5bcb 2640 8011 3043 245e dd41
00000070: aca5 2142 f831 0d42 c7a0 1942 e924 8342
00000080: fee6 b542 c248 0043 2a8e 3f42 bbc8 b240
00000090: 4e36 da41 2988 4742 81cf 9542 e3c1 a042
000000a0: 0ed6 c743 f7bb 9142 8c61 5f42 5634 4040
000000b0: 81b4 3344 2d9a c841 105f 1543 5f23 dc42
000000c0: 972e 6342 d27f 3043 a3e6 2b43 7660 7b43
000000d0: e057 6842 4671 0643 5020 8a41 ae8f b142
000000e0: 3cf0 bc40 0eac 1342 e4e3 b841 9b90 1143
000000f0: 8471 d341 ef91 cf42 5fca b941 2fe0 af42
00000100: ecbc c341 9d60 3042 40c2 bd42 cfdf 0443
00000110: 2194 6f42 c1eb 5f42 c270 8f42 6f5f bc42
00000120: ae09 dc41 cf5d 2943 e993 1641 1060 8741
00000130: 9188 2143 151b 4740 72ee 0740 3f61 5f41
00000140: 53ec 3e42 16fc 8e42 0ecd 2542 6795 3444
00000150: f9fc 5f42 f66b 8141 7e9a 8641 d5d7 8a42
00000160: d6be 0243 696a 2443 a335 2942 3ff3 f841
00000170: b6e2 2a42 db51 0a42 313a f541 0bb9 2842
00000180: c7a7 0443 0fe5 0644 7f34 9341 c8c5 2842
00000190: 6378 8e40 87db 2342 ebe0 2442 8839 ee41
000001a0: 9a0f ef41 8c8f 9442 f8ab 4642 d743 b142
000001b0: 32e9 b642 49a9 8a42 374c 9442 5ef9 3441
000001c0: c256 4542 989c 7942 299a 8242 c8c6 3043
000001d0: cefc c143 3465 3142 c847 0342 9826 2f43
000001e0: 043b 5f42 defb 5942 37e0 6b42 36a7 7342
000001f0: f6cb 9c42 fd91 b942 1354 5041 b974 a242
00000200: c538 7342 d6b8 3d41 e64a 1942 1d0c 9742
00000210: fac4 1043 1f37 9b42 4a37 d443 86ca ea41
00000220: 9fa7 2842 f737 a542 8381 7042 f1c5 9542
00000230: c548 cb42 5d46 e641 ff01 f742 c6ae 2443
00000240: 24bb 1d42 a43c 3042 37d9 4e42 74d2 7f42
00000250: 5fab d642 631d 0042 1c88 d142 a481 0a43
00000260: c173 7243 7a4b 5b42 853d 1b43 a420 bc40
00000270: 5633 b342 63d9 7742 f82a c641 6f99 8642
00000280: 02e5 b341 949d fe41 c4de 0542 96c1 8842
00000290: aad2 2542 db11 ea42 5227 5b42 86a8 f142
000002a0: 4cc5 0343 1224 4942 9718 b542 22f0 cd41
000002b0: cf5f 9e42 249e 2941 f3b4 4042 c5fb ad41
000002c0: 677e 2841 c79d 9443 fe6e cf42 53e1 7343
000002d0: 98c4 1b42 0e39 7842 70c1 3642 c29c 2842
000002e0: 27fc 9b42 a00f 3241 8da1 5641 6ee4 3644
000002f0: 1463 b842 2b38 a042 e1d0 4942 c3d7 3d44
00000300: 8e97 5642 4651 0f42 7640 da41 c618 4541
00000310: d90c b742 e0a4 fe42 1051 9042 6787 bd42
00000320: 288e 8f42 1ac0 0e42 07bc e842 038c 0a43
00000330: 0f71 8440 6b66 a342 e7d2 9842 bc8d 6842
00000340: 7c76 5e41 1fb8 d240 45e0 b542 daa8 aa42
00000350: bf4f 1e42 9b4d 2242 6507 d242 6723 8742
00000360: 422a 4042 3aee 6842 4316 1443 27fb a542
00000370: 6638 2243 8b65 6b42 a8a0 a142 08a6 2e43
00000380: 7473 3e43 2483 3042 d6bd cc43 c247 e441
00000390: 0934 3243 819d 2b42 6b67 e740 bbbc 4142
000003a0: c7a9 c542 e15c 1542 219d d242 4a4f 6043
000003b0: 3beb f243 45f2 ba41 b69e ae42 3095 7b43
000003c0: 18c7 c942 61c0 8642 bd45 a642 9a11 b042
000003d0: de63 1d42 99da f140 b1ac d443 1e2e 0f43
000003e0: 14b6 4241 8f64 a342 bb84 8142 4c8b cd42
000003f0: e417 a542 a764 7e42 80a5 8542 bebb 2941
162.72873 4.9234977 8.483509 4.4869018 72.9452 13.697312 43.039074 65.026405
60.104816 52.573097 49.548317 61.59802 72.006836 16.09856 117.435524 54.309093
1.6331421 51.450745 711.11053 36.337605 3.1213007 162.63719 27.472248 32.797447
27.250643 2.6061618 176.06836 27.670967 40.41179 35.298798 38.40701 65.57209
90.95116 128.28421 47.888832 5.587003 27.276516 49.88297 74.90528 80.378685
399.6723 72.86712 55.84526 3.0031943 718.8204 25.075281 149.37134 110.069084
56.795498 176.4993 171.90092 251.3768 58.085815 134.44247 17.265778 88.780624
5.9043255 36.918022 23.111275 145.56487 26.430428 103.78503 23.223814 87.93786
24.467247 44.09435 94.879395 132.87425 59.894657 55.98023 71.72023 94.18639
27.504726 169.36644 9.411111 16.921906 161.53346 3.111028 2.1239285 13.961242
47.730785 71.492355 41.45025 722.3344 55.997044 16.177715 16.825436 69.42155
130.74545 164.41566 42.30238 31.118773 42.721397 34.579937 30.653414 42.180706
132.65538 539.57904 18.400633 42.193146 4.4521956 40.964382 41.219646 29.778091
29.882618 74.280365 49.66794 88.6325 91.45546 69.330635 74.14886 11.310881
49.334724 62.402924 65.301094 176.77649 387.97504 44.34883 32.8201 175.15076
55.807632 54.495964 58.96896 60.913292 78.39836 92.78513 13.020526 81.227974
60.80544 11.857626 38.323143 75.52366 144.76944 77.60766 424.43195 29.348888
42.163692 82.60931 60.126476 74.886604 101.64213 28.784357 123.5039 164.68271
39.432755 44.05922 51.712124 63.95552 107.33471 32.028698 104.76584 138.50641
242.45216 54.823708 155.24031 5.8789845 89.600266 61.96229 24.77098 67.299675
22.48682 31.826942 33.467545 68.3781 41.455727 117.034874 54.7884 120.82915
131.77069 50.285225 90.54803 25.742252 79.187126 10.601109 48.17671 21.747934
10.53086 297.23264 103.71678 243.88017 38.941986 62.055717 45.688904 42.153084
77.992485 11.128815 13.414441 731.5692 92.19351 80.1097 50.453983 759.3713
53.648003 35.82937 27.281475 12.318548 91.52509 127.32202 72.158325 94.76446
71.77765 35.6876 116.36724 138.54692 4.138801 81.700035 76.41192 58.138412
13.903927 6.5849757 90.93803 85.32979 39.577877 40.575787 105.01444 67.569145
48.041267 58.232643 148.08696 82.99053 162.2203 58.849163 80.81378 174.64856
190.45099 44.128067 409.4831 28.535038 178.20326 42.903812 7.2313743 48.434307
98.8316 37.340702 105.30689 224.30972 485.83774 23.368296 87.30998 251.58276
100.888855 67.37574 83.13621 88.03438 39.347527 7.5579343 425.34915 143.18015
12.169453 81.6964 64.75924 102.772064 82.54666 63.598293 66.82324 10.6083355

fc2.weight f4 [128, 258]
00000000: d893 dcbd 6b0b 823d 14c6 4bbc 97bc 09be
00000010: 7ba0 bcbd 04e9 16bd b0ba 58bd 1656 fdbd
00000020: d62a eebd 1d6b 8a3d 5219 08be 0e06 d2bd
00000030: f5ac fcbd bd5b 22be d5c5 68bd eede 16be
00000040: 8663 f1bc cabf e9bd b87f 38be 46d7 fdbd
00000050: 6207 a63d 16c8 05be 78cb e93c 0435 cd3d
00000060: fc4c 18bd 4a3c 843d a51b 233c a018 67be
00000070: f06f c1bd c950 65bd a914 583d 688c 443d
00000080: 2294 cabd d228 0dbd 1c5a 013d 7398 a5bd
00000090: e316 8e3d 3c88 27be fcd6 773d d48f 82bd
000000a0: 1bca 18be 39b0 64bd 8128 97bc 381f 17bd
000000b0: 0636 1dbe c10d 04be 861d 30be 00c9 c83c
000000c0: 73e2 b83d 06c0 963d c86c 0a3d caad 20bb
000000d0: 3150 0bbd af91 fcbd c68c ee3b e5d7 0cbe
000000e0: c1e5 81bd e704 b7bd eb21 1dbe 3637 10be
000000f0: 8f1c dcbd 71f4 e4bd e8ba 46be de7e b7bd
00000100: 50c7 91bd c232 aa3c c803 c6bd 58bb 57bd
00000110: 2987 41bb e4fa f1bc 5470 a9bd 770e 413d
00000120: a89c bcbd e452 1dbe 150f 163d ef8e e23c
00000130: c6da 17be 40c1 fdbd 69f8 be3c 7eb2 0c3d
00000140: 340e 16be 131b 47be b1bd dfbd 6cc4 0dbc
00000150: 17cb 01be 6645 13be a734 45bd d1b1 37bd
00000160: 07ec 55bd 4a4f c7bd 8e90 ed3c a17a b8bd
00000170: d4c5 4fbd 1a61 2fbe 4eff efbd b043 adbb
00000180: caa5 39bd 9352 28bd 8cf3 b3bd ae94 39be
00000190: e428 2d3a e6ba 10be 11c9 65bd e6bf 85bc
000001a0: 7898 583d 85a9 cbbd 1e9c 84bc 7f72 24be
000001b0: 99ac 53bc 2eb5 e9bd e67d b5bd 5e6e 6fba
000001c0: 1080 9ebd 9966 8abd 904a d6bc 1548 073d
000001d0: 322b c7bd 10e0 acbd c264 013c c978 60be
000001e0: e16c d9bd 0104 96bd ff49 a8bc 37ce 16be
000001f0: 00c4 bcbd fa17 bbbd 6ce3 28be 7b8b 343c
00000200: 4735 6e3c 5944 35be 4da9 c23d 7ab9 37be
00000210: 295e a23a 0272 9dbc 9bde 1dbe a17d af3c
00000220: 7f2b 6fbc b62c 873d 492c d2bd ddcd 57bb
00000230: f931 3abd 5457 acbc 96d0 12bd 3a2e 4cbd
00000240: d739 abbc 5c72 5c3d cf69 ce38 0007 f0bd
00000250: 8f5e 6c3c 408e c7bc 6946 7abc da81 803d
00000260: eee9 94bd 28a6 debc d566 1d3d 7aa2 73be
00000270: 57cd ebbd ec88 b8bc a2ac dabd 8fcd afbd
00000280: ae32 253d 746d 99bd f2c5 2abd 1eba 52be
00000290: 0668 e4bd b993 71bd 7375 cfbd 4b28 cd3b
000002a0: 9854 8cbd b179 263c eb96 193c c9d6 a4bd
000002b0: c733 4ebe 1d95 383b 22a6 21bd 6a6c 02be
000002c0: 7d27 27be cde1 8e3d a260 25bd 8173 7b3b
000002d0: e902 cc3d 7f50 42bb 0f4d e1bc be09 103d
000002e0: 5be0 a9bd 23b1 bbbd 0394 e5bd 2ead b1bd
000002f0: bf2b 0fbc e5e4 f03c 559d 90bd 30c4 e23b
00000300: 15a1 0a3d 74ea e3bc cf3a 21bd 3aed fabd
00000310: bd13 f0bc cee9 07bd 4ec7 00be a37a 02be
00000320: 9e85 fabd 8d40 0abd 4834 40bd 29a6 9ebd
00000330: 248c b2bd 1c19 c1bd 7959 b7bc 8a43 27be
00000340: bb27 493c 9724 c63c f837 a5bd 353c 28bd
00000350: 1ee0 b9bd 9bbc 84be d70a 583c 0b17 dabd
00000360: 3e95 0cbe 8f17 7ebd 9b60 723c e038 d4bd
00000370: 13f1 fabd 31cc ffbc 2823 25bd 243d 26be
00000380: b552 ecbd 5401 843d 4132 50be a184 70bd
00000390: 95e6 4dbb e771 b0bd 18c7 90bd eeda 07be
000003a0: 9711 a43c e325 b43b 6825 7d3d b313 4c3a
000003b0: 52b3 9bbc f55e 46be 82c1 e0bd ab7a 563c
000003c0: 84a0 a5bd f417 953d e2be 9fbd 6223 65bd
000003d0: 7e24 7ebd 5fba 85bd 7c06 23be 0f00 ecbc
000003e0: 0062 d7bd 1475 893d 4e7f a8bc 2c3f 25be
000003f0: 1b4e 3bbd 3c83 95bc 3922 06be 678c 5ebb
-0.107703865 0.06349834 -0.012437362 -0.13450848 -0.09210297 -0.036843315 -0.052912414 -0.12369935
-0.11629264 0.067587115 -0.13290909 -0.10255061 -0.123376764 -0.15855308 -0.056829292 -0.14733478
-0.029466402 -0.11413534 -0.18017471 -0.12394576 0.08106877 -0.13064608 0.028539404 0.100198776
-0.037182793 0.06456812 0.009955321 -0.22567987 -0.094451785 -0.055985246 0.052754078 0.047985464
-0.09891535 -0.034462757 0.031580076 -0.08085718 0.06937959 -0.16360563 0.06050776 -0.06375089
-0.14920847 -0.05583212 -0.018451931 -0.036895007 -0.1535264 -0.12895872 -0.17198762 0.024509907
0.09027567 0.07360844 0.033795148 -0.002451765 -0.034012023 -0.123324744 0.007279965 -0.13754232
-0.0634265 -0.08936482 -0.1534497 -0.14083561 -0.107476346 -0.11179436 -0.19407237 -0.08959745
-0.07118094 0.020776156 -0.0966869 -0.0526689 -0.0029530025 -0.02953858 -0.08273378 0.047132935
-0.09209567 -0.15363652 0.036635477 0.027656047 -0.14829549 -0.12390375 0.02331181 0.03434991
-0.14653856 -0.19443922 -0.10924853 -0.008652788 -0.12675129 -0.14381942 -0.048145916 -0.044847313
-0.052227046 -0.0973192 0.028999593 -0.090077646 -0.050725773 -0.17126885 -0.117186174 -0.00528761
-0.045324124 -0.041094374 -0.08786687 -0.18123123 0.00066055194 -0.14133796 -0.056099955 -0.016326856
0.05287978 -0.09944443 -0.016187724 -0.16059302 -0.012919568 -0.114115104 -0.08861904 -0.00091335725
-0.0773927 -0.0675785 -0.026158601 0.033027727 -0.09725036 -0.08441174 0.007897558 -0.21921076
-0.1061647 -0.073249824 -0.020543097 -0.14727102 -0.092170715 -0.091354325 -0.16493005 0.011019583
0.0145390695 -0.17701854 0.09504948 -0.17941847 0.0012387681 -0.019219402 -0.15416948 0.02142221
-0.014597773 0.06600325 -0.10262353 -0.00329291 -0.045457814 -0.021037735 -0.035843454 -0.049848773
-0.020901604 0.05382 9.842554e-05 -0.11720085 0.014426841 -0.024359822 -0.015275576 0.06274767
-0.07271181 -0.027178839 0.038428146 -0.23792449 -0.11513775 -0.022526227 -0.10677458 -0.08584129
0.040331535 -0.0749158 -0.04169268 -0.2057881 -0.111526534 -0.05897877 -0.101298235 0.006260907
-0.068520725 0.010160849 0.009374361 -0.080487795 -0.20136939 0.002816505 -0.039465077 -0.12736669
-0.16323657 0.06976662 -0.04037536 0.0038368406 0.099614926 -0.002965003 -0.027502565 0.03516554
-0.082947455 -0.091646455 -0.112098716 -0.086756095 -0.008738457 0.02940602 -0.07061259 0.00692036
0.033845026 -0.027821757 -0.039362725 -0.122522786 -0.029306287 -0.033181958 -0.12576029 -0.12742095
-0.12232517 -0.033752967 -0.04692486 -0.07746536 -0.08718136 -0.09428617 -0.022381531 -0.16334358
0.012277539 0.02418737 -0.08067316 -0.041073043 -0.0907595 -0.25925145 0.013186178 -0.10648926
-0.13728806 -0.062034186 0.01479354 -0.103624105 -0.122530125 -0.031225296 -0.04031673 -0.16234261
-0.115392126 0.06445566 -0.2033167 -0.058720235 -0.0031417955 -0.08615475 -0.07069224 -0.13267109
0.020027919 0.0054976805 0.06180325 0.0007784918 -0.019006405 -0.1937216 -0.10974409 0.01309077
-0.080872566 0.07279959 -0.0780008 -0.055941947 -0.06204652 -0.06529688 -0.15920442 -0.028808622
-0.10516739 0.06711784 -0.020568516 -0.1613738 -0.045728784 -0.018251054 -0.13098992 -0.0033958198

fc2.bias f4 [128]
00000000: 7aaf 98bd 5e5b 67bc 4abe b5bd 818b b83d
00000010: 5063 1dbd 968a 05bd 79a6 e2bd d3cb 10bd
00000020: 6fcb f93c 6e97 d0bd c0df 22bd 0b07 cc3d
00000030: 5272 63bd ac77 ae3a 6e39 97bd f45b e4be
00000040: 58ee a1bd 6158 d93d 7428 94bd dbc6 03be
00000050: 56b2 d6bd a055 9cbd 3436 293d 881a fdbd
00000060: fcbe 5abc a9f5 413e 979a 0aba e0e1 babd
00000070: d787 d1bc 132e 47bd 8a9b 8dbd fb08 e1bd
00000080: c527 853a 1027 1fbd 907d 863b 9d3c c2bd
00000090: 2106 afbd 6749 8d3c a1cb a7bd 724e 40bc
000000a0: db56 093e 4a7c efbc 43fc 6eba 3dc9 95bd
000000b0: efdd afbd 7995 b3bd c59a cfbd d05a 2abd
000000c0: cf75 963e e891 d8bd 6e3c 78bd 1444 9dbd
000000d0: 52f7 94bd b151 9abc a015 86bd 5272 333d
000000e0: 348f 37bc cf35 a9bd 96fa 903d 239b 85be
000000f0: 29fb 4dbd 8aa4 8fbd f32b 01bd 7a3d 13bd
00000100: 2c07 54be fce9 18bc 30bf 3f3e 289d 3cbc
00000110: 7d53 dd3c 59f8 01be 0fb8 07be 3d5e f4bd
00000120: 724d 7fbd b0ac c7bc 9260 b4bd dd47 b9bd
00000130: ec15 62bd b420 a2bd 7eb8 b9bc bc5a 56bd
00000140: b2ca 78bd 1410 d03c 7b6f bfbd d0d9 643d
00000150: bb5d aebb efe9 52bd 81ee 1ebd 7f7e 72bc
00000160: eb53 eabc 4089 17bd 4360 953d a266 873e
00000170: a62f 33bd 62d8 b5bd 4877 debd db7b cfbd
00000180: cee7 61bd 9bef b1bd 8545 b3bd 2a77 a7bd
00000190: 092b edbd 2438 c03c 15a7 a3bd ab2a fcbc
000001a0: 19da 723d 6bb0 76be c50c e4bd d360 b23e
000001b0: 5606 4abe 1a46 06bc 6b24 9d3c 36f5 7abd
000001c0: e877 34ba 40c5 343e 72ae 88bd 2d5a 9cbd
000001d0: a287 e8bd e219 993d a65a 9b3d c39a a6bd
000001e0: b130 cfbd c9db a0bd 1824 adbd 4698 81bd
000001f0: 40fa e0bd d84f 14bd f43e a13c 8cd2 3ebc
-0.074553445 -0.014120905 -0.088741854 0.09010983 -0.03842479 -0.03260287 -0.110669084 -0.035350632
0.030492513 -0.10185133 -0.039764166 0.09962281 -0.055528946 0.0013310811 -0.07384001 -0.44601405
-0.079067886 0.1061256 -0.07234278 -0.12868826 -0.10483234 -0.07633519 0.041311458 -0.12358576
-0.013351198 0.18941368 -0.0005287318 -0.091251135 -0.025577469 -0.048627924 -0.06914432 -0.10988041
0.0010158947 -0.038855612 0.0041043237 -0.09484217 -0.08546091 0.017246915 -0.08193136 -0.011737453
0.13412039 -0.02923407 -0.00091165694 -0.07313774 -0.08587252 -0.08768744 -0.10136942 -0.04159051
0.29386756 -0.105747044 -0.060604505 -0.076790005 -0.07273735 -0.018837782 -0.065470934 0.043810196
-0.011203576 -0.08262216 0.070790455 -0.26094922 -0.050288353 -0.07013805 -0.031536054 -0.0359473
-0.20705861 -0.00933313 0.18725276 -0.011512078 0.02701735 -0.12692393 -0.13253807 -0.11932037
-0.062329717 -0.024374336 -0.08807482 -0.0904691 -0.055196688 -0.07916394 -0.02267098 -0.052332625
-0.06074018 0.025398292 -0.09347435 0.055871785 -0.005321232 -0.051492628 -0.038801674 -0.014800667
-0.028604468 -0.036996126 0.07293751 0.2644549 -0.043746613 -0.08879162 -0.10862595 -0.101310454
-0.055152707 -0.08688279 -0.08753494 -0.081770256 -0.11580474 0.02346427 -0.07990853 -0.030782064
0.059290025 -0.24090736 -0.11135248 0.34839496 -0.1972898 -0.008195424 0.019182405 -0.061269008
-0.00068843225 0.1765337 -0.06673898 -0.07634387 -0.11353995 0.0747564 0.07585649 -0.08134987
-0.10116709 -0.07854421 -0.0845415 -0.06327872 -0.109852314 -0.036208957 0.019683339 -0.011646878

fc3.weight f4 [1, 128]
00000000: 88bd 13bd 2f27 5cbd 3cb4 94bc 7be0 2abd
00000010: 97f8 f7bb db2f ef3a 6c02 86bc 0806 f8bc
00000020: 833e 7bbd 0292 a73b 1d30 37bc 5f59 603d
00000030: 5b4c f83a b5fe 9fbc 3662 dcbc e995 993d
00000040: b26b 06bd 61ec 643c 9e46 0c3c 86c9 b1bd
00000050: ded8 20bd 3cc9 80bb 9c35 bcbd 0da9 d9bd
00000060: 17b7 9b3c bd82 0a3d df3c 053e ca11 6ab8
00000070: 34ce 993c c404 fc3d a3a5 963a 48ae 13be
00000080: 2585 6a3a 6716 10bc 605d 3e3b a61b 9dbd
00000090: a580 023b 0ba6 a5bc 62f5 c83b 7bb1 bcbd
000000a0: e7f0 8f3d ebcb 253c cf92 fa3d 81a5 2ebb
000000b0: 0060 903b 5ff1 773d 5702 febb f52c 74ba
000000c0: 95cd ec3c 0dd4 c33c 3175 3abc c627 72b9
000000d0: 1823 bf3d 63bb c33c a607 c5bc d6e8 413d
000000e0: 4bd6 cc3b 7a46 e3bc 5ebc 013e 098a bdbd
000000f0: 46d8 2abd 21b4 afbc abf2 093c 62be 953b
00000100: 7962 f6bb b57f 21bc b573 053d 77e4 7b3c
00000110: dfc1 d4bc 0cb9 1f3b 6d35 fb3b 4108 76bc
00000120: 27d0 123c 5c6f acbc 5c68 54bd 6309 4ebc
00000130: 0cfe 29bb 1872 ac3c 4cec 643b 0c7e 293c
00000140: 83a5 65bd 09a3 c53d d041 90bc bc9e 25bd
00000150: fa46 20bd b672 993d 7e8b 24bb 16b2 c6bb
00000160: 6040 72bc 8fe6 88bc 675e f13c efef 693d
00000170: ddf6 a4bb aa1f 843a 6a55 0dbe 9d9a b93d
00000180: c057 46bc 8921 b6bc e783 333c 8fbc 1fbc
00000190: 66d1 00bc db9f 103d 6419 96ba 19dd c4bc
000001a0: 21dc b8bd 7224 eebc 4f3e 0e3a 5786 5d3d
000001b0: 52cb 2abd 99b0 c53b 5250 a8bc 9c33 8bbc
000001c0: dd47 9abb e318 8b3c 104b 343b c054 7f3c
000001d0: 6785 e03a b504 f8bc aca1 103d 867f 0ebc
000001e0: a78a f03c bfab babc 58bd f63b 9d2a 77bc
000001f0: 5b74 203a 4aea ca3c 0cc6 143d b8ed cb3c
-0.036069423 -0.053748306 -0.018152349 -0.041717988 -0.007567476 0.0018248515 -0.016358577 -0.030276313
-0.061338913 0.005113841 -0.011180905 0.05477273 0.0018943654 -0.019530633 -0.0269023 0.07499296
-0.03281755 0.013972373 0.008561758 -0.08681016 -0.03926932 -0.003930239 -0.09189913 -0.10627947
0.019008202 0.033816088 0.13011502 -5.5806515e-05 0.018775083 0.123055965 0.0011493455 -0.14421952
0.00089462317 -0.008794404 0.0029047355 -0.07671289 0.0019913104 -0.020220777 0.0061327675 -0.09213539
0.0702837 0.010119419 0.12235033 -0.002664894 0.0044059753 0.060532924 -0.007751744 -0.00093145604
0.028906623 0.023904825 -0.01138048 -0.00023093735 0.093328655 0.023893064 -0.024051499 0.04734119
0.0062511317 -0.027743567 0.12669513 -0.09254844 -0.04171016 -0.021448197 0.008419673 0.0045698145
-0.007519063 -0.009857108 0.03258105 0.0153742945 -0.025971351 0.002437177 0.007666281 -0.015016616
0.00896076 -0.021049194 -0.051857337 -0.01257548 -0.0025938777 0.021050498 0.0034930883 0.010344993
-0.056066047 0.09650237 -0.017609507 -0.040434584 -0.03913019 0.074925825 -0.0025107558 -0.00606371
-0.014785856 -0.016711501 0.02946396 0.057113584 -0.005034311 0.0010080237 -0.13802114 0.09062693
-0.012105882 -0.022232788 0.010956741 -0.009749546 -0.0078624245 0.0353087 -0.0011451659 -0.024031209
-0.09026361 -0.029070113 0.0005426155 0.054083195 -0.041697808 0.006033015 -0.020546112 -0.016992383
-0.004708274 0.01697964 0.002751056 0.015584171 0.0017129601 -0.030275682 0.035310432 -0.008697396
0.02936299 -0.022786973 0.0075298958 -0.015085843 0.0006120854 0.02476992 0.036321685 0.024893627
