checkpoint_actor_0.pth (torch_old, 163747 bytes, 10 tensors)

fc1.weight f4 [256, 24]
000000 20 e8 20 3e 2d f3 c1 3d 62 61 3a 3d 3d de c9 bd
       0.15713549 0.0947021 0.045503028 -0.09856842
000010 61 a5 26 3e a3 13 ff 3e cd 42 c4 bb 51 c1 c2 bc
       0.16274025 0.4981967 -0.0059894086 -0.023773821
000020 6f db 0b 3e ae 1f 91 3d 66 ca 83 bd 38 71 69 3e
       0.13657926 0.070861205 -0.06435089 0.22797096
000030 cb c5 78 3e 32 e9 93 3f 33 04 e7 bd 5d 08 59 3e
       0.24294202 1.155554 -0.11280098 0.21194597
000040 bb ed 92 3e a2 8d 71 3d 41 e6 45 3e 79 2b e9 3b
       0.28697 0.058972962 0.19326116 0.007115778
000050 d7 da 6a 3e ed 73 ba 3f 74 5f 3a 3e cb c9 15 bb
       0.22935043 1.4566628 0.18200475 -0.0022855874
000060 02 b3 96 3e 71 5c 60 be f3 28 31 bd 50 d8 81 be
       0.29433447 -0.21910264 -0.043251943 -0.25360346
000070 68 5b 32 3f 57 5b d5 bd 73 73 13 be ca 76 a0 be
       0.69670725 -0.10417812 -0.14399509 -0.3134063
000080 c0 42 79 3e 26 6c b9 be b4 8f 36 bc 44 8e 20 be
       0.2434187 -0.36215323 -0.01114266 -0.1567927
000090 1f 4f ad 3b c7 66 88 3d c0 76 89 bd 38 63 3c be
       0.005288973 0.06660228 -0.06712103 -0.18397224
0000a0 37 25 8d 3e 8b c4 f2 be 76 67 13 bd ef c9 1c 3e
       0.27567455 -0.47415575 -0.03598734 0.15311407
0000b0 dc 7e 37 bf 53 6f 0d ba 59 b3 d6 3c 7b 4a f2 3d
       -0.7167795 -0.0005395312 0.026208567 0.11830612
0000c0 ae 35 f3 3c 6c 99 10 3d 93 35 62 3d da ad 7c bc
       0.029688682 0.035302565 0.055226874 -0.015422309
0000d0 7a 79 43 3d f6 b3 cd bd c9 a7 95 3c 76 f7 19 3c
       0.04772327 -0.100440904 0.018268483 0.009397378
0000e0 f3 8e 3b 3c 26 0f c9 3d 00 41 e0 bc 84 b0 08 3d
       0.011447656 0.098173425 -0.027374744 0.033371463
0000f0 f9 a2 e7 3d 8a 96 53 bd b6 25 7d 3d a3 d8 6b 3d
       0.113103814 -0.051657237 0.061803542 0.057579648
000100 13 ad 25 3e 36 51 4d 3e 3b 58 e8 3d 25 81 d0 3b
       0.16179304 0.20050511 0.113449536 0.0063630515
000110 40 9e ca 3d 6d d5 e1 bc 4e a0 e0 3d 44 ea 20 3d
       0.09893465 -0.02756759 0.10968076 0.039285913
000120 d1 f8 d8 3d 31 82 f1 bc 79 18 20 3d be bd 54 3d
       0.10594333 -0.029481025 0.03908584 0.051938765
000130 f3 46 77 3f aa 42 e5 3e 5f 47 db bc 51 91 1b 3d
       0.96592635 0.44777423 -0.02676743 0.03798038
000140 9b a5 26 3e d1 69 9e 3d 21 d5 84 3a a5 62 3f 3d
       0.16274111 0.07735027 0.0010134318 0.046724934
000150 6b ef 64 bd 56 d0 89 3d 52 1a 29 3b d9 4a 87 3d
       -0.05589239 0.0672919 0.0025803042 0.06606073
000160 1c 4f 33 3e 69 5a 3f 3d cd 6e 6e bd 5b 73 94 3d
       0.17510647 0.04671708 -0.058211137 0.07248565
000170 4c 62 c5 bf b8 ba 5e be be e3 50 3d 2b b6 8b 3c
       -1.5420623 -0.21750915 0.050998442 0.017054638
000180 58 f6 75 bd 3b 00 ea 3e 12 69 b6 bd 7c fe c8 bd
       -0.060049385 0.457033 -0.08906759 -0.09814164
000190 5c a9 ce bb ef 07 e8 be dc 6d ea bc 1c 54 2f be
       -0.0063068103 -0.45318553 -0.028616838 -0.17121929
0001a0 2a a8 fa be f6 a5 97 3e cc a7 51 bc 6a b0 52 be
       -0.48956424 0.29618806 -0.012796354 -0.20575109
0001b0 8f 26 fd 3d 23 c9 08 bf 5f fe 87 bd 2f 39 2f be
       0.1236087 -0.5343191 -0.06640314 -0.17111658
0001c0 51 da 4b bf b1 a0 49 3e dd af 89 bc f6 bd 05 3e
       -0.7963 0.19690205 -0.016807491 0.13060746
0001d0 3d 20 35 3e fd e5 7f bf e0 65 aa bd f6 c4 ce 3d
       0.17688079 -0.9996031 -0.08320212 0.10096161
0001e0 a6 68 25 3e 5f 62 78 3e 28 92 05 bc 82 a4 0d 3e
       0.16153201 0.24256276 -0.008152522 0.13832286
0001f0 ab c1 0d bd 5b 78 a4 bf c4 37 51 bd c1 a9 e2 3d
       -0.034608524 -1.284923 -0.051078573 0.11067534
000200 ad 83 8d 3e 0c e9 b0 3e 42 7d 10 bd cc 56 51 37
       0.27639523 0.345528 -0.035275705 1.247758e-05
000210 49 df 6b 3e c3 f0 ee be cc db 1e bd d9 7d 9b bc
       0.23034395 -0.46668062 -0.038783833 -0.018980907
000220 23 9e c7 3e 1f e7 cd 3e 80 5f cb bd ef 6d 50 3d
       0.38987836 0.40215394 -0.099303246 0.05088609
000230 4f 91 0b 3f 28 6b 5c 3f 5c 72 f2 bd 0d 1a ea 3d
       0.545186 0.8610101 -0.118382186 0.1143075
000240 6c 31 0c be 3b ae 5e be 95 27 11 bc 04 92 1e 3d
       -0.13690728 -0.21746151 -0.008859535 0.03871347
000250 ec 81 1e 3f fe 2f 38 bf e3 94 62 3c dd a0 35 3d
       0.61916995 -0.7194823 0.013829443 0.044342864
000260 6d db 21 be d4 b0 56 bd 78 2a 1b bd 7f be 0e 3d
       -0.1580636 -0.05241473 -0.0378823 0.03484964
000270 42 ac ba 3d 6a 5b 0d be 59 a7 59 3d 2f db cf 3d
       0.09114887 -0.13804403 0.05313811 0.10149228
000280 3d 23 2c be a6 5e 3a 3e d8 0b 5a bd 5d 01 a2 bc
       -0.16810317 0.18200168 -0.05323395 -0.01977604
000290 dd 17 1a bf 06 de 80 3f 12 8f 20 3c da 03 04 3d
       -0.6019266 1.0067756 0.009799736 0.032230236
0002a0 ce e2 b2 bd 5d 2e c7 bd 73 c7 94 3d e7 a8 b3 bc
       -0.08734666 -0.0972564 0.072646044 -0.021931125
0002b0 98 5f f7 3e e1 7f 44 3f 4e 4e fd bc 8e 7c 97 3c
       0.4831512 0.7675763 -0.030921128 0.01849201
0002c0 62 72 32 3e 7b 9c 82 3d c0 ad 6b 3d 25 0e 86 3c
       0.17426446 0.063775025 0.057538748 0.016364167
0002d0 41 72 09 3f 9a 65 84 3e 90 69 71 3c 1e 19 92 bd
       0.5368996 0.25858766 0.014734641 -0.07133697
0002e0 e3 b1 02 3e 7d c0 5f be da c1 c4 bd 78 02 ef be
       0.12763171 -0.21850772 -0.09607287 -0.4668157
0002f0 5a f5 4e 3f 58 dc 91 be 8a 61 cb bd 61 ee d5 be
       0.80843127 -0.2848842 -0.099307135 -0.4178343
000300 b1 8e c3 3c c1 75 8f be 4a af bc 3d a2 90 26 3d
       0.023871752 -0.28019527 0.09213121 0.040665276
000310 89 15 da 3e d6 10 19 bf 3d 57 02 bc 76 67 42 3d
       0.42594555 -0.59791315 -0.00795537 0.04746195
000320 2f aa 90 3d 3f 68 50 be 97 c3 4d 3a b3 11 36 be
       0.0706371 -0.20352267 0.00078492746 -0.17780189
000330 71 f8 ce 3e 23 c8 3a bf d2 90 3d 3d fa e3 14 be
       0.4042392 -0.72961634 0.04628069 -0.14540091
000340 2e f0 19 be 03 d8 7f be b1 04 ed bc 1b 28 8a 3e
       -0.15033028 -0.24984746 -0.028932901 0.26983723
000350 e8 ca c2 3e fe 84 00 bf 10 53 e0 3c fa 73 45 3e
       0.3804543 -0.5020293 0.027383357 0.19282523
000360 bd 08 05 be bd 43 ee 3e a3 0c 8e 3d 18 81 90 be
       -0.12991615 0.46536055 0.06936004 -0.2822349
000370 fd f8 3e 3e a5 20 46 3f 70 a2 fa 3d 1f 49 92 be
       0.18649669 0.7739356 0.12238014 -0.28571412
000380 5d d9 23 3e c0 01 03 3f 54 91 0a 3d 76 06 14 bd
       0.16000886 0.51174545 0.033830002 -0.036138974
000390 4c bb a8 3e 53 d4 19 3f e5 cf c4 3c b5 b4 e4 bd
       0.32955396 0.60089606 0.024024913 -0.1116728
0003a0 19 ff 33 3e 61 fa 0d 3f 20 7a 1e be ba b6 d3 3e
       0.17577781 0.5546017 -0.15476274 0.41350347
0003b0 18 35 f2 3e 94 e1 b4 3e 59 52 2a be ed 88 ce 3e
       0.47306132 0.35328352 -0.16632976 0.4033884
0003c0 83 1b 20 be 5c d5 3e bf 96 71 22 3d 54 3d 96 3c
       -0.15635495 -0.7454431 0.039659105 0.01833979
0003d0 53 33 ac 3e 2a a4 1c be d3 b5 2e 3d bf 5f cb bd
       0.33632907 -0.15296999 0.04265387 -0.099303715
0003e0 2f d3 b3 bc c2 ac 1a bf f9 43 8d 3e 8c ee 5e 3c
       -0.021951286 -0.6041986 0.27590922 0.013606679
0003f0 f2 18 e1 3e 28 6f b4 be c0 60 6b 3e a2 b5 bf 3c
       0.43964344 -0.35241055 0.22986126 0.023402039

fc1.bias f4 [256]
000000 3f 58 fe 3d a3 49 3c 3e c4 7b 82 bd 99 e7 0d 3e
       0.12419175 0.18387465 -0.06371263 0.13857879
000010 73 a7 31 be 8d 0f d6 3d 17 2c b7 3d a0 1b f7 3d
       -0.17349033 0.10452185 0.08943956 0.12065816
000020 36 e6 06 3e 2b c3 15 3e f7 60 14 3e 8f 8d 2e be
       0.13173756 0.14625232 0.14490114 -0.17046188
000030 5c 07 2f 3d a4 07 38 be dc 2a 87 3d e9 ae a9 bd
       0.042731628 -0.17971665 0.06599972 -0.082853146
000040 fa 3d c4 bd 01 d8 ff ba 13 7e e3 3c b2 7e 02 be
       -0.095821336 -0.001951933 0.027770078 -0.12743643
000050 64 2e 3f be a1 ca 34 3e 07 39 53 3d 73 e0 49 3e
       -0.1867004 0.17655422 0.051568057 0.19714527
000060 2d d0 67 3d 54 9d 03 3e 57 bb 38 be 7d 74 1f 3a
       0.056595016 0.12852985 -0.18040214 0.0006082727
000070 f1 60 45 3e d4 41 63 bb ce b1 a8 bd ad f0 15 3d
       0.19275261 -0.0034676688 -0.082370386 0.03660648
000080 57 6e 15 be f4 79 06 be 67 9c e8 bd 26 c4 33 3d
       -0.14592873 -0.13132459 -0.113579564 0.043888234
000090 b0 84 2f be ee 8e db 3d 91 2b cc bd 5b bf 32 be
       -0.1714046 0.10720621 -0.09969247 -0.17455809
0000a0 d1 81 0b be 0f eb 64 3c a5 17 d4 3d 77 51 05 bd
       -0.1362374 0.013972058 0.10356072 -0.032548394
0000b0 62 f8 48 be c0 5d 65 ba d3 9b 41 3e 58 2f e4 bd
       -0.19626 -0.00087496266 0.18907098 -0.111418426
0000c0 ef 32 f6 3c 17 c8 65 3d 04 cd f7 bd 8a 56 1d be
       0.030053584 0.056099024 -0.120996505 -0.15365043
0000d0 e8 6f c9 3d 36 be d6 bd fe 5f 86 3c a6 65 34 3e
       0.098357975 -0.104854986 0.016403195 0.17616901
0000e0 ad 0b ad 3d 25 ae ea 3d dc 97 19 3e 61 0a c8 bd
       0.084494926 0.11458997 0.14999336 -0.097676046
0000f0 40 fc 82 3d 64 7f 22 3e 60 fe 17 be 91 f8 71 3d
       0.06395769 0.15868908 -0.1484313 0.059074942
000100 cd 7c 97 bd 00 3f 31 be ae 9f 29 be 63 14 ef 3c
       -0.07396851 -0.17309189 -0.16564819 0.029184526
000110 af d4 10 be 9b 98 e2 3d e3 74 bc bc 1d ba 3a bd
       -0.14143632 0.110642634 -0.023004955 -0.045587648
000120 dd ba 21 be a2 37 b8 3d 65 29 ef bd c5 51 16 3e
       -0.15793939 0.08994986 -0.11677817 0.1467963
000130 de 00 e0 bb 9f c0 16 be 4c 54 1f 3e c7 b3 1f 3e
       -0.006836041 -0.14721917 0.155595 0.15595923
000140 f3 ca 35 be 94 5a f1 bd b8 e8 b6 bd f4 16 11 be
       -0.177532 -0.117848545 -0.08931106 -0.14168912
000150 95 71 ad 3c 90 c0 18 be 78 ae db 3d 49 0f 2c be
       0.021172324 -0.14917207 0.10726637 -0.16802706
000160 dd 1e 3b be d8 af af 3b 46 ad 70 bb d3 ba 33 3d
       -0.18273492 0.0053615384 -0.0036724373 0.04387934
000170 c5 31 2c be 3f bb 39 3e ad 47 29 be d9 b2 1e 3e
       -0.1681586 0.18137835 -0.16531248 0.15497912
000180 47 54 3e 3e 35 a7 59 3d c4 7f 3d 3d f5 5c e4 bd
       0.18586837 0.053137977 0.046264425 -0.11150543
000190 62 42 81 3d cd c9 2c 3e bf ff 32 be 07 df 32 3e
       0.0631149 0.16873856 -0.17480372 0.1746789
0001a0 a2 30 c0 bd 88 d7 41 3d 70 e3 cc 3d 18 0d 23 3c
       -0.09384276 0.047324687 0.10004318 0.009951852
0001b0 42 01 f8 bd 82 16 f8 bd 2a 48 27 3c c2 f6 e5 bd
       -0.12109615 -0.12113668 0.010210076 -0.11228706
0001c0 8a 20 1f be 73 9e 44 be 5b df 4d 3e c2 8e 3e be
       -0.15539756 -0.19201069 0.20104735 -0.18609145
0001d0 dd 2b 11 be 23 3d ab 3d 68 e1 06 3e 13 b8 48 3e
       -0.14176889 0.0836127 0.13171923 0.19601469
0001e0 a8 83 a7 3d c7 44 3a 3e 30 e0 e9 bd a0 f1 91 3d
       0.08179408 0.18190299 -0.114197135 0.071261644
0001f0 19 d7 f3 3c cb 84 3d be e7 3b 39 3e 89 ff 8b 3d
       0.029765652 -0.18507688 0.18089257 0.06835849
000200 de 7d d0 3d 0a 9f e5 3d fa 3e 85 3d 7c 70 d9 bd
       0.10180257 0.11211975 0.065061525 -0.10617158
000210 7b d9 fe 3d 39 71 7a 3c ca 85 ce bd dc ec ed 3d
       0.12443825 0.015285783 -0.10084112 0.11617443
000220 93 df ed bb 13 ff 14 3d 09 21 0a 3e 1d b8 1f 3e
       -0.007259318 0.03637607 0.13489164 0.15597577
000230 4d 80 81 bc 44 68 d9 3b cb 22 5e 3c 4d 60 c9 3d
       -0.015808249 0.006634744 0.0135581 0.09832821
000240 57 fb 9d 3d 6a c8 03 3e 19 4c 7c bd 43 55 c3 bd
       0.07713955 0.1286942 -0.06159601 -0.09537747
000250 a4 5a 42 bd 72 52 f3 3d ea 76 29 3e 32 4d b2 bd
       -0.047449723 0.118809596 0.16549268 -0.0870613
000260 e9 4a d6 3d f3 d8 49 3e b7 39 14 3e e7 6e 8f 3c
       0.10463507 0.19711666 0.14475141 0.017508937
000270 66 98 1c bd 81 78 4c 3e 90 08 8d 3d 20 76 9c bd
       -0.038231276 0.19967844 0.06886399 -0.07639718
000280 dd 09 39 3d 14 a5 e9 bd e8 16 e1 bd a5 4e 31 3e
       0.045175422 -0.11408439 -0.10990697 0.17315157
000290 56 23 df 3d ec ac 11 be b7 f3 10 bd 99 82 aa bc
       0.10895412 -0.1422612 -0.035388675 -0.020814227
0002a0 2e 8f cf bd 06 ad e6 bd e9 4b f8 3d 22 06 08 3e
       -0.10134731 -0.1126347 0.12123854 0.1328359
0002b0 3a a1 93 bd b9 4a 49 be 94 af 1a 3e ff 5c 01 be
       -0.07208486 -0.1965741 0.1510604 -0.12633131
0002c0 f0 38 76 bc 49 80 d5 bd 98 81 a5 bd ec e8 08 3e
       -0.015028223 -0.10424859 -0.08081359 0.13370103
0002d0 91 1e 2a 3e fb 27 ca bd a8 59 1c 3e 0c 95 fa bd
       0.16613223 -0.09870907 0.15268576 -0.1223546
0002e0 69 1f 2c be 8e 6f 5f 3d 1c 8c 5a bc 7e 9c d7 3d
       -0.16808857 0.054549746 -0.013339069 0.105278954
0002f0 6e 59 16 3e d8 2d 9b bd db e3 27 3d b1 90 94 3d
       0.14682552 -0.075771034 0.040988784 0.0725416
000300 e1 63 fe 3b ed d0 00 bd b7 9f 66 3d 70 bf 2f be
       0.0077633713 -0.031449247 0.05630466 -0.17162871
000310 b1 74 79 bc d3 12 01 be 4b 4f 45 be d0 12 2e 3e
       -0.015225575 -0.12604837 -0.19268529 0.16999364
000320 64 62 09 be 2d 21 ac bd 3e be 2f 3e c6 36 fe bd
       -0.1341644 -0.08404765 0.17162415 -0.12412791
000330 ff 5f f2 bc b9 f7 2d 3e c8 2a b8 3d fb d9 dc 3d
       -0.02958679 0.1698903 0.08992535 0.10783764
000340 5c 45 86 3d c7 79 a7 bc b3 4f 21 3e 06 10 31 3e
       0.06556198 -0.02044381 0.15753059 0.17291269
000350 6d fd a5 bc 84 db 8b bd 6b 9d b2 bd 9d f2 b3 3c
       -0.020262444 -0.06828979 -0.08721431 0.021966273
000360 ed 3c 21 be 9b 02 37 be aa 3c 4d be ba 0a be 3d
       -0.15745898 -0.17872088 -0.20042673 0.0927939
000370 a1 a1 1e 3d eb ac b5 3d 9f 11 2c bc fa d8 f8 bd
       0.03872836 0.08870872 -0.010502248 -0.1215076
000380 86 a1 cb 3c 79 90 c4 bc d6 d1 79 bd 6c a0 02 3e
       0.024857294 -0.023994671 -0.06099113 0.12756509
000390 da 15 a3 bd 21 a3 c0 3c 8c 37 cd bd b3 c7 ba bb
       -0.07963152 0.023515286 -0.1002036 -0.0057000755
0003a0 3a 37 21 3c 47 d4 f8 bd f7 ba bb 3d e2 be 1b bd
       0.009839827 -0.12149864 0.0916652 -0.038023837
0003b0 e1 98 13 be 08 cc 0a 3e f5 96 c2 bd 9d 2e 40 3e
       -0.14413787 0.13554394 -0.09501449 0.18767782
0003c0 18 97 2f bd 9d 3f 3b 3e a9 7a 10 be 61 df 83 bd
       -0.042868704 0.18285985 -0.14109291 -0.064390905
0003d0 15 24 46 3e ea c0 f8 bc 6a d0 b3 bd ac 72 98 3d
       0.19349702 -0.030365426 -0.08779986 0.07443747
0003e0 fd 92 11 be 23 88 ff 3d 3e 51 90 bd 11 6d 32 3e
       -0.14216228 0.12477138 -0.07046746 0.17424418
0003f0 ed 48 11 3e 9e 12 32 3e 87 9d 17 bd 7d ab 09 bd
       0.14187975 0.17389914 -0.037015464 -0.03361081

bn1.weight f4 [256]
000000 9a b4 36 3f aa 41 19 3f fc db 75 3c 61 85 9e 3f
       0.71369326 0.5986582 0.015006062 1.2384454
000010 bf 37 64 3f 96 e7 12 3f 37 15 d2 3f d5 99 ab 3f
       0.8914756 0.5738462 1.6412724 1.3406321
000020 5d 39 81 3f 82 52 4a 3f 25 69 5e 3f 76 67 b3 3f
       1.0095631 0.79032147 0.8687919 1.4015949
000030 bd cf 2d 3f ff 0f 4f 3f 2e f8 56 bc 5e f7 66 3f
       0.6789511 0.80883783 -0.013120694 0.902212
000040 c4 95 b9 3b 84 48 82 3f bd df 63 3f 0f b3 b0 3f
       0.0056636054 1.017838 0.8901327 1.3804644
000050 20 a7 de 3a 62 08 44 3f 81 ac ee 3e d3 d1 34 3f
       0.0016987063 0.7657529 0.46615985 0.70632666
000060 6b 01 eb 3d 0d 4f 0d 3c aa 67 55 3f 81 d3 4c 3f
       0.1147488 0.008624804 0.83361304 0.8001023
000070 46 88 a7 3f 51 be f3 3e 21 bd 4e 3f 64 72 81 3e
       1.3088462 0.47606137 0.8075734 0.25282586
000080 73 5a 22 3f 22 3f 86 3f 67 83 1f 3f d7 5e 8a 3f
       0.63419265 1.0488017 0.6230988 1.0810193
000090 f9 9d 37 3f 25 ea 0b 3f bf 1c c9 3f 8b 10 22 3f
       0.7172542 0.5465415 1.5711898 0.6330649
0000a0 b3 16 01 3f 1d 9d 38 3f 98 f1 b6 3e 06 72 8e 3e
       0.5042526 0.72114736 0.35731196 0.27821368
0000b0 0d c2 a0 3e e1 98 25 3f 13 1a 14 3f ac ef b2 3f
       0.3139805 0.646864 0.57852286 1.3979392
0000c0 56 24 8e 3e aa 6b b5 3e df fe ab 3f 0a 49 fa bb
       0.27762097 0.35433704 1.3437155 -0.0076381015
0000d0 61 99 83 3f 3d 6a 8b 3f 72 b7 3b 3f a0 13 45 3f
       1.0281183 1.0891796 0.7332679 0.7698307
0000e0 dc e1 33 3f fe 71 9d 3e 9f c6 2f 3e 9e 5c 94 3f
       0.7026651 0.30751032 0.17165612 1.1590765
0000f0 1a b9 44 3f fa e4 4e 3f cb c5 ab 3e d9 c4 d6 3e
       0.7684494 0.8081814 0.33549342 0.41947058
000100 09 82 e8 3e 5c aa 3d 3f 16 5c ab 3e 7e 75 16 3f
       0.4541171 0.7408807 0.33468693 0.5877303
000110 c0 a8 0b 3f f3 78 c0 3e 4b f0 d5 bc 87 b9 aa 3d
       0.5455437 0.37592277 -0.026115557 0.08336168
000120 31 7f 53 3f 62 ed c1 3f 05 d0 7e 3d 69 44 38 3f
       0.82615954 1.5150568 0.0622101 0.71979386
000130 10 bb 51 3f 9a 13 6e 3f 93 ee 8e 3d 13 49 db 3e
       0.8192606 0.9299866 0.06979098 0.4282919
000140 40 4f 10 3f 15 6d f9 3e 74 3d 9d 3e 44 45 11 3f
       0.56370926 0.48716035 0.30710948 0.56746316
000150 e7 a9 0a 3f 49 79 0c 3f 49 d7 2f 3f 6a 97 07 3f
       0.541655 0.54872566 0.68687874 0.52965415
000160 82 60 93 3f 66 55 6a 3f 79 7c b9 3e 9e 2a c3 3f
       1.1513827 0.9153656 0.36227778 1.5247381
000170 f8 86 61 3f 9d 18 01 3f da 48 43 3f 40 06 0b 3f
       0.8809657 0.5042818 0.7628304 0.5430641
000180 b6 16 4b 3f 40 c9 52 3f f6 9f 51 3f c8 52 3d 3f
       0.7933153 0.82338333 0.81884706 0.7395444
000190 49 66 2c bc 67 62 c5 3e 58 85 cd 3e 4c 73 0c 3f
       -0.010522434 0.38551638 0.40140796 0.5486343
0001a0 d3 22 e9 3e fc 92 47 3f c5 d5 8b 3e 54 5d c7 3e
       0.4553438 0.77958655 0.2731153 0.3893839
0001b0 a4 79 92 3d 96 5d 7b 3f 9c fe d4 3f 19 1f b0 3e
       0.07152107 0.98189676 1.6640201 0.34398726
0001c0 77 5b 32 3f 71 2d ab 3f a5 b6 29 3f fd f5 e4 3e
       0.69670814 1.3373243 0.6629432 0.44718924
0001d0 9c 6a 97 3f 0f ef 0e 3f ec 95 a6 3e ea 6b 04 bf
       1.182941 0.55833524 0.32536256 -0.51727164
0001e0 5e 71 44 3f f2 9e e9 3e 5f a9 25 3f 86 5d e2 3e
       0.76735485 0.45629078 0.64711565 0.44211978
0001f0 03 69 44 3f 9f 16 ef 3e 5c 77 e6 3e a2 03 85 3f
       0.76722735 0.46696946 0.4501294 1.0391734
000200 f6 33 da 3e cc ba f1 3e 90 5d 01 3f 43 23 a3 3f
       0.42617768 0.47212827 0.5053339 1.2745136
000210 37 ec ec 3f f0 4d 81 3f ea 82 24 3f ae 3d 5e 3f
       1.8509587 1.010191 0.6426226 0.86812866
000220 8f 55 34 3f b0 1e cf 3e bf f6 e8 3e a5 9d c2 3f
       0.7044305 0.404531 0.45500752 1.5204359
000230 2b 91 4f 3f 70 b0 2d 3e a5 81 76 3f 09 29 9b 3f
       0.81080884 0.16961837 0.9629157 1.2121898
000240 c4 2d 2d 3f 97 fa 03 3f 72 f6 36 3f b6 c4 5a 3f
       0.6764796 0.51554245 0.71469796 0.8545641
000250 bf b0 14 3f 12 4f f6 3e 63 07 3e 3f 73 38 a5 3f
       0.58082193 0.481072 0.7423002 1.2907852
000260 63 aa 2a 3f 37 dd 82 3f 2c 4f 95 3f a8 04 29 3f
       0.6666624 1.022376 1.1664786 0.6602273
000270 ca bf c7 3e 48 d8 fe 3e 3c eb 85 3f 62 1c 0e 3f
       0.3901351 0.49774384 1.0462413 0.5551206
000280 5f 1b 72 3f fa 79 0d 3f 62 46 83 3f 50 9b 48 3f
       0.94573015 0.55264246 1.0255854 0.7836199
000290 92 77 09 3f fb 77 b8 3f 1a 94 54 3f a7 37 8e 3f
       0.53698075 1.4411615 0.83038485 1.1110734
0002a0 46 9b 27 3f 49 6d 99 3d 5f 8d 99 3f 12 f8 82 3f
       0.65471303 0.074915476 1.1996268 1.0231955
0002b0 35 a8 b3 3e ea e8 09 3f 8d e2 77 3f 64 ca 34 3f
       0.3508927 0.53871024 0.96830064 0.70621324
0002c0 51 4d 52 3a f6 ed 8b 3f 7f 56 8b 3f 37 4e 04 3f
       0.00080223853 1.0931995 1.0885772 0.51681846
0002d0 92 ff 1a 3f 75 42 c2 3f cf 09 64 3f da 6d 35 3f
       0.6054622 1.5176531 0.89077467 0.70870745
0002e0 38 f4 92 3f 86 77 fd 3e 7a d2 78 3f 43 86 9d 3e
       1.148078 0.49505252 0.9719616 0.30766496
0002f0 78 8c 1c 3f c1 da 5a 3f 06 ca b7 3e f0 2e d0 3f
       0.6115184 0.8549004 0.3589632 1.6264324
000300 c9 6d 98 3f 63 7e 17 3f b3 94 3b 3f 7d 7d 3f 3f
       1.1908504 0.59177226 0.7327377 0.74800855
000310 02 4b d8 3e 6f 82 74 3f de 60 2f 3f 61 f4 8a 3f
       0.42244726 0.95511526 0.6850718 1.0855829
000320 e9 ad 18 bf d8 58 a0 3f e6 99 7d 3f 1c c1 26 3f
       -0.59640366 1.2527113 0.99062955 0.6513841
000330 3e 1b 42 3f 54 11 ad 3f 9e fb 35 3f 32 f3 39 3f
       0.7582282 1.3520913 0.7108706 0.7263671
000340 cf 8a 01 bd 30 cf 44 3f 62 9f 22 3f 46 aa 26 3f
       -0.03162652 0.76878643 0.6352445 0.65103567
000350 34 8f 4b 3f 6f 03 7d 3f 08 d5 29 3f e5 9b 9c 3e
       0.79515386 0.98833364 0.66340685 0.30587688
000360 9a 8a 9b 3f 15 2d dc 3f c5 e5 8f bc fb 62 1d 3f
       1.2151673 1.7201258 -0.017565617 0.6147916
000370 e7 75 29 3f 52 97 43 3f 9b 5d 88 3f 33 49 4c 3f
       0.6619553 0.7640277 1.0653566 0.79799193
000380 f3 6e 60 3f d5 0b 09 3f 6f b6 15 3f 17 77 e0 3e
       0.87669295 0.5353368 0.58481497 0.43840858
000390 ee ce 5e 3f a7 0f a7 3e 35 8e 0a bb 68 ef 10 3f
       0.870345 0.3262913 -0.002114189 0.56615305
0003a0 cf f2 49 3f 21 34 47 3e a9 ff 42 3f d5 bc 2f 3f
       0.7888612 0.1945348 0.76171356 0.6864751
0003b0 28 21 ce 3e ae 30 4a 3f 9f c0 8c 3f 8b a9 a3 3f
       0.4025967 0.7898053 1.0996283 1.2786115
0003c0 84 ef 39 3f 38 ca d8 3e ba 63 bb 3e 4e 45 8d 3f
       0.72631097 0.4234178 0.36599523 1.1036775
0003d0 d4 93 4f 3f a7 5f 05 3f 85 64 34 3f 66 89 a4 3c
       0.8108494 0.5209908 0.7046588 0.020085048
0003e0 e2 a1 d0 3f 6e fb 89 3f 9c cf 84 3f cd f3 88 3f
       1.6299403 1.0779855 1.0375857 1.0699402
0003f0 a3 a7 90 3f 35 b2 ba 3e c2 37 69 3e b2 da ce 3e
       1.1301159 0.36464086 0.22775176 0.40401226

bn1.bias f4 [256]
000000 77 97 6a be 6c f5 f6 be 4c 46 2d bd 2d 18 8d be
       -0.22909342 -0.48234117 -0.04230337 -0.27557507
000010 2b 2c bb be 89 61 2d bd d5 6d 8a be e1 80 69 3e
       -0.36557135 -0.042329345 -0.2703692 0.2280307
000020 94 d6 83 be fe be e3 bd d9 63 58 be 5d e1 eb bd
       -0.25749648 -0.11120413 -0.21131839 -0.11517594
000030 e9 01 93 be 38 d4 c9 bd c0 91 3e bd 79 ac 5f be
       -0.28712395 -0.09854931 -0.046525717 -0.21843137
000040 0a 69 08 bd 0d 65 82 be c4 66 3a 3d 0d f6 ea be
       -0.033303298 -0.2546772 0.04550816 -0.45890847
000050 17 74 22 bc f2 45 86 3d f5 9e d7 be ff 04 77 be
       -0.009915373 0.0655631 -0.42113462 -0.24123
000060 ae a6 e8 3d d9 b1 25 bd 6d 40 6a 3e 94 ef e8 be
       0.113599166 -0.040452812 0.22876139 -0.45495284
000070 ec 2c e7 be 41 14 94 be 91 42 cc be 19 60 54 3e
       -0.4515146 -0.28921703 -0.39894536 0.20739783
000080 2c c2 c9 bd 06 19 e5 bd a5 09 80 be c1 aa f9 be
       -0.098514885 -0.111864135 -0.25007358 -0.48763087
000090 85 f9 26 be 27 e7 c4 be 3c 78 61 3c 8e 56 e7 be
       -0.16306122 -0.38457605 0.013761576 -0.45183223
0000a0 b2 b0 fa be ec ac b1 be 5c a0 bd be 59 61 80 be
       -0.48962933 -0.3470224 -0.37036407 -0.2507427
0000b0 eb 5e 05 be 9b c4 10 bf 96 ef b4 be 18 88 1b be
       -0.1302449 -0.56549996 -0.3533904 -0.15188634
0000c0 3a 67 9f 3e 10 32 ae be ec aa d0 be a2 ac f0 bc
       0.31133443 -0.3402257 -0.40755403 -0.029379193
0000d0 c5 78 56 bb fa d7 1b be 68 6f 50 be 87 48 2d bf
       -0.0032725793 -0.15219107 -0.20354998 -0.6768879
0000e0 e0 71 19 bf 0b d9 0d be 8f ae a8 be 39 45 b4 bd
       -0.59939384 -0.13852327 -0.32945678 -0.08802266
0000f0 67 d2 71 be d2 03 05 3e 06 9a b2 be 1d 8d a4 be
       -0.23615418 0.12989739 -0.34883136 -0.3213891
000100 a4 03 91 3d eb 82 52 be 09 d0 90 be 6f f3 df 3c
       0.070807725 -0.20557754 -0.28283718 0.027337758
000110 4b b8 e2 be f4 98 d6 be 0c 4a 7c 3e 5b f5 59 be
       -0.4428123 -0.4191357 0.24637622 -0.21285002
000120 9f 82 91 be 5f e0 d5 be c5 b8 1d be 91 d9 3a be
       -0.28419968 -0.41772744 -0.15402515 -0.18247057
000130 61 8b f0 be 18 54 db be 52 bd 34 be 57 14 ea be
       -0.46981338 -0.42837596 -0.17650345 -0.45718643
000140 11 a1 5b bd c9 1e 05 bf 6b d3 82 be ca 77 b0 bd
       -0.0536204 -0.520001 -0.25551924 -0.08616598
000150 29 ea d7 be ca a6 45 be 9f b3 01 bf 93 17 af be
       -0.42170838 -0.19301906 -0.50664705 -0.34197673
000160 6a 0a c8 3d cd 69 b9 3d 41 79 8b be 30 dd 4b bb
       0.09767611 0.09053383 -0.27240947 -0.003110718
000170 01 0c 33 3c 28 d1 9b be 8d 85 c0 be 25 7a a1 3d
       0.010928155 -0.3043301 -0.3760189 0.07884625
000180 95 32 33 be 68 cd de be b1 95 71 be 5d dd 48 be
       -0.17499764 -0.43516088 -0.23592259 -0.19615693
000190 4a 4a c8 3e 4b 00 d4 bd 74 24 0e bf 14 21 ff 3c
       0.39119178 -0.103516184 -0.55524373 0.031143703
0001a0 c3 05 d0 bd 30 2c 19 bf 3a 63 84 be 50 7f 80 be
       -0.10157349 -0.5983305 -0.25856954 -0.25097132
0001b0 ea 6d 96 3e 1f 29 c1 be 80 d0 3d be 29 7c a5 be
       0.29380733 -0.37726685 -0.18536568 -0.3232129
0001c0 e2 f9 39 be 5b 7e 53 3e 4f 7c e9 be 27 39 de be
       -0.18161729 0.2065367 -0.45602652 -0.4340298
0001d0 ac 1d 5c be ec 53 96 be 14 d5 ee be a7 00 ea bd
       -0.21495694 -0.29360902 -0.4664694 -0.11425906
0001e0 e9 b2 e6 be 52 0b 09 be 55 1d fc bd 1d 92 cc be
       -0.45058373 -0.13383225 -0.12310282 -0.39955226
0001f0 51 f8 35 be 11 d8 cb be 22 33 be be 3f 7d ba bd
       -0.17770506 -0.39813283 -0.37148386 -0.0910592
000200 81 6b 9e be ad 2a ae be e7 cd ca be be 0b ec 3d
       -0.30941394 -0.34016934 -0.39610216 0.11525677
000210 89 17 ea bd 5e 79 b1 be 52 d3 19 bf be a8 a2 bd
       -0.1143027 -0.34662908 -0.60088074 -0.07942341
000220 2a c7 1a bf d8 a7 0b bf a6 57 9d be 7c 3b d9 be
       -0.6046015 -0.54552984 -0.30730933 -0.42428195
000230 c1 ea c5 be bc 53 c7 3d da 02 9b be 5f d5 6d 3b
       -0.38655666 0.09732768 -0.30275613 0.003629051
000240 15 2e 9f be 09 3e a5 be 61 95 ec 3b 11 f5 09 bf
       -0.31089845 -0.32273892 0.007219956 -0.53889567
000250 0b a2 5f be c1 5d 3f be e8 25 e9 bc 31 01 26 be
       -0.21839158 -0.18688108 -0.028460458 -0.16211392
000260 2a 8a 71 be fc 20 e9 bb 1d bd 2f be 06 f0 15 be
       -0.23587862 -0.0071145277 -0.17161985 -0.14642343
000270 c6 0d 90 be 5f 64 46 3d ce 99 a0 be c5 20 b2 be
       -0.28135508 0.048435565 -0.31367344 -0.34790626
000280 ae 4d 9b be 13 2f 0e bf 3e 7c f5 be da b2 df be
       -0.30332702 -0.5554058 -0.47946352 -0.4369114
000290 de 59 58 be f4 92 1e be a8 ad 64 3e 6a 41 bb 3d
       -0.21128032 -0.15485746 0.2233187 0.09143336
0002a0 ad 1e 0f bf 83 7c 6f be da b4 19 be d7 c9 83 bc
       -0.5590618 -0.23387341 -0.15010396 -0.016087456
0002b0 17 38 e3 be c8 16 4d be 40 74 42 be 95 25 e9 be
       -0.4437873 -0.20028222 -0.18989658 -0.45536485
0002c0 44 ae a4 bb 2b 8d a7 be 0a 92 30 bd 90 1e bb bb
       -0.005025657 -0.3272489 -0.043108024 -0.0057104304
0002d0 8d 6d 02 bf 5e 45 1f 3d a4 b8 2d be 56 d8 69 3e
       -0.5094841 0.038884513 -0.16964966 0.22836432
0002e0 7c 99 ea 3d ee c8 a8 be 19 9e 3e be 93 81 09 bf
       0.11455056 -0.32965797 -0.18614997 -0.5371334
0002f0 3b bf c6 be 57 4a f5 be d9 f4 88 3e ea 48 11 bf
       -0.38817772 -0.4790828 0.26749304 -0.56751883
000300 53 37 02 bf 71 7c 26 3e 62 0c ad be 15 70 85 3d
       -0.5086567 0.16258408 -0.3379851 0.065155186
000310 65 96 b7 be 52 a0 c9 3e 64 8c 0d bf 39 52 5a be
       -0.3585693 0.39380127 -0.55292344 -0.21320428
000320 ff 9f 30 be 73 af 9d 3e 2e 90 d0 be ef c3 f6 be
       -0.17248534 0.3079792 -0.40735 -0.4819636
000330 2f d8 b3 bc d6 f1 4c bd 23 9a b4 3d a4 e6 c7 bd
       -0.02195367 -0.05003532 0.08818462 -0.09760788
000340 ff a3 d9 bd 04 8a e9 be 6d 1c 88 be e2 5f 28 bf
       -0.10626983 -0.4561311 -0.26584187 -0.65771306
000350 b3 41 cc be ca 0b 09 be ee 01 5d be 77 f4 96 bd
       -0.39893875 -0.13383403 -0.21582767 -0.07370847
000360 bc 1b ab bd a5 2d 0c 3d ff fe c9 bd 59 6c 4f be
       -0.08354899 0.034223218 -0.0986309 -0.20256175
000370 a8 64 e0 be 60 b7 a2 be 02 ee 99 be 56 2f f1 3d
       -0.43826795 -0.3178053 -0.30064398 0.11776607
000380 55 d5 5e be 6d 30 5e bc 9b f5 04 bf 7f 7b b9 3d
       -0.21761067 -0.01356135 -0.51937264 0.09056758
000390 08 6c 2e be bd b2 23 be bf f7 0c bc d7 29 e7 3d
       -0.17033398 -0.15986152 -0.008603989 0.11287277
0003a0 eb 8b d3 bc c0 99 47 3d 29 4e d0 bd 93 6b f0 be
       -0.025823554 0.04873061 -0.10171158 -0.46957073
0003b0 e5 ba bf be b7 4f 94 be 0d e8 ab bd 84 4b a8 bd
       -0.37447277 -0.28967068 -0.083938695 -0.082175285
0003c0 80 7a 01 bf fb 35 c4 bd fe 12 99 be de 48 2d be
       -0.50577545 -0.095806085 -0.29897302 -0.16922328
0003d0 ee f2 82 3e d8 37 8d be ce 2d 08 bf 1a d1 c7 bd
       0.25575966 -0.27581668 -0.5319489 -0.0975668
0003e0 c8 72 e6 3d 46 f1 40 be 5d 97 f0 3d 07 a6 83 be
       0.112523615 -0.18842039 0.1174762 -0.25712606
0003f0 ce 40 89 be f0 22 c4 be 09 8e 86 be 59 34 e9 bd
       -0.26807255 -0.38307905 -0.2628024 -0.11386938

bn1.running_mean f4 [256]
000000 e0 ee 1c 41 7a b8 c8 c0 64 a2 3a 3f b2 fd 96 bf
       9.808319 -6.272519 0.7290404 -1.1796172
000010 fe e1 14 c0 23 95 2b c1 1e 93 40 40 35 ef 25 3f
       -2.3262935 -10.72391 3.0089793 0.64818126
000020 86 5d 97 c0 3b ca 60 40 1f b6 cd 3f ed 7c c8 bf
       -4.7301664 3.5123432 1.6071204 -1.5663124
000030 51 74 89 bf 6e 19 5a c0 dc 84 14 c0 25 8e 96 c0
       -1.0738622 -3.407802 -2.320609 -4.7048516
000040 5e 33 3d 3f 20 11 06 41 73 bc 47 41 49 3b 07 c1
       0.73906505 8.379181 12.483508 -8.451974
000050 a7 da dd 3f 6b 9e 82 c0 d4 54 43 c0 37 f7 05 c1
       1.7332352 -4.081838 -3.0520525 -8.372855
000060 f7 4c 51 c0 5f c8 73 c0 88 d8 a9 c0 3d 2a e5 c0
       -3.2703226 -3.8091047 -5.307682 -7.161406
000070 46 19 5f 40 43 59 60 c0 28 bd ad 40 b8 69 4e c1
       3.4859176 -3.505448 5.4293404 -12.90081
000080 cd 1a 09 c0 d2 85 50 c0 82 b5 91 3f 1d c5 1f 41
       -2.1422608 -3.2581677 1.1383517 9.985623
000090 13 59 dc c0 86 71 1f c0 c3 37 14 c0 aa a4 4d c0
       -6.8858733 -2.491304 -2.3159034 -3.2131753
0000a0 d1 53 7b c1 1a e3 e5 40 d4 3f 38 c1 14 17 ef c0
       -15.707963 7.1839724 -11.515583 -7.471567
0000b0 1c 1d 11 c0 38 8b 3c 41 d5 c0 c2 40 23 eb 35 c1
       -2.2674017 11.783989 6.086039 -11.369906
0000c0 3e 42 78 c0 98 e5 9d 40 f6 4e 0c 3f f8 1a af c0
       -3.879043 4.9342766 0.54807985 -5.472042
0000d0 71 bf 9a 3f 43 8f ea 40 75 b3 74 3f 1b d4 b8 bf
       1.2089673 7.329988 0.9558633 -1.443973
0000e0 a0 45 80 40 e6 ad 53 c1 f4 7e 68 bf 42 78 5a c0
       4.008499 -13.229956 -0.90818715 -3.41359
0000f0 a4 0c 2c 3d 6b fd ee be 3b c9 03 40 8e c3 91 c0
       0.042004243 -0.46677718 2.0591571 -4.5551214
000100 ef 8d 11 c1 36 47 b8 40 5f ac 33 c1 b6 c9 36 40
       -9.097152 5.7586927 -11.229583 2.8560615
000110 a7 5d bc 40 79 0f 77 c0 3e 31 a0 40 1c 6a c3 3f
       5.886432 -3.8603194 5.006011 1.5266757
000120 02 4c d8 3f c8 17 9d 40 38 9d f8 3f fd 92 94 be
       1.6898196 4.909153 1.9422979 -0.29018393
000130 42 ec 1d 40 41 60 db 40 24 8c 23 40 90 30 04 c0
       2.467545 6.8554997 2.5554285 -2.065464
000140 b3 15 ab c0 77 8d e2 c0 b0 9b 15 40 43 ad 20 41
       -5.346399 -7.0797687 2.3376274 10.0423
000150 88 17 21 c0 3d 7a 61 40 b7 a2 4f 40 31 58 8e c0
       -2.5170612 3.5230858 3.2443063 -4.4482656
000160 3c 46 d2 3e f7 a3 bc 40 cb 9d 2a c1 db 72 b2 40
       0.4106921 5.8950152 -10.663524 5.5765204
000170 34 cc 8b 40 50 d9 da 3f 41 ca 9b 40 af 55 ec bf
       4.368677 1.7097569 4.868439 -1.8463649
000180 bd 42 fb 40 ef 83 fa c0 e0 ed 67 c0 0e e6 e7 3f
       7.851897 -7.828605 -3.6238937 1.8117082
000190 e1 d5 b5 40 5e 1d 33 c0 ec e1 ca c0 c6 96 de 3e
       5.6823583 -2.7986674 -6.3400784 0.43474406
0001a0 9c 0f 07 c1 6c dd 9b 40 d9 c4 1d c1 3a 2a 6f 40
       -8.441311 4.870779 -9.8605585 3.7369523
0001b0 94 15 23 40 83 ea 3b 3f 49 09 f2 bf 84 58 c8 3f
       2.548192 0.7340471 -1.8909084 1.5652013
0001c0 c1 56 36 c0 df be 50 40 ba a9 11 41 1e 4d 94 bf
       -2.849045 3.2616498 9.103937 -1.1586034
0001d0 52 3a 02 41 e2 33 58 c1 44 c4 e3 40 e9 e6 a3 c0
       8.139238 -13.512667 7.117708 -5.1219373
0001e0 27 1b 0c c0 f5 d7 1f c1 ab 36 36 c1 44 a7 eb c0
       -2.1891572 -9.990224 -11.388347 -7.364168
0001f0 5c a3 82 3f af d9 02 41 34 f8 f5 3f b5 20 19 41
       1.0206103 8.178145 1.921637 9.570485
000200 24 1b a3 40 38 35 49 c1 7c f0 0b 40 be e5 7d c0
       5.097063 -12.575493 2.186553 -3.9671474
000210 3b 88 87 bf 0e 40 5a 40 fe e5 8f 40 79 3e c5 c0
       -1.0588449 3.4101596 4.496825 -6.163876
000220 7d 5a 1e be 13 25 e2 3f 40 28 53 c1 22 a0 86 c0
       -0.15464206 1.7667564 -13.197327 -4.2070475
000230 03 7d 3d c1 a5 94 a6 bf 85 b9 fa 3e 8a 49 8d bf
       -11.84302 -1.3014113 0.48969665 -1.1038067
000240 19 de 45 c1 75 19 e6 c0 1f d9 4d c1 81 c9 75 c0
       -12.366723 -7.1906075 -12.865508 -3.8404238
000250 3e 60 1e c1 3c a0 c7 b8 67 61 0f c1 2a 91 a7 c0
       -9.898497 -9.5189054e-05 -8.96128 -5.23647
000260 30 24 04 c0 dd e9 9c 40 a7 62 22 c0 6d 36 23 c0
       -2.0647087 4.903548 -2.5372713 -2.550197
000270 e3 cc 1b 40 79 05 4c c0 57 51 ab bf 40 41 9b c0
       2.4343803 -3.187834 -1.3384198 -4.851715
000280 ab 66 05 40 3b ab d4 c0 f9 4b eb 40 36 4e 9f bf
       2.0843914 -6.645902 7.353024 -1.2445743
000290 01 cf 06 40 66 99 d5 bf 8d fb 0e bf e0 9a e4 3f
       2.1063845 -1.6687438 -0.55852586 1.7859764
0002a0 18 5a 6e c1 01 b7 87 c0 91 8c 01 40 00 9f 27 c1
       -14.896996 -4.2410893 2.0242045 -10.476318
0002b0 76 49 f5 3f 81 6b b8 bf b5 48 30 c1 f8 b3 83 3f
       1.9163043 -1.4407808 -11.017751 1.0289297
0002c0 86 37 ae bf 16 25 8c c0 af 71 9f be 7e ad 72 40
       -1.3610694 -4.379527 -0.3114142 3.7918391
0002d0 f0 f3 c4 c0 fd 6e bd 3f 7f 72 90 3f d8 c2 ba c0
       -6.1547775 1.4799496 1.1284941 -5.8362846
0002e0 c6 91 13 40 54 7b 01 c0 a4 e1 91 3e 28 7a 4e 3d
       2.3057723 -2.0231524 0.28492463 0.050409466
0002f0 91 e7 73 bf db 64 38 c0 28 22 8e bf 39 07 3e 40
       -0.9527522 -2.8811557 -1.1104174 2.9691908
000300 ae ec 9a 40 4e 33 6c c0 d3 bc 00 c1 32 a6 87 c0
       4.8413916 -3.6906314 -8.0461 -4.2390375
000310 f4 e8 89 40 0d 66 d3 40 27 b3 9d c0 9f b0 69 40
       4.3096867 6.6062074 -4.928119 3.651405
000320 01 42 21 c0 88 b3 8e 40 0f 50 86 c0 84 53 29 3e
       -2.5196536 4.4594154 -4.197273 0.16535765
000330 44 f5 ab c0 a6 dc b2 c0 7a b4 a5 c0 fe ec 07 c1
       -5.3736897 -5.5894346 -5.178281 -8.495359
000340 37 47 08 40 7a 5f 1a 41 fc ea 17 40 88 d7 3f 41
       2.1293466 9.64831 2.3737173 11.99012
000350 5f d2 3c 40 fe e0 c8 40 c5 bd 95 40 18 04 56 c1
       2.95034 6.277465 4.679415 -13.375999
000360 c0 0e e0 3f d6 1b fe bf 9a 2b 9e c0 aa 71 79 41
       1.7504501 -1.9852245 -4.9428225 15.59025
000370 09 20 55 40 19 1b a5 3f db bf 03 41 ee eb 2a 40
       3.3300803 1.2898895 8.23434 2.67065
000380 ec d2 ae be 1f 14 d9 bf b3 b9 22 c0 3d 1c d1 c0
       -0.34145296 -1.6959265 -2.5425842 -6.534697
000390 e2 0c f9 bf 6c 75 14 41 ee 07 5e 3f e7 bc b0 c0
       -1.9457057 9.278667 0.8673085 -5.5230594
0003a0 78 a7 ad 40 73 a4 1e 40 2f b8 bd bb d7 3e 08 c1
       5.426693 2.4787872 -0.0057897787 -8.515342
0003b0 e2 9a 2e 40 a1 76 2d c0 a6 0f 61 41 da 70 1a c0
       2.7282033 -2.7103655 14.06632 -2.413138
0003c0 da de 5e c0 ed d0 01 40 96 bf 62 c1 c1 ca b8 bf
       -3.4823518 2.0283768 -14.171774 -1.4436876
0003d0 bc e0 51 c0 ea 85 0a 40 0c 5c 52 c0 41 b8 03 c0
       -3.2793417 2.1644235 -3.286868 -2.058121
0003e0 8a a9 e6 bf 7b 99 c0 40 61 95 29 c1 5a 9b 21 40
       -1.8020489 6.0187354 -10.598969 2.525107
0003f0 be 88 a7 40 e6 29 b3 c0 83 81 a9 c0 5b 66 89 c0
       5.235442 -5.5988646 -5.2970595 -4.2937446

bn1.running_var f4 [256]
000000 da 12 d2 42 b0 cd b9 41 ac b9 16 42 b7 4b d0 41
       105.03682 23.225433 37.68132 26.03697
000010 91 75 ab 42 65 2b 3f 42 a0 8d 1b 41 ea 51 18 43
       85.72962 47.792377 9.722076 152.31998
000020 af 96 8c 42 71 04 a6 42 e7 56 14 43 85 f0 bc 43
       70.294304 83.008675 148.33946 377.87906
000030 0b 39 2a 42 00 19 bc 42 73 7f f8 41 19 d6 5d 41
       42.555706 94.04883 31.062231 13.86477
000040 99 67 c2 40 46 fd 1d 42 d7 b3 b8 42 19 4b c8 41
       6.075146 39.497337 92.35125 25.036669
000050 dc da 51 40 1f 43 68 42 b7 2b b6 42 6f f2 2b 42
       3.278983 58.065548 91.08538 42.98675
000060 df d3 4a 43 5a a8 04 41 45 02 cf 41 6c 53 40 42
       202.82762 8.291101 25.876108 48.081467
000070 37 1f c0 42 5e 17 c5 42 22 3f 9e 42 8e 6f 83 42
       96.06097 98.54564 79.12331 65.71788
000080 a2 27 02 42 dd 93 24 42 33 32 53 42 11 ca db 42
       32.538704 41.144398 52.799023 109.89466
000090 99 60 36 42 7a 0a c5 42 b9 a7 ef 42 50 f3 ea 42
       45.594334 98.52046 119.82758 117.47522
0000a0 e6 03 9e 42 47 b4 e0 42 a1 6c d5 41 11 a1 1e 43
       79.007614 112.352104 26.678041 158.62917
0000b0 c0 96 ef 42 d0 3a c5 42 ae 78 f7 42 53 24 69 42
       119.79443 98.61487 123.7357 58.285473
0000c0 80 5a 70 43 02 71 9f 42 af 21 ce 42 70 2e bc 41
       240.35352 79.72072 103.06579 23.522675
0000d0 a7 61 11 43 90 e9 16 42 7b ed ba 41 52 28 2a 43
       145.38145 37.72809 23.365957 170.1575
0000e0 b2 0f 1b 43 ef 12 83 42 0e 35 e5 42 94 00 ae 41
       155.06131 65.53698 114.60362 21.750282
0000f0 74 16 e6 41 46 b2 9c 42 e4 86 1f 43 c1 59 ca 42
       28.760963 78.34819 159.52692 101.1753
000100 1b 40 06 43 a1 62 bb 42 9a 4b 20 42 ea 0c 31 42
       134.25041 93.692635 40.07383 44.26261
000110 d6 08 c4 42 91 15 08 43 a6 c4 a8 43 01 a9 33 42
       98.01726 136.08424 337.53632 44.915043
000120 4e 89 82 42 6b 93 7d 42 b2 61 20 42 5d 87 26 42
       65.26817 63.393963 40.095406 41.63219
000130 5f 5b 6f 42 1c bd 3d 42 0b f9 31 42 cd 6e 37 43
       59.83923 47.434677 44.493206 183.43282
000140 5c 1e 8f 42 d1 7f 03 42 77 c2 91 42 25 90 8b 42
       71.559296 32.87482 72.879814 69.78153
000150 48 af af 42 d6 81 08 43 df 98 95 42 df 88 81 43
       87.84235 136.50717 74.79858 259.0693
000160 98 4b 12 43 bc 16 6c 42 75 ae d3 42 e3 ad 02 43
       146.29529 59.0222 105.84074 130.67924
000170 04 2a a2 42 93 4e 1f 43 a0 cc 5a 42 3e 79 61 42
       81.08206 159.30693 54.69983 56.3684
000180 e0 bc b2 42 51 ec 92 42 5a d7 d8 42 a9 bd 0b 43
       89.3689 73.461555 108.42061 139.74086
000190 cf d7 ad 43 81 fc cf 42 65 27 7d 42 b8 18 85 42
       347.686 103.99317 63.28847 66.54828
0001a0 83 3e c6 42 9a 33 ef 42 d1 33 9f 42 29 53 78 43
       99.12209 119.600784 79.601204 248.32484
0001b0 6e c4 e8 43 70 08 b0 42 2a 25 ed 43 01 57 bb 42
       465.5346 88.01648 474.29034 93.66993
0001c0 ac b8 01 43 bd 34 10 43 13 52 85 42 d5 d8 68 43
       129.72137 144.20601 66.6603 232.847
0001d0 67 b7 f4 41 f3 57 c1 42 03 ff 00 43 98 3b 22 43
       30.589552 96.671776 128.99614 162.23279
0001e0 80 af 99 42 f9 bf b3 42 79 ee b6 42 af 47 bc 42
       76.84277 89.87495 91.46577 94.14001
0001f0 95 52 28 41 2d b1 55 43 97 7c 4d 42 9c 25 c2 42
       10.520162 213.6921 51.37167 97.073456
000200 18 4c 02 43 43 70 13 42 e6 67 c9 42 28 91 2e 42
       130.29724 36.85963 100.70293 43.641754
000210 e4 68 2d 44 92 6f a8 41 22 24 41 43 15 fa 71 42
       693.6389 21.054478 193.14114 60.49422
000220 9b 48 36 42 38 9e 95 42 a8 74 61 42 02 59 1e 43
       45.570904 74.80902 56.363922 158.34769
000230 0f c0 2a 42 05 59 2a 43 41 3d b6 41 a2 02 0f 44
       42.687557 170.34773 22.77991 572.04114
000240 86 8c b5 42 fa 13 0b 43 58 22 82 42 d6 0b fd 41
       90.77446 139.07803 65.06708 31.63078
000250 22 f7 25 42 f3 b7 92 42 1b 60 3d 43 c6 c3 1e 42
       41.49134 73.359276 189.37541 39.691185
000260 37 28 c5 42 42 19 85 42 b7 db 3b 41 c1 6e 06 43
       98.578545 66.54933 11.741141 134.43263
000270 d7 77 a7 42 1f 94 c8 42 2a 51 43 42 a5 28 f9 42
       83.73406 100.2893 48.82926 124.579384
000280 84 a5 22 43 33 9e c6 42 9a 13 d6 42 a3 a9 e2 41
       162.64655 99.30898 107.038284 28.33283
000290 a4 dd 7c 42 f7 ea ec 43 f2 b9 44 42 cd a1 39 41
       63.216446 473.83566 49.181587 11.602002
0002a0 5c e2 73 42 77 36 48 42 e9 9b 74 42 c8 08 2a 42
       60.971054 50.05319 61.152256 42.508575
0002b0 73 67 5c 42 33 8a 83 43 dc 6f 85 42 2d 23 9d 42
       55.101025 263.07968 66.718475 78.5687
0002c0 72 24 81 41 3d c2 d5 42 97 f2 48 43 1c 7d 71 43
       16.142796 106.87937 200.94762 241.48871
0002d0 b8 46 8c 42 68 6d 49 41 9e 80 ce 41 d6 a7 51 43
       70.13812 12.5892105 25.812801 209.65561
0002e0 a9 b8 0f 42 a3 6e 5f 42 ab 26 67 42 7b 51 78 42
       35.930332 55.858044 57.78776 62.07957
0002f0 d7 21 7b 42 51 f9 ca 43 cc c0 96 42 3e 4e 08 43
       62.783047 405.94778 75.37656 136.30563
000300 e8 e0 98 42 3d aa de 40 77 06 2a 42 cf 5a aa 42
       76.43927 6.958281 42.506313 85.17736
000310 37 45 3c 42 21 95 2c 42 cd 20 ec 42 a8 12 12 43
       47.067593 43.145634 118.064064 146.07288
000320 ae e1 a2 42 90 57 e7 42 5a 53 0c 42 0d 21 1f 43
       81.44078 115.67102 35.081398 159.1291
000330 44 01 53 41 70 cc ca 42 8d 30 65 43 b7 cd 84 42
       13.187809 101.39929 229.18965 66.40179
000340 6e a7 41 42 99 42 c6 42 8c 5c bd 42 40 f3 e7 42
       48.413506 99.13007 94.680756 115.9751
000350 03 50 d7 42 5d 1e b5 42 89 30 89 42 eb bb 6c 42
       107.65627 90.5593 68.594795 59.183514
000360 43 d1 96 41 d6 0f ed 40 d6 4d 36 42 2f 76 97 42
       18.852179 7.408183 45.57601 75.73083
000370 88 ef f6 42 ac e0 7d 41 59 fe cb 42 c5 2d 57 43
       123.467834 15.867352 101.99677 215.17879
000380 e4 b7 04 42 bd 8e c5 42 f7 7d 83 42 8d 72 5b 42
       33.17958 98.778786 65.746025 54.861866
000390 7e f4 52 42 75 00 94 42 c5 ab 00 3f 04 44 6b 42
       52.73876 74.00089 0.502621 58.81642
0003a0 3f 5c 53 43 f9 c5 b1 42 3d 0f 2d 42 e8 60 15 43
       211.36034 88.886665 43.26488 149.37854
0003b0 e5 97 f7 42 ce 46 9f 42 cd d5 97 42 fe 2b ab 41
       123.79667 79.63829 75.91758 21.39648
0003c0 ee 18 fc 41 d2 b9 46 43 6b e6 4c 42 55 6a 8f 41
       31.512173 198.72586 51.225018 17.92692
0003d0 01 69 cd 42 c5 0d 16 43 c4 9e b7 42 b2 1e b1 41
       102.705086 150.05379 91.81009 22.139988
0003e0 45 21 cf 43 cb a6 bc 42 86 5d 55 42 75 74 81 42
       414.25992 94.32577 53.34133 64.727455
0003f0 ce 32 37 42 ea d5 3c 43 3b d5 18 43 15 7b 46 42
       45.799614 188.8356 152.83293 49.620197

fc2.weight f4 [128, 256]
000000 d8 43 1d be d8 3c bc be ff be 0f 3c 50 b7 1a bf
       -0.15357912 -0.3676517 0.008773564 -0.6043596
000010 a2 9c eb 3e 59 7c b3 be 19 5f c0 be a7 e0 0c 3e
       0.4601794 -0.35055807 -0.37572554 0.13757573
000020 db 8a 85 3d cc 9c eb bd 57 f8 35 3d 84 ed 09 3e
       0.06520625 -0.11504516 0.04442629 0.13469511
000030 a7 ef 9f be be 80 4e 3d a4 42 08 3d 5e d3 1b 3f
       -0.31237528 0.050415747 0.03326668 0.60869396
000040 96 6d aa bc ff 88 81 bd 5e f3 e8 be e5 87 cb 3e
       -0.020804208 -0.06324958 -0.45498174 0.39752117
000050 3a ac a4 bd d6 f4 e0 be 84 33 39 be f5 f1 06 bf
       -0.08040662 -0.43936795 -0.18086058 -0.5271295
000060 16 eb 6f 3c d0 9e 49 bd 29 7f 9d 3e 1d 2b ad 3e
       0.014643451 -0.04922372 0.30761078 0.33821955
000070 02 73 1e bf bb 3b 82 3e d5 49 00 3d f1 a2 a4 be
       -0.6189424 0.25436196 0.03132041 -0.32155564
000080 4f e8 b4 3e ab e5 69 bf 72 93 23 bf 85 06 f5 3d
       0.35333487 -0.9136607 -0.6389686 0.11964134
000090 26 d0 a6 3e 92 b8 9e 3c b9 69 dc bd 6f 69 2f 3b
       0.3258068 0.01937512 -0.107623525 0.0026765724
0000a0 50 c8 91 bc be 52 ea 3d ed e7 a1 3e bf 65 8e 3d
       -0.017795712 0.11441563 0.31622258 0.06953
0000b0 1e c1 e9 bc 71 18 2b bf 47 e6 c5 be 47 bb 07 3f
       -0.028534468 -0.6683417 -0.3865225 0.5302014
0000c0 fe ca 05 bf 0f ae b5 be d1 a8 31 3e 7c 23 3a 3d
       -0.52262866 -0.3548436 0.17349555 0.045443997
0000d0 28 c2 1a 3e b9 73 8a be 47 83 c6 be fb 87 84 be
       0.15113127 -0.27041414 -0.38772032 -0.25884995
0000e0 33 39 ea be 35 9f d4 3e 90 be 1c be 92 e6 eb 3e
       -0.45746765 0.41527715 -0.15307069 0.4607435
0000f0 1e bb 0b 3f 00 70 bd 3d 76 bb 9c be fa 97 83 be
       0.54582393 0.09249878 -0.3061177 -0.25701886
000100 78 cb 82 3e fa 40 3b 3f d8 55 11 3d 12 38 8f be
       0.2554586 0.7314602 0.035482258 -0.27972466
000110 d5 34 bc 3e d7 85 89 3e 8a b3 a5 be 9e e8 5f 3e
       0.36759058 0.26859924 -0.3236354 0.2186608
000120 30 97 16 bf 5e b9 d9 be 70 63 a1 bd c7 3b 1c bf
       -0.58824444 -0.42524236 -0.07880294 -0.61028713
000130 c2 b6 0b bf 6d 5a 47 bf 03 73 29 bc 40 fc 16 3e
       -0.5457574 -0.77872354 -0.010342362 0.14744663
000140 99 5b 2d bc 80 41 cd be d1 48 00 3e f5 03 2b be
       -0.010580921 -0.40089035 0.12527777 -0.16700728
000150 ba 97 9b 3e 9b 0c 17 3c a6 aa 7f be 0f 08 32 3e
       0.30389196 0.009219314 -0.24967441 0.17385887
000160 5d 54 85 bf 46 0e 5c 3d 51 aa b6 be ab a0 f4 3c
       -1.0416371 0.05372455 -0.35676816 0.029861769
000170 d6 01 f5 3d e2 dc a4 be e4 c1 2f 3e 05 5c c4 bd
       0.11963241 -0.3219977 0.17163807 -0.09587864
000180 fa 80 fd bd 08 24 53 3c a6 d3 4d 3e 9e 71 3c bb
       -0.12378116 0.0128870085 0.20100269 -0.0028754245
000190 92 15 ce be 20 63 0b 3d e8 66 7b 3c d5 56 bf be
       -0.40250832 0.03403008 0.015344359 -0.37370935
0001a0 0c 00 e9 3d 2b 31 a4 be 2e 4b 88 3d b4 a8 42 3e
       0.11376962 -0.32068762 0.066549644 0.19009668
0001b0 c3 b1 ad be 28 6f 87 3d b1 9d 0a 3d c3 36 79 3e
       -0.33924684 0.06612998 0.033841792 0.24337296
0001c0 f4 6e 97 be 83 0e 44 3e 9d 89 fe 3d f8 68 05 bd
       -0.29576838 0.19146161 0.124285914 -0.03257081
0001d0 86 bf 71 bf de 76 93 3e d9 b6 23 3f 5e 90 87 3e
       -0.94432867 0.28801626 0.6395088 0.2647733
0001e0 a6 c4 bb 3e 7d 61 f4 be 85 44 e8 bc eb e9 03 3e
       0.36673468 -0.47730628 -0.028352985 0.12882201
0001f0 e1 2d 88 3e 68 d4 09 be 31 e6 29 3e 0f 3e b7 bd
       0.26597503 -0.13459933 0.16591717 -0.089473836
000200 9f ec 77 3e e8 7a 8b be 5e 6a 05 3e a4 4d b5 3e
       0.24211358 -0.27242208 0.13028857 0.35410798
000210 85 e2 6a 3d 46 ef e7 3e e5 07 98 be 83 c9 b0 bd
       0.057344932 0.4529974 -0.29693523 -0.08632185
000220 b7 4c 0e be 94 3c 45 3d 6d e4 ed be b2 ce 16 be
       -0.13896452 0.048153475 -0.46463338 -0.14727286
000230 42 0a 44 bf e1 77 9f be f8 37 37 bf 07 48 06 be
       -0.7657815 -0.31146148 -0.71569777 -0.13113414
000240 15 ab 05 3f 77 15 ed bc 27 3f e1 bd b3 fe 1b bf
       0.52214175 -0.0289409 -0.109983735 -0.60935515
000250 0c 8f 5f be 53 85 4c be 52 93 95 3e f2 48 9b 3e
       -0.21831912 -0.19972734 0.2921396 0.3032909
000260 5d 20 80 3c c4 d7 50 be b7 0e f8 bd 97 13 c8 3e
       0.015640432 -0.20394808 -0.12112182 0.39077446
000270 22 8d b0 be 51 0b 1d bf 5a fc 55 bf 99 bc 8b bd
       -0.34482676 -0.6134539 -0.8358818 -0.068230815
000280 fd 25 22 3e b9 87 ce bd 1d 5c 3b 3f ee 1b 2c 3e
       0.15834804 -0.10084481 0.7318743 0.1680753
000290 03 dd c2 be 10 64 e5 3d 4f be c1 3e 27 a6 21 3e
       -0.38059244 0.11200726 0.37840506 0.15786038
0002a0 4a ba 96 be c3 f7 05 3e 6b 7e e8 3e 6d 0d 16 be
       -0.29439002 0.13082795 0.4540895 -0.14653559
0002b0 8e ad f1 3d bf ed 27 3e 00 73 d6 3e f9 2b 9e 3e
       0.11800681 0.16399287 0.41884613 0.30892923
0002c0 47 7e 19 3e b2 13 a0 3e 4b af 9c be 92 04 a8 3d
       0.14989577 0.31265026 -0.30602488 0.08203997
0002d0 a2 f5 27 bd f8 4a be 3e eb 59 54 bf b9 57 41 3e
       -0.041005738 0.37166572 -0.82949704 0.1888112
0002e0 a8 f4 83 be bc 19 d0 be 87 00 2d 3f 5e df 2a 3d
       -0.25772595 -0.40644634 0.6757893 0.041716926
0002f0 9d e9 26 bf 8b 61 b4 3d bb 10 46 bd f8 c6 3d bf
       -0.65200216 0.08807667 -0.0483558 -0.7413173
000300 9f d9 b4 bd 8a a1 88 3e e9 d5 ca be 50 88 40 3e
       -0.088305704 0.26685745 -0.39616325 0.18801999
000310 b2 ca 9f be 9a 3b d8 3e fb 69 ba 3e 66 8b 23 be
       -0.31209332 0.42232972 0.36408982 -0.15971145
000320 5a 83 6d 3d d1 0e 42 3d 1e 62 82 3e 9e 7b a4 bd
       0.057986595 0.04737741 0.25465482 -0.080313906
000330 83 46 f1 3e be 5c c6 bd b4 25 20 be 55 cc be be
       0.4712411 -0.09685658 -0.15639383 -0.37265268
000340 c3 31 51 3d 2b c6 29 be 55 82 d6 3e 55 fc 35 bd
       0.051072847 -0.16579501 0.4189631 -0.044430096
000350 e0 9a be be c9 75 15 bd d7 74 ba be 2d e4 89 bd
       -0.37227535 -0.03648928 -0.36417267 -0.06732974
000360 b4 e3 07 3f 03 ad 23 bf 8e 23 07 bd 94 da d5 3b
       0.5308182 -0.6393587 -0.032992892 0.0065263007
000370 b5 d6 84 be 67 23 69 be 6f 1f 1c bf 43 01 4d 3c
       -0.25945058 -0.22767411 -0.60985464 0.012512508
000380 17 b5 4f bf 84 2e 4b 3e d9 86 9d 3d 30 5b be 3d
       -0.81135696 0.19841963 0.07691736 0.092947364
000390 28 20 d6 3e 77 85 16 3e 1d 0c a9 3d 10 93 d7 3e
       0.41821408 0.1469935 0.082542636 0.42104387
0003a0 ca d5 a8 3e 33 52 0f bd 11 77 58 bf 04 38 28 3e
       0.32975608 -0.0349905 -0.8455668 0.16427618
0003b0 2b a9 ea be 90 2d 6a be 7a 30 f4 bd c9 db 1f bf
       -0.4583219 -0.22868943 -0.11923309 -0.6244474
0003c0 c4 25 10 be 0a 99 db 3e eb 07 d9 be e5 94 69 bc
       -0.14076906 0.42890197 -0.42388853 -0.014256691
0003d0 e5 b8 38 be 6d bf ab bd 99 81 b0 be b2 56 41 bd
       -0.18039282 -0.08386121 -0.34473875 -0.04720182
0003e0 f1 a3 e7 bc 6d 6c 8e 3e 9d 9b f3 3c 8a b6 a0 bf
       -0.028276416 0.27817097 0.029737288 -1.2555707
0003f0 31 c5 c2 bf 0d f1 40 be e3 22 f2 bd 51 da 45 be
       -1.5216428 -0.18841954 -0.1182306 -0.19321562
