checkpoint_actor_1.pth (torch_old, 163767 bytes, 10 tensors)

fc1.weight f4 [256, 24]
0	0xbe93b947	-0.28852293
1	0x3e61bea2	0.22045377
2	0xbbc1cc66	-0.005914259
3	0xbe029992	-0.12753895
4	0x3e72e2ea	0.23719373
5	0xbd68ab9b	-0.05680428
6	0xbd6b234e	-0.057406716
7	0xbd580a39	-0.052744124
8	0xbe2d8d23	-0.1694837
9	0x3d75a253	0.059969258
10	0x3ce3a955	0.027790705
11	0xbd56c5f8	-0.05243489
12	0x3ec274f3	0.3797985
13	0x3e67930d	0.22614689
14	0xbca93d2e	-0.020659056
15	0xbd8c347b	-0.06845947
16	0xbe44e1c1	-0.19226743
17	0x3e18baf5	0.14915068
18	0x3eb2f74b	0.34954295
19	0x3ef6640b	0.48123202
20	0x3ee2aad0	0.44270945
21	0x3ef55900	0.47919464
22	0x3ead33e0	0.3382864
23	0x3ef193d6	0.47183102
24	0x3ea0147c	0.31265628
25	0x3d2ee734	0.04270096
26	0x3daf4752	0.08558525
27	0x3e12d359	0.14338435
28	0x3e31c13d	0.17358871
29	0x3df63d94	0.12023464
30	0xbc7859f2	-0.015158163
31	0x3dab2d12	0.08358206
32	0x3ed506c4	0.41606724
33	0x3e9221a8	0.28541303
34	0x3dce7fdb	0.1008298
35	0x3eb2bed8	0.34911227
36	0x3e89635a	0.26833612
37	0x3effb298	0.49940944
38	0x3d37b6f1	0.0448522
39	0x3ea4d446	0.32193202
40	0x3eb79897	0.35858604
41	0x3ecc4c89	0.39902142
42	0xbe0f15da	-0.1397318
43	0x3d58ce7a	0.052931286
44	0x3ee40b7a	0.44540006
45	0x3f75e332	0.960498
46	0xbd9ecb25	-0.077535905
47	0x3c9476e9	0.018123107
48	0x3e003097	0.12518536
49	0xbdebd9d4	-0.11516157
50	0x3e037676	0.12838158
51	0xbd6695d4	-0.05629523
52	0x3d24c151	0.040223423
53	0xbe5cf712	-0.21578625
54	0x3dbb3c35	0.09142343
55	0xbd00ec9b	-0.031475645
56	0x3d361c6a	0.04446069
57	0xbd3d53bb	-0.04622243
58	0x3d16fc44	0.036861673
59	0x3d558ea4	0.052137986
60	0x3da6cd31	0.08144606
61	0xbe1a3c68	-0.15062106
62	0x3e01109f	0.12603997
63	0x3d9c5b77	0.07634633
64	0x3ca6e93e	0.02037489
65	0x3c419163	0.011814448
66	0x3ce11503	0.02747584
67	0xbd157378	-0.036487073
68	0xbbc36139	-0.0059625176
69	0xbd746081	-0.059662346
70	0x3cc2354d	0.023707056
71	0xbb699e08	-0.0035647172
72	0x3df45f69	0.119322605
73	0xbe6c90a8	-0.23102057
74	0xbd28b63c	-0.041189417
75	0xbdf1782b	-0.11790498
76	0x3ccf620b	0.025315305
77	0x3e96ded0	0.29466867
78	0xbddb3918	-0.10704249
79	0xbe07074b	-0.13186376
80	0x3e32767d	0.17428012
81	0xbe86b546	-0.26310176
82	0xbd0e3577	-0.034718957
83	0xbe331f69	-0.17492451
84	0xbebc39af	-0.3676276
85	0x3f22f4b1	0.6365462
86	0xbd07ca76	-0.033152066
87	0xbe1f5292	-0.15558842
88	0x3e4dda01	0.20102693
89	0xbe96747a	-0.2938574
90	0xbdf0f2ca	-0.11765058
91	0xbd9c3da2	-0.07628943
92	0xbf335713	-0.7005474
93	0x3f696552	0.9117023
94	0xbc0a49fd	-0.008440492
95	0xbe06e192	-0.13171986
96	0xbe6bd33b	-0.23029797
97	0x3eaf0a6e	0.34187645
98	0xbd7551c9	-0.05989245
99	0xbf359c78	-0.7094188
100	0x3d4b4bcb	0.04963283
101	0xbedc208b	-0.42993578
102	0x3a128ec5	0.00055907323
103	0xbf48519d	-0.7824953
104	0xbeb7253c	-0.35770595
105	0x3e0509ea	0.12992063
106	0xbc3227a5	-0.01087371
107	0xbe987a37	-0.29780743
108	0x3e44d877	0.192232
109	0xbe1018a8	-0.14071906
110	0xbd840e08	-0.06447989
111	0xbe86beb2	-0.26317364
112	0xbef24a03	-0.4732209
113	0x3da52ee7	0.080655865
114	0xbe282c76	-0.1642321
115	0x3e4345af	0.19069551
116	0xbd99b630	-0.07505453
117	0x3d858e4d	0.06521282
118	0xbe6c2941	-0.23062612
119	0x3e24ea7f	0.16105078
120	0x3eb646ca	0.35600883
121	0xbf3d0fa4	-0.7385199
122	0x3e143987	0.1447507
123	0xbce8c475	-0.02841399
124	0xbe48e4d6	-0.19618544
125	0xbf4b16d3	-0.793317
126	0x3dd08959	0.10182447
127	0xbd65a188	-0.05606225
128	0x3ef5016c	0.47852647
129	0xbf38f258	-0.7224479
130	0xbcd0f53d	-0.025507564
131	0xbd45a87f	-0.048256394
132	0x3e09e954	0.13467914
133	0xbf347c46	-0.70502126
134	0xbcedb22a	-0.02901562
135	0xbd89ba53	-0.06724992
136	0x3f25eb8c	0.6481254
137	0xbf238c2a	-0.6388575
138	0xbe256ab8	-0.16153991
139	0x3dc378fe	0.09544562
140	0x3dd7b6a5	0.105328836
141	0xbeba2473	-0.36355934
142	0xbe38f3d4	-0.18061763
143	0x3e22ae45	0.15886791
144	0x3dcc561a	0.0997736
145	0xbe210d06	-0.15727624
146	0x3d53da8b	0.05172209
147	0xbd98266f	-0.074292056
148	0x3d85e01e	0.065368876
149	0x3e8397e8	0.25701833
150	0x3d9864ef	0.074411266
151	0xbd8c9ef6	-0.06866257
152	0x3e2845a3	0.16432814
153	0xbc7716e8	-0.015081145
154	0xbdbdf034	-0.09274331
155	0x3e8d25fc	0.27568042
156	0x3d0e2559	0.034703586
157	0xbe433c4c	-0.1906597
158	0xbae1d6eb	-0.0017230188
159	0x3eaf4546	0.3423254
160	0xbd6d81f8	-0.057985276
161	0x3d1b0e93	0.037855696
162	0xbf4c64dc	-0.798414
163	0x3e2ade7e	0.16686437
164	0xbd5955d7	-0.05306038
165	0xbb578369	-0.0032884723
166	0xbf3c41ca	-0.73537886
167	0x3e601fc2	0.21887115
168	0x3eb61ca6	0.35568732
169	0x3e72bcb4	0.23704797
170	0x3c23c639	0.00999599
171	0x3e02fa90	0.12790895
172	0x3ea140f1	0.3149486
173	0xbf8d6409	-1.1046153
174	0xbdbfa285	-0.0935717
175	0x3e2c5fae	0.16833374
176	0x3e932b65	0.28744045
177	0x3e6b483d	0.22976775
178	0x3dd46163	0.103701375
179	0x3dcd6e1b	0.100307666
180	0x3dc11b3e	0.09429024
181	0xbf5895c5	-0.8460353
182	0x3d796f5e	0.060897224
183	0x3c4e8cc5	0.012606804
184	0x3d866593	0.065623425
185	0xbca41798	-0.020030782
186	0x3d6cee75	0.057844598
187	0xbc1be3d7	-0.0095147705
188	0xbd4a7ee8	-0.049437433
189	0xbf26bd98	-0.6513305
190	0x3d5faea8	0.054609925
191	0x3d21a614	0.039465025
192	0x3edb13c1	0.4278851
193	0x3f7a3f9d	0.97753316
194	0x3d94bb3b	0.07262274
195	0x3de3b3fc	0.11118314
196	0xbdb76282	-0.08954336
197	0x3db2a5cd	0.0872303
198	0xbce0fc38	-0.027464017
199	0x3df19f56	0.11797969
200	0x3ebc2229	0.36744812
201	0x3f7e7e5d	0.99411565
202	0x3caba371	0.020951958
203	0x3e1426a7	0.1446787
204	0xbe52f29e	-0.20600364
205	0xbe165c65	-0.14683683
206	0x3d881586	0.0664473
207	0x3e35547b	0.17708008
208	0x3e9dd9de	0.30830282
209	0x3f5ea2c9	0.8696714
210	0x3d868741	0.065687664
211	0xbda14546	-0.07874541
212	0xbeb7edc2	-0.35923582
213	0xbf2dc2f4	-0.678756
214	0x3df9dd6a	0.122004345
215	0xbe1f7ef6	-0.15575776
216	0x3c721c69	0.014777281
217	0x3f419f82	0.75634015
218	0xbc58ddd9	-0.013236486
219	0xbe3044e6	-0.17213783
220	0xbcf95ba8	-0.030439213
221	0x3f7be704	0.98399377
222	0x3d22f4e1	0.039784316
223	0xbe33d4e9	-0.17561688
224	0x3cff984c	0.03120055
225	0x3f2f1e3a	0.684055
226	0x3c473ab4	0.012159992
227	0xbe037502	-0.12837604
228	0x3d6aeecc	0.05735664
229	0x3f1005a7	0.56258625
230	0x3b1a4b66	0.0023543476
231	0xbe50cd6a	-0.20390859
232	0xbea4285d	-0.32062045
233	0x3ede9395	0.4347197
234	0x3d3d7fa0	0.04626429
235	0xbf3e8581	-0.7442246
236	0x3ddf416a	0.109011486
237	0x3f563337	0.836719
238	0x3d0e1e76	0.03469702
239	0xbf411c7a	-0.75434077
240	0xbef3a5da	-0.47587472
241	0xbb773178	-0.0037718695
242	0xbc948663	-0.018130487
243	0x3e2f2869	0.17105259
244	0x3d7a3e7e	0.061094753
245	0xbe3d487b	-0.1848468
246	0xbc77fbc1	-0.015135706
247	0x3d5ac5d9	0.05341134
248	0xbf103fbf	-0.5634727
249	0xbcd0cfed	-0.025489772
250	0x3d0cc219	0.034364793
251	0x3e3c3e73	0.18383197
252	0x3e4ea524	0.20180184
253	0x3e2813df	0.1641383
254	0xbc3f6bfb	-0.011683459
255	0x3e464623	0.19362693

fc1.bias f4 [256]
0	0x3dfe5d27	0.12420111
1	0x3e3c43e4	0.18385273
2	0xbd827bc4	-0.06371263
3	0x3e0def9c	0.13860935
4	0xbe31a737	-0.17348944
5	0x3dd60d36	0.104517385
6	0x3db74d3a	0.08950277
7	0x3df727ca	0.12068136
8	0x3e06e7a3	0.131743
9	0x3e15b896	0.14621195
10	0x3e1464d5	0.1449159
11	0xbe2e8936	-0.1704453
12	0x3d2f00d9	0.042725418
13	0xbe3803c2	-0.17970183
14	0x3d872adc	0.06599972
15	0xbda9a7fa	-0.08283992
16	0xbdc43dfa	-0.095821336
17	0xbaff1f1b	-0.0019464226
18	0x3ce3522c	0.027749144
19	0xbe027695	-0.12740548
20	0xbe3f2e64	-0.1867004
21	0x3e34c73b	0.17654125
22	0x3d532fe2	0.051559336
23	0x3e49d992	0.19711903
24	0x3d67e518	0.056614965
25	0x3e039d54	0.12852985
26	0xbe38ca69	-0.18045963
27	0x3a0917c8	0.0005229679
28	0x3e4558f5	0.19272216
29	0xbb61a902	-0.0034433012
30	0xbda8c06d	-0.08239827
31	0x3d15eab8	0.0366008
32	0xbe156f70	-0.14593291
33	0xbe067884	-0.1313191
34	0xbde89b50	-0.113577485
35	0x3d33bbe6	0.043880366
36	0xbe2f97d4	-0.17147762
37	0x3ddb8651	0.10718978
38	0xbdcc2273	-0.09967508
39	0xbe32c227	-0.17456876
40	0xbe0b8402	-0.13624576
41	0x3c64f079	0.013973349
42	0x3dd424a7	0.103585534
43	0xbd054ece	-0.032545857
44	0xbe48f6ca	-0.19625393
45	0xba665224	-0.00087860436
46	0x3e419cd3	0.1890748
47	0xbde42b5c	-0.11141083
48	0x3cf6210c	0.030045055
49	0x3d6605a3	0.05615772
50	0xbdf7c506	-0.12098126
51	0xbe1d54f2	-0.15364435
52	0x3dc97b99	0.098380275
53	0xbdd6a692	-0.104809895
54	0x3c86747b	0.016412964
55	0x3e346462	0.17616418
56	0x3dad03d9	0.084479995
57	0x3deaaf2c	0.11459193
58	0x3e199647	0.14998733
59	0xbdc81ab9	-0.09770722
60	0x3d82f3bc	0.06394145
61	0x3e228a3b	0.15873043
62	0xbe17ff36	-0.14843449
63	0x3d721775	0.0591044
64	0xbd97833b	-0.07398077
65	0xbe314d6f	-0.17314695
66	0xbe299e4b	-0.1656429
67	0x3cef20ad	0.029190386
68	0xbe10d56a	-0.14143911
69	0x3de298a4	0.1106427
70	0xbcbc809a	-0.02301054
71	0xbd3ab8c4	-0.045586362
72	0xbe21bb17	-0.15794025
73	0x3db832ec	0.089940876
74	0xbdef2961	-0.11677814
75	0x3e164cb2	0.14677694
76	0xbbe02acb	-0.006841039
77	0xbe169b3c	-0.14707655
78	0x3e1f544c	0.155595
79	0x3e1fb34b	0.15595739
80	0xbe35c5dc	-0.17751259
81	0xbdf15d08	-0.117853224
82	0xbdb6e947	-0.08931213
83	0xbe1114ad	-0.14168043
84	0x3cad7bf4	0.02117727
85	0xbe18bc52	-0.14915588
86	0x3ddb9ce8	0.10723287
87	0xbe2c0e12	-0.16802242
88	0xbe3b1b3f	-0.18272112
89	0x3baf8b4a	0.0053571807
90	0xbb70269c	-0.0036644107
91	0x3d33a38a	0.043857135
92	0xbe2c29db	-0.16812842
93	0x3e39b97d	0.18137164
94	0xbe294004	-0.16528326
95	0x3e1eb2d4	0.15497905
96	0x3e3e54c5	0.18587025
97	0x3d594c88	0.0530515
98	0x3d3d8064	0.04626502
99	0xbde45f7f	-0.11151027
100	0x3d814268	0.06311494
101	0x3e2cd122	0.16876653
102	0xbe3300ad	-0.17480727
103	0x3e32e0f5	0.17468627
104	0xbdc0315e	-0.09384416
105	0x3d41e69f	0.047339078
106	0x3dcce399	0.10004348
107	0x3c22fe66	0.009948349
108	0xbdf80170	-0.12109649
109	0xbdf81021	-0.12112451
110	0x3c273670	0.01020585
111	0xbde5f568	-0.11228448
112	0xbe1f2072	-0.1553972
113	0xbe449b35	-0.19199832
114	0x3e4dd630	0.20101237
115	0xbe3e8f2f	-0.18609308
116	0xbe1134cb	-0.14180295
117	0x3dab4fef	0.083648555
118	0x3e06e1f8	0.13172138
119	0x3e48b868	0.19601595
120	0x3da7968c	0.081830114
121	0x3e3a42be	0.18189523
122	0xbde9de54	-0.11419359
123	0x3d91f0dc	0.071260184
124	0x3cf3e4cc	0.029772185
125	0xbe3d8987	-0.18509494
126	0x3e393ec5	0.18090351
127	0x3d8c0388	0.06836611
128	0x3dd08356	0.101813
129	0x3de58221	0.11206461
130	0x3d853bf2	0.06505574
131	0xbdd96d48	-0.10616547
132	0x3dfee91c	0.12446806
133	0x3c7aac45	0.015299861
134	0xbdce837c	-0.100836724
135	0x3dedf269	0.11618502
136	0xbbee2653	-0.007267752
137	0x3d1514fd	0.03639697
138	0x3e0a236b	0.13490073
139	0x3e1fb7d1	0.15597464
140	0xbc816f53	-0.015800154
141	0x3bd9661d	0.0066344873
142	0x3c5e0423	0.013550791
143	0x3dc95ca3	0.09832122
144	0x3d9df58b	0.07712849
145	0x3e03ca46	0.1287013
146	0xbd7c8815	-0.061653215
147	0xbdc346c9	-0.095349856
148	0xbd426638	-0.047460765
149	0x3df35083	0.11880591
150	0x3e297650	0.16549039
151	0xbdb24bcf	-0.087058656
152	0x3dd656a5	0.10465745
153	0x3e49d17d	0.1970882
154	0x3e14369c	0.14473957
155	0x3c8f668b	0.017504951
156	0xbd1c9a4d	-0.03823309
157	0x3e4c790c	0.1996805
158	0x3d8d0345	0.06885389
159	0xbd9c78fc	-0.076402634
160	0x3d39033a	0.045169093
161	0xbde99d72	-0.114069834
162	0xbde1100e	-0.1098939
163	0x3e315235	0.17316516
164	0x3ddf2327	0.10895377
165	0xbe11ac23	-0.14225821
166	0xbd10d2eb	-0.035357397
167	0xbcaab554	-0.020838417
168	0xbdcf9028	-0.101349175
169	0xbde6a84b	-0.11262568
170	0x3df84fc5	0.1212459
171	0x3e0807bb	0.13284199
172	0xbd939efe	-0.0720806
173	0xbe495af1	-0.19663598
174	0x3e1abff6	0.1511229
175	0xbe015d85	-0.12633331
176	0xbc7638e7	-0.015028215
177	0xbdd57b83	-0.104239486
178	0xbda57e4d	-0.080807306
179	0x3e08e841	0.13369848
180	0x3e2a150e	0.16609594
181	0xbdca1a38	-0.09868282
182	0x3e1c5795	0.15267785
183	0xbdfa8eaf	-0.12234246
184	0xbe2c17fc	-0.16806024
185	0x3d5f6cf2	0.054547258
186	0xbc5a1920	-0.013311654
187	0x3dd794a3	0.10526397
188	0x3e165be6	0.14683494
189	0xbd9b3598	-0.075785816
190	0x3d27d194	0.040971354
191	0x3d948bfd	0.07253263
192	0x3bfeef43	0.007779987
193	0xbd00cab8	-0.031443328
194	0x3d66996c	0.05629866
195	0xbe2fac46	-0.17155561
196	0xbc79393d	-0.015211401
197	0xbe010d0e	-0.12602636
198	0xbe454d05	-0.19267662
199	0x3e2e1434	0.16999894
200	0xbe0961c6	-0.13416204
201	0xbdac2356	-0.08405177
202	0x3e2fb457	0.17158638
203	0xbdfe3a99	-0.1241352
204	0xbcf2e418	-0.02964978
205	0x3e2df4e5	0.16987951
206	0x3db82c5d	0.089928366
207	0x3ddcdcf5	0.10784332
208	0x3d86455c	0.06556198
209	0xbca78dd4	-0.020453371
210	0x3e215173	0.15753727
211	0x3e3109a9	0.17288841
212	0xbca5f5ff	-0.020258902
213	0xbd8bd60f	-0.06827938
214	0xbdb29d9c	-0.08721468
215	0x3cb42ba6	0.02199347
216	0xbe214384	-0.15748411
217	0xbe37032e	-0.17872307
218	0xbe4d3c72	-0.2004259
219	0x3dbe0354	0.092779785
220	0x3d1edc63	0.038784396
221	0x3db5ba17	0.088733844
222	0xbc2cc764	-0.010545585
223	0xbdf8da54	-0.12151018
224	0x3ccb866f	0.024844376
225	0xbcc4998f	-0.023999004
226	0xbd79d083	-0.060989868
227	0x3e029e62	0.12755731
228	0xbda30e8b	-0.07961758
229	0x3cc110f9	0.023567664
230	0xbdcd378c	-0.1002036
231	0xbbbac9b5	-0.005700315
232	0x3c215e32	0.009849118
233	0xbdf8d473	-0.121498965
234	0x3dbbbdfb	0.09167095
235	0xbd1bc870	-0.03803295
236	0xbe139837	-0.14413534
237	0x3e0acaf0	0.13553977
238	0xbdc28df0	-0.09499729
239	0x3e403313	0.18769483
240	0xbd2f8fe2	-0.042861827
241	0x3e3b3faa	0.18286005
242	0xbe107ea3	-0.14110808
243	0xbd83ee6f	-0.06441962
244	0x3e4628a0	0.19351435
245	0xbcfa0850	-0.030521542
246	0xbdb3da5b	-0.087818824
247	0x3d987213	0.07443633
248	0xbe1193e7	-0.14216577
249	0x3dff87f4	0.12477103
250	0xbd904a19	-0.07045383
251	0x3e32736d	0.17426844
252	0x3e1139d0	0.1418221
253	0x3e32164b	0.17391317
254	0xbd179bac	-0.037013695
255	0xbd0997c7	-0.03359201

bn1.weight f4 [256]
0	0x3f0a0333	0.5391113
1	0x3f2d51e1	0.6770306
2	0x3d85d620	0.06534982
3	0x3f0d4453	0.5518238
4	0x3f329ed6	0.69773614
5	0x3e3abc51	0.182359
6	0x3f3a51d6	0.7278112
7	0x3f2dfd75	0.6796487
8	0x3f49bf17	0.78807205
9	0x3f4e1a89	0.8050924
10	0x3f67a117	0.9048018
11	0x3fd442fe	1.6582944
12	0x3ec79c09	0.38986233
13	0x3f67dee2	0.9057447
14	0x3d08d206	0.03340342
15	0x3eb22898	0.34796596
16	0x3b633ada	0.003467253
17	0x3f33d5fb	0.70248383
18	0x3f8d24b7	1.102683
19	0x3f6a005a	0.91406786
20	0x3b42c8c5	0.0029721719
21	0x3f5a07d1	0.85168177
22	0x3ecd42ce	0.4009003
23	0x3f03e02a	0.5151392
24	0x3f05e70e	0.52305686
25	0x3b9a138b	0.0047020367
26	0x3fc18b72	1.512068
27	0x3f9b2de0	1.2123375
28	0x3ed311c6	0.41224498
29	0x3f0cc1ce	0.5498322
30	0x3f090044	0.5351603
31	0x3f2c51f0	0.67312527
32	0x3e697bbd	0.22801109
33	0x3f77e28e	0.9683007
34	0x3f57c596	0.8428587
35	0x3f2fa465	0.6861022
36	0x3ece9226	0.40345877
37	0x3ee25fdb	0.44213757
38	0x3f725faf	0.9467725
39	0x3f4201a5	0.7578376
40	0x3f86b2d6	1.0523326
41	0x3f362c38	0.7116122
42	0x3f734d34	0.9503968
43	0xbe4838a9	-0.19552864
44	0x3ec49a9e	0.38399214
45	0x3f9b3e37	1.2128361
46	0x3f456228	0.771029
47	0x3f5502b4	0.8320725
48	0x3e4e53c1	0.20149137
49	0x3f12bce3	0.5731947
50	0x3fa48846	1.2854087
51	0x3f1845e9	0.59481674
52	0x3f450e0f	0.76974577
53	0x3f9137f3	1.1345199
54	0x3f23e55f	0.6402187
55	0x3f603609	0.8758245
56	0x3f342a81	0.70377356
57	0x3d7635ca	0.06010989
58	0x3ed53a01	0.41645816
59	0x3f80a63e	1.0050733
60	0x3ea63b62	0.3246718
61	0x3fc2ed5b	1.5228685
62	0x3f48afe9	0.7839342
63	0x3f12e21e	0.5737628
64	0x3ec2732e	0.379785
65	0x3f70c4aa	0.94050086
66	0x3d132f39	0.035933707
67	0x3e9e480c	0.30914342
68	0x3eb0ef8f	0.3455777
69	0x3ed4a9b1	0.41535714
70	0x3f0fd249	0.56180245
71	0x3ebae511	0.3650289
72	0x3f58970d	0.84605485
73	0x3ea18bd4	0.31551993
74	0x3d1d373b	0.03838275
75	0x3f280b65	0.65642387
76	0x3ee54366	0.44777983
77	0x3f026e6f	0.5094976
78	0x3c95bfdf	0.018279968
79	0x3f1a7bc4	0.603451
80	0x3f17bace	0.59269416
81	0x3f11cedf	0.56956285
82	0x3ec627fb	0.38702378
83	0x3ee816ee	0.45329994
84	0x3f045fc0	0.517086
85	0x3f4eaa21	0.80728346
86	0x3f9ad946	1.2097557
87	0x3ea5e94e	0.3240456
88	0x3f18ce57	0.5968985
89	0x3f5b3c9d	0.85639364
90	0x3ef4b423	0.47793683
91	0x3f298e58	0.66232824
92	0x3f0dbc27	0.5536522
93	0x3fa02e78	1.2514181
94	0x3ea5ccb3	0.32382736
95	0x3e5452db	0.20734732
96	0x3f204395	0.6260312
97	0x3f4b8b05	0.79509
98	0x3f9ca7c2	1.2238696
99	0x3eb8ec33	0.36117706
100	0x3ad4540f	0.0016199368
101	0x3f5956e6	0.8489822
102	0x3f1d2941	0.61391073
103	0x3f428a61	0.759924
104	0x3f04012a	0.51564276
105	0x3fccc700	1.599823
106	0x3e9ab1eb	0.30213866
107	0x3f1f754a	0.62288344
108	0xbb383063	-0.0028105013
109	0x3f05d17f	0.5227279
110	0x3fecae31	1.8490659
111	0x3bd0ed2f	0.0063759307
112	0x3fa42559	1.2823898
113	0x3facb6d4	1.3493295
114	0x3f606acf	0.87662977
115	0x3f14b89d	0.580942
116	0x3efd45c5	0.49467292
117	0x3f37329a	0.71561587
118	0x3e7d31a6	0.2472597
119	0xbb050518	-0.0020297226
120	0x3f59e577	0.8511576
121	0x3c68d0d8	0.0142099485
122	0x3e7ea61a	0.2486805
123	0x3e8771fd	0.26454154
124	0x3f432a51	0.76236445
125	0x3f175804	0.59118676
126	0x3f4fc139	0.8115421
127	0x3f59a55e	0.85017955
128	0x3f8b31ff	1.0874633
129	0x3f1bb3a8	0.6082101
130	0x3f82af50	1.0209751
131	0x3f95e3ef	1.1710185
132	0x3f6ef993	0.9334957
133	0x3ef21320	0.47280216
134	0x3f619db0	0.8813124
135	0x3f5a0984	0.8517077
136	0x3f2065f5	0.62655574
137	0x3f382cbe	0.7194327
138	0x3e88a4fe	0.2668838
139	0x3f5bf5f6	0.8592218
140	0x3f433f9f	0.76268953
141	0x3c86ac73	0.016439652
142	0x3f2106c8	0.6290097
143	0x3f0a341b	0.53985757
144	0x3eea04e2	0.4570685
145	0x3f1ee50d	0.62068254
146	0x3f8a3139	1.0796272
147	0x3f3b930d	0.73271257
148	0x3e92e1a3	0.28687772
149	0x3eb42e44	0.35191548
150	0x3f4b0083	0.79297656
151	0x3f843639	1.0329047
152	0x3f2924a7	0.6607155
153	0x3fa5e32f	1.2959956
154	0x3f32075e	0.6954249
155	0x3f1c7f68	0.61131907
156	0x3eaf399a	0.34223634
157	0x3ec4db94	0.38448775
158	0x3f5ee472	0.8706733
159	0x3ee71275	0.4513127
160	0x3f242aa5	0.6412757
161	0x3f2eca58	0.682775
162	0x3f3212eb	0.69560117
163	0x3f5dbb71	0.8661414
164	0x3f115074	0.56763387
165	0x3ee0c579	0.4390066
166	0x3ef8802a	0.4853528
167	0x3ef4e000	0.47827148
168	0x3f79143d	0.97296506
169	0x3f23b9c7	0.6395535
170	0x3f31299f	0.69204134
171	0x3f3268a0	0.69690895
172	0x3f260af3	0.6486046
173	0x3f2b77ec	0.6697986
174	0x3f40d6e9	0.75327927
175	0x3f518047	0.8183636
176	0x3b611bc2	0.003434882
177	0x3f90e38d	1.1319443
178	0x3f302895	0.68811923
179	0x3fccaab8	1.5989599
180	0x3fa16909	1.2610179
181	0x3f291457	0.6604666
182	0x3f228ba1	0.63494307
183	0x3f0046a3	0.50107783
184	0x3f6d0790	0.92589664
185	0xbb543d96	-0.003238534
186	0x3f2f2481	0.68415076
187	0x3f20bfc2	0.627926
188	0x3f08a990	0.5338373
189	0x3f748f1a	0.95530856
190	0x3f18e02c	0.5971706
191	0x3f207701	0.62681586
192	0x3f5dee5c	0.8669183
193	0xbb55b8e8	-0.0032611433
194	0x3facd874	1.3503556
195	0x3f327a01	0.69717413
196	0x3f285b44	0.6576426
197	0x3f161bab	0.5863597
198	0x3f6b249d	0.9185274
199	0x3e915115	0.28382173
200	0xb9d00a1c	-0.00039680384
201	0x3f2fc355	0.6865743
202	0x3f43979e	0.76403224
203	0x3ed2522e	0.41078323
204	0xbc063b28	-0.008192815
205	0x3f53f3bc	0.82793784
206	0x3ed95e88	0.42454934
207	0x3f006cd0	0.50166035
208	0xbc7ea234	-0.015541602
209	0x3f3c3af9	0.73527485
210	0x3fc6af2d	1.552221
211	0x3f92ff20	1.1484108
212	0x3f42e218	0.7612624
213	0x3f38dd8d	0.7221306
214	0x3bd378ab	0.0064535937
215	0x3f8093ca	1.0045102
216	0x3f8c3048	1.0952234
217	0x3f2f9708	0.6858983
218	0x3eb44897	0.35211632
219	0x3f24bed8	0.64353704
220	0x3fb11c93	1.3836845
221	0x3ba5801f	0.0050506736
222	0x3f40760e	0.7518014
223	0x3ed38686	0.4131357
224	0x3e9d277c	0.30694187
225	0x3f185cfb	0.59516877
226	0x3f486904	0.7828524
227	0x3ed439b8	0.41450286
228	0x3f3df3fe	0.7420043
229	0x3f590dd3	0.8478672
230	0xba1c32a1	-0.0005958472
231	0x3f4706bd	0.77744657
232	0x3f3be9b4	0.7340348
233	0x3d47f01c	0.04881297
234	0x3f22056b	0.6328952
235	0x3f81b674	1.0133805
236	0x3f0ed3cc	0.55791926
237	0x3f4718c1	0.77772146
238	0x3f7595cb	0.9593169
239	0x3f288eae	0.6584271
240	0x3f5e8765	0.86925346
241	0x3cb5225f	0.022111116
242	0xbe83c408	-0.25735497
243	0x3f30ac22	0.69012654
244	0x3f2bd428	0.671206
245	0x3f77e261	0.968298
246	0x3f825c26	1.0184371
247	0xbe49a9f7	-0.19693743
248	0x3f7aee4a	0.9801985
249	0x3f8c0e78	1.0941916
250	0x3f87a14c	1.0596099
251	0x3f44c3f9	0.7686153
252	0x3f2573f6	0.6463007
253	0x3f12876e	0.572379
254	0x3f046caa	0.5172831
255	0x3e94d919	0.29071882

bn1.bias f4 [256]
0	0xbe56e974	-0.20987493
1	0xbe94dbe5	-0.29074016
2	0xbe18cfe7	-0.14923058
3	0xbe914ca1	-0.28378776
4	0xbec18f94	-0.37804854
5	0x3e8ca4d4	0.27469504
6	0xbf0c9238	-0.5491061
7	0xbf5d1806	-0.8636478
8	0xbf1090dd	-0.56471044
9	0xbefc5946	-0.4928686
10	0xbee27e6f	-0.44237086
11	0xbdacb3cc	-0.08432731
12	0xbe070684	-0.1318608
13	0xbf21e518	-0.63240194
14	0xbe0f3810	-0.1398623
15	0xbecf8075	-0.40527692
16	0xbcf0d4b4	-0.0293983
17	0xbf01b586	-0.5066761
18	0x3e792e6b	0.24334113
19	0xbf09f866	-0.5389465
20	0xbc7338ed	-0.014845115
21	0x3d1a0660	0.037603736
22	0xbea9e3ee	-0.3318171
23	0xbe73efbb	-0.23821919
24	0xbf12355f	-0.5711269
25	0xbd5f5117	-0.054520693
26	0xbd421de5	-0.04739179
27	0xbe815412	-0.25259453
28	0xbea68ae5	-0.32527843
29	0xbf252d38	-0.64522123
30	0xbf142b59	-0.57878643
31	0xbf0ffdab	-0.5624644
32	0xbe6fdbc9	-0.23423685
33	0xbdd3c933	-0.1034111
34	0xbdb3339b	-0.08750077
35	0xbe4d5575	-0.2005213
36	0xbea21823	-0.3165904
37	0x3edf710f	0.43640944
38	0xbf08df32	-0.5346557
39	0xbece6349	-0.40310124
40	0xbe2f55f1	-0.17122628
41	0xbe4fedd0	-0.20305562
42	0xbeae76bc	-0.34074962
43	0xbe68d810	-0.22738671
44	0xbeda2812	-0.42608696
45	0xbd8a28ed	-0.06746087
46	0xbcff3b05	-0.031156072
47	0xbf2a17c4	-0.66442513
48	0xbdbe8d03	-0.093042396
49	0xbf1e0911	-0.61732584
50	0xbb44152d	-0.0029919848
51	0xbf04948b	-0.5178916
52	0xbedf2328	-0.4358151
53	0xbdca9728	-0.09892112
54	0xbef34a3b	-0.4751757
55	0xbe8cdf2e	-0.27514023
56	0x3e9aee20	0.302598
57	0xbe10008a	-0.14062706
58	0xbe294151	-0.16528822
59	0xbd652f58	-0.055953354
60	0xbe461e13	-0.1934741
61	0xbe3e56fc	-0.1858787
62	0xbe89a21e	-0.26881498
63	0xbea98073	-0.3310581
64	0xbe0b7912	-0.13620403
65	0xbe982f9e	-0.2972383
66	0x3ec3c365	0.38235012
67	0xbe93f52e	-0.28897995
68	0xbd5dea58	-0.054178566
69	0xbf1bbe8c	-0.60837626
70	0xbe7a8869	-0.24466099
71	0xbeddee3c	-0.4334582
72	0xbec2a579	-0.3801687
73	0xbdba8d66	-0.09109001
74	0x3e284652	0.16433075
75	0xbe99e9a9	-0.3006108
76	0xbed6b593	-0.41935405
77	0xbe50fa4e	-0.20407984
78	0xbda83772	-0.082137
79	0xbf295bd4	-0.66155744
80	0xbed1c987	-0.40974066
81	0xbe9b743e	-0.30362123
82	0xbeb180c2	-0.34668547
83	0xbe48a0ea	-0.19592634
84	0xbf2c94ac	-0.67414355
85	0xbeddbf27	-0.433099
86	0xbdb7dc21	-0.08977533
87	0xbe5a239f	-0.21302651
88	0xbe883d8f	-0.26609465
89	0xbe9fcb89	-0.31209973
90	0xbedfd259	-0.4371517
91	0xbf23fe07	-0.6405949
92	0xbf0be3a4	-0.5464423
93	0xbe745549	-0.23860659
94	0xbedfb6ee	-0.43694252
95	0xbe357efe	-0.17724225
96	0x3bd9c623	0.006645934
97	0xbd6c9b6e	-0.057765417
98	0xbf09d77a	-0.53844416
99	0xbeb0a709	-0.34502438
100	0xbc65ee77	-0.014033905
101	0xbe7d640a	-0.24745193
102	0xbe5bcc0e	-0.2146456
103	0x3ce763ab	0.028245768
104	0xbedb6c5a	-0.42856103
105	0xbe4ba29b	-0.19886248
106	0xbe0739e0	-0.13205671
107	0xbe880e1b	-0.26573262
108	0xbc4e4fcb	-0.012592266
109	0xbec48d21	-0.38388923
110	0xbe5b6a75	-0.21427329
111	0xbda40679	-0.08009047
112	0xbe57403d	-0.21020599
113	0xbeaad7eb	-0.33367857
114	0xbebb86cf	-0.36626288
115	0xbeb5c5d2	-0.35502487
116	0xbee0ef67	-0.4393265
117	0xbe3ccad4	-0.18436748
118	0xbf12c0c8	-0.5732541
119	0xbc55ab25	-0.013041292
120	0xbe3e37d1	-0.1857598
121	0xbd85135b	-0.064978324
122	0x3ebbfbd8	0.3671558
123	0xbec16f75	-0.37780347
124	0xbee0243d	-0.43777648
125	0x3e894183	0.26807794
126	0xbf00fe08	-0.5038762
127	0xbe12cab8	-0.14335144
128	0xbd253dfc	-0.040342316
129	0xbeea38cf	-0.45746467
130	0xbebe6f4f	-0.37194297
131	0xbf597308	-0.8494115
132	0xbdca99d7	-0.09892624
133	0xbe87a6bb	-0.26494393
134	0xbed5888c	-0.4170574
135	0xbf1b30f0	-0.6062155
136	0xbe9aa128	-0.30201077
137	0xbc6a3d3e	-0.014296828
138	0x3e5dcc9d	0.21660085
139	0xbebbf656	-0.36711377
140	0xbf17bcdc	-0.5927255
141	0xbd430864	-0.047615424
142	0xbe211e25	-0.15734155
143	0xbedd2f60	-0.43200207
144	0xbdcdba2e	-0.100452766
145	0xbf21bdf9	-0.631805
146	0xbefc117c	-0.4923209
147	0xbef18496	-0.47171468
148	0xbeb939f3	-0.36177024
149	0xbe109dc1	-0.14122678
150	0xbed2f2bf	-0.41200826
151	0xbecf67cb	-0.40508875
152	0xbe84aa20	-0.25911045
153	0xbee51ad5	-0.44747034
154	0xbf09533a	-0.5364262
155	0xbf01194a	-0.50429213
156	0xbeab2923	-0.33429822
157	0xbedfbec7	-0.4370024
158	0xbe039195	-0.12848504
159	0x3e90b4d2	0.28262955
160	0xbf2bdd56	-0.67134607
161	0xbe48955c	-0.19588226
162	0x3e2731ae	0.16327545
163	0xbf048500	-0.5176544
164	0xbe9ee105	-0.3103105
165	0xbea81f75	-0.328365
166	0xbe83f8d5	-0.2577578
167	0xbe9e1c07	-0.30880758
168	0xbe86c92c	-0.26325357
169	0xbe3f668c	-0.18691462
170	0xbeb1d1eb	-0.34730467
171	0xbebea398	-0.37234187
172	0xbeda0251	-0.42579892
173	0xbf2347d3	-0.6378147
174	0xbee5eb84	-0.44906247
175	0xbdccbccc	-0.09996948
176	0xbc29fcd9	-0.010375225
177	0xbeabf47d	-0.33584967
178	0xbf04bf14	-0.5185406
179	0x3dc6dac2	0.097096935
180	0xbed1ec92	-0.410008
181	0xbf1ab05e	-0.60425365
182	0xbd8b360c	-0.06797418
183	0xbeaf1e3f	-0.34202763
184	0xbea9fce4	-0.33200753
185	0x3e9525d5	0.29130426
186	0xbd3629ed	-0.044473577
187	0xbefb7ff4	-0.49121058
188	0xbd9c8da5	-0.07644204
189	0xbf280ae4	-0.6564162
190	0xbed48870	-0.41510344
191	0xbf13ac5e	-0.57684886
192	0xbec19736	-0.37810677
193	0xbd06cbce	-0.032909207
194	0xbeae5e29	-0.34056213
195	0xbe95b2bf	-0.29237935
196	0xbe8d98de	-0.2765569
197	0x3c43380f	0.011915221
198	0xbf4eb2be	-0.8074149
199	0x3cb17b2c	0.021665178
200	0xbcb6aba5	-0.022298643
201	0xbebb8b85	-0.36629882
202	0xbf47b869	-0.7801576
203	0xbe2adbd7	-0.16685425
204	0xbd1cb876	-0.038261853
205	0xbefeba52	-0.49751526
206	0xbef66a3a	-0.4812792
207	0x3de5bfe2	0.11218239
208	0xbd25cadc	-0.040476665
209	0xbf2e3d8f	-0.6806268
210	0xbddf610d	-0.10907183
211	0xbe948e35	-0.29014745
212	0x3d31619e	0.043305986
213	0xbeda9792	-0.42693764
214	0x3e33696e	0.17520687
215	0x3d8aa9b1	0.06770647
216	0xbc481e33	-0.012214231
217	0xbe10098d	-0.14066143
218	0xbe85db1f	-0.2614374
219	0xbedd6257	-0.4323909
220	0xbe627b4e	-0.2211735
221	0xbc4d50b6	-0.01253145
222	0xbed807d6	-0.42193478
223	0xbeb9ff98	-0.36327815
224	0x3e03be31	0.12865521
225	0xbedbdab0	-0.42940283
226	0xbe5065c4	-0.2035132
227	0xbec11453	-0.3771082
228	0xbf5464f1	-0.82966524
229	0x3cc69ed2	0.024245653
230	0xbbe4de03	-0.0069844737
231	0xbefc3ac9	-0.492636
232	0xbe5fa42b	-0.21839969
233	0x3e63c855	0.2224439
234	0xbeb26eff	-0.34850308
235	0xbe96729c	-0.29384315
236	0xbeebaa42	-0.46028334
237	0xbed21e58	-0.41038775
238	0xbf69479f	-0.9112491
239	0xbd3851a1	-0.044999722
240	0xbe48f923	-0.19626288
241	0xbd932a32	-0.071857825
242	0xbe0bcd7c	-0.13652605
243	0xbdde07af	-0.10841309
244	0xbf003a3c	-0.5008886
245	0xbd55cc46	-0.052196763
246	0xbe9ac6aa	-0.30229694
247	0x3d9f2d3b	0.07772299
248	0xbe58f694	-0.21187812
249	0xbe0836d1	-0.13302161
250	0x3e6042e8	0.21900523
251	0xbf0d7cea	-0.5526873
252	0xbe8de15a	-0.27710992
253	0xbeab90eb	-0.33509
254	0xbeefb996	-0.46821278
255	0xbe88d144	-0.26722157

bn1.running_mean f4 [256]
0	0x41321536	11.130178
1	0xbec28075	-0.3798863
2	0x3f415819	0.7552505
3	0x3f9f65f3	1.2452987
4	0xbf8be227	-1.0928391
5	0xc1725d1f	-15.147735
6	0xc14cd0f9	-12.801019
7	0xc1337e58	-11.218346
8	0xc0da2909	-6.817509
9	0x411f4dd7	9.956504
10	0x40c5dba2	6.1830606
11	0xbfb48145	-1.410195
12	0x4160e3a7	14.055579
13	0x4082eadf	4.091171
14	0xc0493793	-3.144017
15	0xc02a303f	-2.6591947
16	0x3f3b7c54	0.73236585
17	0xbfe2f242	-1.7730181
18	0xc16abf7a	-14.671747
19	0xc10e0d7a	-8.87829
20	0x3fe3e5bf	1.7804488
21	0xbec70b88	-0.38875985
22	0xc0a1665d	-5.0437455
23	0x4000254f	2.0022771
24	0xc0c727ae	-6.2235937
25	0xbfd866d9	-1.6906387
26	0x3fad77a0	1.3552132
27	0x40da3719	6.819226
28	0x4171135a	15.0672245
29	0xc1878151	-16.938143
30	0x412deb19	10.869897
31	0x40e5071f	7.1571193
32	0x3f8173b6	1.0113437
33	0xc0c5349d	-6.1626725
34	0xc00885a2	-2.1331563
35	0x40aef1fc	5.467039
36	0xc13269cd	-11.15083
37	0xc0af4cf3	-5.478143
38	0xc0a9e563	-5.3092513
39	0x4126022b	10.375529
40	0xbf92b286	-1.1460731
41	0xc107be97	-8.484031
42	0x3f79b782	0.97545636
43	0x40b80ca7	5.7515445
44	0xc0f1ca7b	-7.555967
45	0xc135411f	-11.328399
46	0xc0948939	-4.641751
47	0xbfdf6906	-1.7453926
48	0x408d714a	4.420079
49	0x4112062a	9.126505
50	0x40105746	2.2553267
51	0xc141a43e	-12.102598
52	0x3f5ade88	0.85495806
53	0x416b525f	14.70761
54	0x40e74f76	7.22845
55	0xc0cb2390	-6.348091
56	0x3f02a021	0.5102559
57	0x403a2f94	2.909154
58	0x40ff74e0	7.983017
59	0x3eceda61	0.40400985
60	0x3fe84eb9	1.8149024
61	0x3f4852cf	0.78251356
62	0x40ef00c5	7.468844
63	0xc0fc8d1e	-7.892226
64	0x4146e866	12.431738
65	0x3f26f5f8	0.6521907
66	0xc03119c7	-2.7671983
67	0xc0c8fe15	-6.281016
68	0xbf0ab40e	-0.5418099
69	0xbfa158cc	-1.2605224
70	0x401d0ae9	2.453791
71	0x3f533b27	0.82512134
72	0x4103d3ac	8.239178
73	0x3fdc1fa9	1.7197162
74	0xc00fb29a	-2.245276
75	0xc0e3a2ef	-7.1136394
76	0x3fd12fbe	1.6342695
77	0xc1299b60	-10.600433
78	0x3ecbc772	0.39800602
79	0xc0a5bdc8	-5.1794167
80	0x3f9c3908	1.2204905
81	0xbec20bb2	-0.37899548
82	0xc0831f15	-4.097544
83	0xc0d08a53	-6.5168853
84	0xc0be6010	-5.9492264
85	0x40c92150	6.2853165
86	0xc0035ebb	-2.052657
87	0x40dacd0d	6.8375306
88	0x4102b300	8.168701
89	0x4040f078	3.014677
90	0x40ed2eeb	7.4119773
91	0x40649d2b	3.5720928
92	0xbf3e59e9	-0.7435594
93	0x408e2522	4.442033
94	0xc11e69f9	-9.900872
95	0xc15daf4c	-13.855297
96	0xc1147778	-9.279167
97	0xc0cab40d	-6.334479
98	0x411c611a	9.773706
99	0x403cbca3	2.9490135
100	0x40937b46	4.608798
101	0x414613ba	12.379816
102	0x3f36bbe8	0.7138047
103	0xc0e7e510	-7.2467117
104	0x40b9c80b	5.8056693
105	0x40c08795	6.0165505
106	0xbea80ead	-0.32823697
107	0x4092c028	4.5859566
108	0xbff30f83	-1.8989109
109	0x4097dc38	4.745632
110	0xbfaa7411	-1.3316671
111	0x3fc8dbd6	1.5692089
112	0x4056af30	3.3544426
113	0xbf93a545	-1.1534811
114	0x415ac9cd	13.674268
115	0xc10c7b5e	-8.780119
116	0x40bc94ad	5.893149
117	0xbf3975f5	-0.72445613
118	0x4112f75b	9.1853895
119	0x3f9f9dfa	1.2470086
120	0x40b06e74	5.513483
121	0x402176fb	2.522887
122	0xc0df23a2	-6.9730997
123	0x402311ae	2.547954
124	0xc19dbb33	-19.716406
125	0x411bfc1d	9.749051
126	0x416435c5	14.263127
127	0xc0cbbf6c	-6.367117
128	0x3fd3db82	1.6551363
129	0x41389872	11.537218
130	0xc0750e6e	-3.8290057
131	0x40e35c41	7.1050115
132	0xbda64043	-0.08117726
133	0xbfcd4fcd	-1.6039978
134	0xc13c57a3	-11.771396
135	0x3fb08613	1.3790916
136	0x40cd8464	6.422411
137	0x402eac8d	2.7292817
138	0xc1444803	-12.267581
139	0x4121995d	10.099942
140	0x409b841b	4.859876
141	0x3f5f689c	0.87268996
142	0x4144e03d	12.304746
143	0x41209973	10.037463
144	0xc151a88f	-13.103652
145	0x40d83419	6.7563596
146	0xc0d583c9	-6.672337
147	0xc1491f5c	-12.570156
148	0xc1266f13	-10.402118
149	0x3f9c13e8	1.2193575
150	0x412403c5	10.25092
151	0xbe930dea	-0.28721553
152	0xc0339b24	-2.806344
153	0xc14a2022	-12.632845
154	0x40975c55	4.730021
155	0x3efb27ba	0.49053746
156	0xbf8d2832	-1.1027892
157	0xc00659cf	-2.0992315
158	0xc1049260	-8.285736
159	0xc1672f05	-14.448979
160	0xc1698e12	-14.597185
161	0xc0c9f60c	-6.311285
162	0xc0263aa4	-2.5973291
163	0x4134cf10	11.300552
164	0xbee111aa	-0.4395879
165	0x412c674f	10.775222
166	0x41467272	12.402941
167	0xc131d221	-11.113801
168	0x408f270c	4.4735165
169	0xc0bc8547	-5.891269
170	0xc1567955	-13.404622
171	0xc14ce1a6	-12.80509
172	0x41100ee3	9.003634
173	0xc10a334c	-8.637524
174	0x40c66ac7	6.2005343
175	0xbfd6ca94	-1.6780572
176	0xc05b8d1a	-3.4304872
177	0xc01328d3	-2.2993667
178	0x414777fc	12.466793
179	0xc0359433	-2.8371704
180	0x4126cf5e	10.425627
181	0x405d6e1c	3.4598455
182	0xc0b8c400	-5.773926
183	0x4008082b	2.1254985
184	0x408ef024	4.466814
185	0xc092bc9e	-4.5855246
186	0xbf55fad2	-0.83585846
187	0x3f6ad37d	0.91728956
188	0xc101f177	-8.121451
189	0xc054146f	-3.3137472
190	0x413b819e	11.719145
191	0xc14b1b5c	-12.69418
192	0x4008d506	2.138002
193	0xbf3fee55	-0.7497304
194	0xc0697796	-3.647924
195	0xc05ccbc9	-3.449938
196	0x3ff5c8ea	1.9201939
197	0xc0980a97	-4.7512927
198	0x40b42c11	5.630379
199	0xc068d852	-3.6382031
200	0x4027b1e9	2.6202338
201	0x3f7bb900	0.9832916
202	0x411bf1ce	9.746534
203	0x40d2c716	6.5868025
204	0x3fa8419b	1.3145021
205	0xc036436b	-2.8478649
206	0xbd2fa685	-0.042883415
207	0xbfd478bf	-1.6599349
208	0xc0644021	-3.566414
209	0x40a30583	5.094423
210	0x3f7fab15	0.99870425
211	0x40bea5eb	5.9577537
212	0xc0e957fc	-7.2919903
213	0xc00f0252	-2.2345166
214	0x40084f99	2.1298583
215	0xbd1d8dc9	-0.038465295
216	0xc181532c	-16.165611
217	0x413ba04a	11.726633
218	0x40eeb295	7.4592996
219	0x4111896b	9.096049
220	0xc0a319a4	-5.09688
221	0x3fef6d4e	1.8705232
222	0xc0ea6ab3	-7.325525
223	0x3e3b2f36	0.18279728
224	0xc12b56d7	-10.708701
225	0x41803cb7	16.029646
226	0x40862eaf	4.1931987
227	0x402271ff	2.5382078
228	0x3ff615ca	1.92254
229	0xc08e3609	-4.444096
230	0x3f5b21a5	0.8559821
231	0xc0800f57	-4.0018725
232	0xc0de6ee7	-6.951038
233	0x3fe86c7e	1.8158109
234	0x411600ba	9.375177
235	0x3fa86433	1.3155578
236	0x4117e1ed	9.492658
237	0xc16b3b29	-14.701943
238	0x409eca02	4.962159
239	0x40d0490f	6.5089183
240	0x40c27d3e	6.0777884
241	0xc00c0c4b	-2.1882503
242	0xc02cef89	-2.70212
243	0x40cd82f3	6.422235
244	0x413bb45a	11.731531
245	0xc015f235	-2.3429081
246	0x40fe4181	7.945496
247	0x41141011	9.253922
248	0x41271eb4	10.444996
249	0x40f27a7b	7.577451
250	0xbcc410fc	-0.02393388
251	0xc0b44cc6	-5.6343718
252	0x40cd7a2f	6.421165
253	0xc16f7994	-14.967182
254	0xc0bfdb21	-5.995499
255	0x3ffd3f0d	1.9784867

bn1.running_var f4 [256]
0	0x43329e40	178.61816
1	0x42c10a53	96.520164
2	0x42424b77	48.573696
3	0x428739ed	67.61314
4	0x4329b82f	169.71947
5	0x42a70e03	83.52737
6	0x444896ac	802.35425
7	0x4280a2d4	64.31802
8	0x42ca9238	101.28558
9	0x42678041	57.875248
10	0x42a1ce65	80.903114
11	0x43b50d6f	362.10495
12	0x426cc5d6	59.1932
13	0x429b515f	77.65893
14	0x422824f2	42.03608
15	0x4305cc45	133.79793
16	0x40c3c04a	6.117223
17	0x42596fae	54.359062
18	0x42cc0432	102.008194
19	0x42a6bed7	83.372734
20	0x405072ea	3.2570138
21	0x435cbd87	220.74034
22	0x42b662c1	91.19288
23	0x4299a412	76.82045
24	0x426ae66c	58.72502
25	0x41a5d5c4	20.729378
26	0x4120820c	10.03175
27	0x41363038	11.386772
28	0x43049865	132.59529
29	0x4279ca44	62.447525
30	0x428df4e4	70.9783
31	0x42f158a4	120.67313
32	0x43175af0	151.35522
33	0x43210c61	161.04836
34	0x42889ce4	68.30643
35	0x42c3884c	97.766205
36	0x41d81a02	27.0127
37	0x42986a15	76.20719
38	0x41b6c6f8	22.847153
39	0x42b3b5a3	89.85476
40	0x42aa1c7b	85.055626
41	0x423a9e49	46.654575
42	0x42c1f6e8	96.98224
43	0x42dc233b	110.06881
44	0x43198cb3	153.5496
45	0x431adbdd	154.85884
46	0x42be8862	95.26637
47	0x42c8b091	100.34486
48	0x42edeb51	118.9596
49	0x4253f35f	52.987667
50	0x42876b2a	67.709305
51	0x423a9c3a	46.652565
52	0x42297c4d	42.371387
53	0x42b96170	92.69031
54	0x429060bc	72.188934
55	0x42418766	48.382225
56	0x439ebf3e	317.49408
57	0x42445840	49.08618
58	0x42c71b10	99.55286
59	0x4215ef50	37.483704
60	0x42acf284	86.47366
61	0x411b9ae2	9.725313
62	0x42974576	75.635666
63	0x4352f47b	210.955
64	0x431c293b	156.16106
65	0x4189c7f0	17.222626
66	0x431127da	145.15567
67	0x430dd88c	141.84589
68	0x4308fe14	136.9925
69	0x42620df8	56.51364
70	0x428eae16	71.34001
71	0x42c0ad9d	96.33909
72	0x433edd0f	190.86351
73	0x431829b6	152.16293
74	0x43496b59	201.41933
75	0x4269444a	58.31669
76	0x4351c3f5	209.76546
77	0x430d6b84	141.41998
78	0x41e68d57	28.819014
79	0x42edf992	118.98744
80	0x4203ff4f	32.999325
81	0x42ab6d36	85.7133
82	0x42cc0360	102.00659
83	0x42803499	64.10273
84	0x42b434a2	90.1028
85	0x426d16f0	59.2724
86	0x41671a01	14.443849
87	0x429f8c4e	79.77403
88	0x42adbe93	86.872215
89	0x42c057af	96.17126
90	0x42dd72d8	110.724304
91	0x42849d18	66.30682
92	0x42330e2b	44.763836
93	0x4338fcaa	184.98697
94	0x43c4c438	393.53296
95	0x43114e6e	145.30637
96	0x42b58804	90.765656
97	0x4276be20	61.68567
98	0x4252ea11	52.72858
99	0x42f6e989	123.45612
100	0x420f74d4	35.86409
101	0x42a76572	83.698135
102	0x432253ce	162.32736
103	0x430e21d9	142.13222
104	0x42fb98f5	125.798744
105	0x42bb4628	93.637024
106	0x4343b131	195.69215
107	0x42fa7295	125.22379
108	0x41d52717	26.644087
109	0x4317b029	151.68813
110	0x425ada5a	54.713234
111	0x40f4a0de	7.644637
112	0x43a99666	339.175
113	0x42cef81e	103.484604
114	0x422b59f3	42.83784
115	0x42e368a2	113.70436
116	0x42848b3b	66.271935
117	0x42275d17	41.840908
118	0x432be282	171.8848
119	0x41273a94	10.451801
120	0x418d2bb0	17.646332
121	0x41884ae7	17.036573
122	0x42905e08	72.183655
123	0x42bf1489	95.54011
124	0x42d06dd2	104.21449
125	0x41f3723a	30.430775
126	0x4291c650	72.88733
127	0x42c5d1d3	98.90981
128	0x42ee9416	119.28923
129	0x43d3e641	423.79886
130	0x428c7a1b	70.23849
131	0x4346070f	198.02757
132	0x4237affd	45.921864
133	0x43da1ae6	436.21014
134	0x4284118c	66.03427
135	0x4315bc30	149.7351
136	0x429b2561	77.573006
137	0x41f2ed2c	30.365807
138	0x428a0889	69.01667
139	0x42f86c2c	124.21127
140	0x430dfcdc	141.98773
141	0x423d67ac	47.351242
142	0x42c4fc92	98.4933
143	0x42ad8090	86.7511
144	0x43235595	163.3343
145	0x42f6b18f	123.346794
146	0x42b0a773	88.32705
147	0x4288c950	68.39319
148	0x435efb2d	222.98116
149	0x42f5d09a	122.907425
150	0x42d29269	105.28596
151	0x41bf79e6	23.93452
152	0x42830514	65.50992
153	0x4300ee51	128.93092
154	0x430e7afc	142.48041
155	0x4383b5db	263.42075
156	0x432b93d0	171.5774
157	0x4372688d	242.4084
158	0x42ba2232	93.06679
159	0x42911579	72.54194
160	0x43ab6bc2	342.84186
161	0x42286e79	42.107883
162	0x4283cb6e	65.89732
163	0x42eac424	117.38309
164	0x42c282bd	97.25535
165	0x42d0eaa0	104.45825
166	0x425943ab	54.316082
167	0x42932376	73.56926
168	0x42df057d	111.51072
169	0x4257d8f3	53.961864
170	0x42d104dd	104.5095
171	0x4302e9aa	130.91275
172	0x43366628	182.39905
173	0x41a1254a	20.143208
174	0x42d54fd6	106.65593
175	0x4255bd2b	53.434734
176	0x42e07eb3	112.24746
177	0x427dfd1e	63.497185
178	0x428a1528	69.04132
179	0x43930d9b	294.1063
180	0x4280e13f	64.43993
181	0x42bcc4cd	94.38438
182	0x42e656bf	115.169426
183	0x427618fd	61.524403
184	0x42906879	72.20405
185	0x4346206f	198.1267
186	0x42a0baf3	80.365135
187	0x42074093	33.81306
188	0x43d24542	420.54108
189	0x42870133	67.50234
190	0x43136d32	147.42654
191	0x43ea921b	469.14145
192	0x433bb3fb	187.70305
193	0x41874dd1	16.912996
194	0x43079432	135.57889
195	0x4168d677	14.55236
196	0x4201d026	32.45327
197	0x437e882a	254.53189
198	0x432c2b72	172.16971
199	0x434918c3	201.09673
200	0x425a896c	54.6342
201	0x42fb5762	125.67067
202	0x4306d625	134.8365
203	0x42ec4585	118.13578
204	0x40ec2a94	7.3801975
205	0x438c92cc	281.14685
206	0x43494822	201.28177
207	0x42b11217	88.53533
208	0x41d850b1	27.0394
209	0x434cc7f2	204.78104
210	0x42a189c6	80.76909
211	0x41a61608	20.760757
212	0x430cf1b5	140.94417
213	0x42931b3e	73.55321
214	0x42ee8c7d	119.27439
215	0x4111cdff	9.112792
216	0x42646243	57.09596
217	0x434edd37	206.86412
218	0x42a6eee7	83.466606
219	0x42b62640	91.07471
220	0x4201b0b6	32.42257
221	0x4330865a	176.52481
222	0x42b0b54c	88.354095
223	0x43345531	180.33278
224	0x42f397ab	121.79623
225	0x42caf376	101.47551
226	0x43335a5b	179.35295
227	0x42fdda2b	126.92611
228	0x42cc19c1	102.0503
229	0x42da885d	109.266335
230	0x3f00c726	0.50303876
231	0x41c6d14e	24.8522
232	0x42bf78b5	95.735756
233	0x4406bfc7	538.9965
234	0x42ea9cbd	117.30613
235	0x42d644d5	107.13444
236	0x42591134	54.2668
237	0x4288ac00	68.33594
238	0x42ae52ba	87.161575
239	0x4380d9cd	257.70157
240	0x4296f84d	75.48496
241	0x41b1d3f4	22.228493
242	0x420e535c	35.581406
243	0x42469823	49.64857
244	0x42418765	48.38222
245	0x4194ee7b	18.616446
246	0x420dc296	35.440025
247	0x42c92e05	100.58988
248	0x4301d816	129.84409
249	0x42032f26	32.796043
250	0x42bb26ee	93.576035
251	0x42f8848c	124.25888
252	0x420993ec	34.394455
253	0x4287296b	67.580894
254	0x42bcf1e7	94.472466
255	0x432e38a9	174.22133

fc2.weight f4 [128, 256]
0	0xbe5683bb	-0.20948689
1	0xbef4e094	-0.4782759
2	0x3d9fae4e	0.07796918
3	0xbe7d38a9	-0.24728645
4	0x3dfb700d	0.12277231
5	0xbe91065a	-0.28325158
6	0xbdc38729	-0.09547264
7	0x3eaf44a4	0.34232056
8	0x3e87c9ef	0.2652125
9	0xbf16b44e	-0.58868873
10	0x3f163812	0.58679307
11	0x3efd0b39	0.49422625
12	0x3d00a12e	0.031403713
13	0xbe8ff4d3	-0.28116474
14	0xbd5ea6cd	-0.054358292
15	0xbe9d53c6	-0.30727977
16	0xbca1747b	-0.019708863
17	0x3f3866f5	0.720321
18	0x3e9f7ccf	0.3114991
19	0x3ebb2072	0.3654819
20	0xbda4847a	-0.080330804
21	0x3e94dd28	0.2907498
22	0xbe6f187b	-0.23349182
23	0x3e80a9e7	0.25129625
24	0x3d2303b5	0.039798457
25	0x39bc803c	0.00035953696
26	0xbf09071e	-0.53526485
27	0xbf72d656	-0.948583
28	0xbe0fb822	-0.14035085
29	0x3efab5e5	0.489669
30	0xbe2e230b	-0.17005555
31	0xbf9a1672	-1.20381
32	0x3d955ac9	0.072927065
33	0xbf07fac6	-0.53117025
34	0x3eb34228	0.3501141
35	0x3de5aee7	0.112150006
36	0x3eac2a85	0.3362619
37	0xbe8580cd	-0.2607483
38	0xbbd309c0	-0.0064403713
39	0xbe298956	-0.16556296
40	0xbdf46c89	-0.11934764
41	0xbc8a65a3	-0.016894167
42	0xbee2bbaf	-0.44283816
43	0x3e9562b2	0.2917686
44	0xbd59f42e	-0.053211384
45	0xbdecb2b9	-0.11557526
46	0xbf63754d	-0.8885086
47	0x3ea69699	0.32536772
48	0xbe580702	-0.21096423
49	0x3e8c8ee1	0.27452758
50	0x3e95eb76	0.29281205
51	0x3f1a3729	0.6024042
52	0x3e2803ec	0.16407746
53	0xbf34df92	-0.7065364
54	0xbf02049c	-0.50788283
55	0x3dc92e67	0.09823304
56	0xbeb367ae	-0.3504004
57	0x3d11b4c6	0.03557279
58	0xbe200cf9	-0.15629949
59	0xbe92bac2	-0.2865811
60	0xbe7168eb	-0.2357518
61	0x3f134b66	0.57536924
62	0xbe71b396	-0.23603663
63	0x3ebc73b0	0.36807013
64	0x3e353149	0.17694582
65	0xbe372c02	-0.17887881
66	0xbf05dac4	-0.52286935
67	0x3e84125e	0.25795263
68	0xbe57d89d	-0.21078725
69	0x3f00bc80	0.5028763
70	0xbf9f8093	-1.2461113
71	0x3ecc63c9	0.3991988
72	0x3e8935e3	0.26798925
73	0x3d85e1f8	0.06537241
74	0xbea4cae7	-0.32186052
75	0x3f4e53c2	0.80596554
76	0x3e82b57b	0.25529084
77	0x3e0aacc0	0.13542461
78	0x3d727b1e	0.059199445
79	0xbde3d19b	-0.111239634
80	0x3e6557dc	0.22396797
81	0xbca5df6c	-0.020248137
82	0xbe4fd807	-0.20297252
83	0x3e3efc39	0.18650903
84	0x3ec09a27	0.3761761
85	0x3fab57a1	1.3386117
86	0xbed2ccb6	-0.41171807
87	0xbe93aa98	-0.2884109
88	0xbefc9515	-0.4933249
89	0xbee68ae2	-0.45027834
90	0xbdf45283	-0.119298
91	0x3cf1955f	0.029490171
92	0xbe83882f	-0.25689837
93	0x3e474998	0.19461668
94	0xbf0f7afa	-0.5604702
95	0xbd337839	-0.043815825
96	0xbdf44bfb	-0.119285546
97	0x3e861e6f	0.26195094
98	0xbdeca2da	-0.11554499
99	0x3c80e389	0.015733497
100	0x3c97056a	0.018435199
101	0xbf3e5b75	-0.743583
102	0xbddb26f2	-0.107007876
103	0xbbc5a24d	-0.0060313107
104	0x3df07319	0.11740703
105	0x3d5324c7	0.051548745
106	0x3c4a3e60	0.012343973
107	0x3e803dcf	0.25047156
108	0x3de0657d	0.10956857
109	0xbe212e60	-0.15740347
110	0x3f2154ab	0.6301982
111	0x3df836ab	0.12119802
112	0x3c72051b	0.014771725
113	0x3ec2aa05	0.3802034
114	0xbf082af2	-0.5319053
115	0x3cc2b132	0.023766134
116	0x3be3efe3	0.006956087
117	0xbf33072a	-0.69932806
118	0x3eea17d7	0.45721313
119	0x3c9f1d4d	0.019423151
120	0x3e2c87ce	0.1684868
121	0xbd440b97	-0.047862615
122	0xbecc67f2	-0.39923054
123	0xbe6056c2	-0.21908095
124	0x3dedf4f4	0.11618987
125	0xbe79bf8b	-0.24389474
126	0xbd8b6e23	-0.06808116
127	0x3ec4af0e	0.38414806
128	0x3dc5b843	0.09654286
129	0x3c13cdcd	0.009021235
130	0xbc4c254f	-0.012460067
131	0xbd831c05	-0.06401829
132	0x3ef2f412	0.47451836
133	0xbe9cb8ae	-0.3060965
134	0xbc3bfb9f	-0.011473565
135	0xbecfd731	-0.40593866
136	0x3e5c5c81	0.21519662
137	0xbe26833c	-0.16261
138	0xbeda8c2c	-0.42685068
139	0x3e48a6b8	0.19594848
140	0x3de896bc	0.11356875
141	0xbcd381b3	-0.025818681
142	0xbe372698	-0.17885816
143	0xbd2e8d8b	-0.042615455
144	0x3d20afc4	0.039230123
145	0x3f24c96b	0.6436984
146	0x3b226a8e	0.002478275
147	0x3ec597fc	0.38592517
148	0xbf19a4d8	-0.60017157
149	0xbeb1cf63	-0.34728536
150	0x3de0a903	0.109697364
151	0x3a15af2c	0.00057100016
152	0x3e88f569	0.26749733
153	0x3e4650d0	0.19366765
154	0xbc8d546a	-0.017252166
155	0x3b156a5d	0.0022798993
156	0x3d9d29ff	0.07674026
157	0xbdb14832	-0.08656348
158	0xbe19c8ea	-0.15018049
159	0x3dd9f450	0.10642302
160	0xbe3eaad2	-0.1861985
161	0x3d1d91ec	0.03846924
162	0xbd87f74e	-0.066389665
163	0xbe251f21	-0.16125156
164	0x3d378f40	0.04481435
165	0xbde1ff10	-0.110349774
166	0xbe30d041	-0.17266943
167	0xbe60c2d9	-0.21949328
168	0xbe5f9a51	-0.21836211
169	0x3d43c291	0.047792975
170	0x3e757c3a	0.2397317
171	0xbf0cb94b	-0.54970235
172	0xbea7e28c	-0.3279003
173	0x3ecdfe02	0.40232855
174	0xbe444a5d	-0.19168992
175	0xbdaf090b	-0.08546647
176	0x3e07dcf9	0.13267888
177	0x3e8fa53a	0.28055745
178	0x3d3f5464	0.04671134
179	0x3ec43199	0.3831909
180	0xbf07775b	-0.52916497
181	0x3e6f5f87	0.23376285
182	0xbf0fed3e	-0.5622138
183	0xbf56e08c	-0.8393638
184	0x3c81afca	0.015830893
185	0xbecdcd20	-0.4019556
186	0xbe01f535	-0.12691195
187	0x3f19eddf	0.6012859
188	0x3ceb2d68	0.028708175
189	0x3e734fd6	0.23760924
190	0x3e2fc27b	0.17164032
191	0x3d2df1a2	0.042466767
192	0x3e9f83a1	0.31155112
193	0xbd168de7	-0.036756422
194	0x3e13850a	0.14406219
195	0x3e64611b	0.22302668
196	0xbe7b24a4	-0.24525696
197	0xbc29b60b	-0.010358344
198	0x3ef9026d	0.48634663
199	0xbea74949	-0.326731
200	0xbe766719	-0.24062766
201	0x3caad985	0.020855675
202	0xbea459c6	-0.32099742
203	0x3d66f732	0.056388088
204	0x3d4edbbc	0.050502524
205	0xbe14f49c	-0.14546436
206	0xbdab41dc	-0.08362171
207	0xbebebcba	-0.37253362
208	0xbd701f62	-0.05862368
209	0xbeb690d3	-0.35657367
210	0x3bfd55e7	0.0077311876
211	0x3f14c287	0.58109325
212	0xbda14dc8	-0.07876164
213	0xbf2e98a2	-0.6820165
214	0xbf0d195e	-0.5511683
215	0xbf9b6f3f	-1.2143325
216	0xbeaf4cef	-0.34238383
217	0xbe5e4f07	-0.21709834
218	0xbecbdb04	-0.39815533
219	0x3ee3d490	0.4449811
220	0x3ea5da03	0.32392892
221	0xbe5a7417	-0.21333347
222	0x3e231707	0.15926753
223	0x3e71159d	0.23543401
224	0x3d8c22af	0.06842553
225	0xbedb077b	-0.42779145
226	0x3df9cce8	0.12197286
227	0x3db27da1	0.08715368
228	0x3e93d9c7	0.28877088
229	0x3c90ae89	0.01766135
230	0x3da90ca1	0.08254362
231	0x3e78fa88	0.2431432
232	0xbedb2338	-0.42800307
233	0xbee5de42	-0.44896132
234	0x3d28e691	0.04123551
235	0x3cf91604	0.030406006
236	0xbe17512d	-0.1477706
237	0x3ed482fe	0.4150619
238	0x3d57d8dd	0.05269705
239	0xbe4925bf	-0.19643305
240	0xbef08d0b	-0.46982607
241	0x3d086708	0.033301383
242	0x3d693e0d	0.05694394
243	0xbe7ce54f	-0.2469685
244	0x3ef27f21	0.47362617
245	0x3ed7a909	0.4212115
246	0xbf588db9	-0.8459125
247	0xbe4a453c	-0.19752973
248	0x3e76a53d	0.24086471
249	0xbc503d32	-0.012709903
250	0xbefb69d2	-0.49104172
251	0x3d0040c5	0.03131177
252	0xbf742ac5	-0.9537776
253	0x3c34755c	0.011014309
254	0x3ea6c068	0.3256867
255	0x3ba33040	0.004980117

fc2.bias f4 [128]
0	0xbefa6639	-0.48906115
1	0xbe7251d8	-0.23664033
2	0x3d23b3a9	0.03996626
3	0xbbabfb6b	-0.005248477
4	0xbe3bd90d	-0.18344517
5	0xbe56289c	-0.20913929
6	0x3ebc6056	0.36792248
7	0xbe5878ee	-0.21139881
8	0xbc0885dd	-0.008332697
9	0xbd8848b1	-0.0665449
10	0x3ed94182	0.4243279
11	0xbdc9006d	-0.09814534
12	0xbe8460db	-0.25855145
13	0xbd895173	-0.06704988
14	0xbe409652	-0.18807343
15	0x3eb2d802	0.34930426
16	0xbdca6606	-0.09882741
17	0xbe364bc1	-0.17802335
18	0xbd0e6179	-0.034760926
19	0xbe0c46a2	-0.1369882
20	0xbe0f1163	-0.13971476
21	0xbe630c5a	-0.2217268
22	0xbd9cdcae	-0.07659279
23	0xbd2cb677	-0.0421662
24	0x3e29f1c4	0.16596133
25	0xbe5130b7	-0.2042874
26	0xbccf26dd	-0.025287086
27	0xbeb8487b	-0.35992798
28	0x3e30bc1d	0.1725926
29	0xbe3b534f	-0.18293498
30	0xbd5a01b3	-0.053224277
31	0xbdcbb5e0	-0.09946799
32	0x3e85846b	0.2607759
33	0xbe6ffdf5	-0.2343672
34	0xbe50c8c0	-0.2038908
35	0xbdcf9c17	-0.10137194
36	0xbeb218df	-0.347846
37	0xbe24647a	-0.16053954
38	0xbe31ab3c	-0.17350477
39	0xbe4b5b5b	-0.19859068
40	0xbcfcea51	-0.03087345
41	0xbef58176	-0.47950333
42	0xbe9e8039	-0.309572
43	0x3da45bcd	0.08025322
44	0x3db9298f	0.0904113
45	0xbe2229a7	-0.15836202
46	0xbd2e5443	-0.042560827
47	0xbe725b50	-0.23667645
48	0xbdabfff1	-0.08398426
49	0xbd86066f	-0.06544196
50	0xbaaaf911	-0.0013044198
51	0xbe1c74fc	-0.15279001
52	0xbe04916e	-0.12946102
53	0x3e3dc956	0.18533835
54	0x3d59cbbf	0.053172823
55	0xbe317b61	-0.17332222
56	0xbe27df48	-0.16393769
57	0xbef25583	-0.47330865
58	0xbd68ff72	-0.056884237
59	0xbdad26ed	-0.0845469
60	0xbe4f5efe	-0.2025108
61	0xbe10e711	-0.14150645
62	0xbe0d683b	-0.13809292
63	0xbe08a338	-0.13343513
64	0xbe049394	-0.12946922
65	0xbe3676c3	-0.17818742
66	0xbdfc87b8	-0.12330574
67	0x3ec49b7d	0.38399878
68	0xbe39a53a	-0.18129435
69	0x3ca3c80e	0.019992854
70	0xbd9f6447	-0.07782798
71	0xbe773722	-0.24142125
72	0xbe87fc4d	-0.26559678
73	0x3e110c58	0.14164865
74	0xbe3e743e	-0.1859903
75	0xbddcf6f5	-0.10789291
76	0x3dcb0b32	0.09914245
77	0x3ead9c37	0.33908245
78	0xbd784bc4	-0.06061913
79	0xbcfe34cd	-0.031031037
80	0x3cbc091b	0.02295356
81	0x3e0eac84	0.13932997
82	0xbe4089ff	-0.18802641
83	0xbdc172b7	-0.09445708
84	0x3e7c0733	0.24612121
85	0xbd8492c4	-0.06473306
86	0xbf01ac55	-0.5065358
87	0x3e28c713	0.16482191
88	0xbd252ac2	-0.04032398
89	0x3e68f0a0	0.22748041
90	0x3e2f22bb	0.17103092
91	0x3df02f64	0.11727789
92	0xbe65bc1e	-0.22435042
93	0x3ee9e6ff	0.4568405
94	0x3d9e75e8	0.077373326
95	0x3e95cb47	0.2925665
96	0xbe98ed9f	-0.2986879
97	0xbde887f8	-0.11354059
98	0xbe420038	-0.18945396
99	0xbe8a005b	-0.26953396
100	0xbe8ecac2	-0.27889067
101	0xbcb96a5a	-0.02263372
102	0xbd43a112	-0.04776103
103	0x3ebaccf3	0.3648449
104	0xbe32c5e8	-0.17458308
105	0xbe50ca21	-0.20389606
106	0x3e989757	0.29802963
107	0xbd7337e5	-0.059379477
108	0xbd19e41d	-0.03757106
109	0xbf108c8c	-0.5646446
110	0xbc2972ce	-0.010342313
111	0xbd2fd359	-0.042926166
112	0xbcc01266	-0.023446273
113	0xbd90344b	-0.07041224
114	0xbe501180	-0.20319176
115	0xbe80e77d	-0.25176612
116	0xbe1645f4	-0.14675122
117	0xbc0e6922	-0.008692058
118	0xbdbaebdf	-0.0912702
119	0xbe5e1585	-0.21687897
120	0xbd909e44	-0.07061437
121	0x3b4b03ec	0.003097768
122	0xbe6dc2f2	-0.23218897
123	0xbe0bb873	-0.1364458
124	0xbd944fe0	-0.072417974
125	0xbe814bdb	-0.25253186
126	0x3e09b6ed	0.13448687
127	0x3e04bf28	0.12963545
